mask_detection.pth (torch, 251391 bytes, 10 tensors)

conv1.weight f4 [6, 3, 5, 5]
0.07277978 0.052994777 -0.07681857 -0.016822388 -0.058853116 -0.07496019 -0.04898083 -0.07184153
0.00018222167 -0.092161946 -0.08337593 -0.110696256 0.019268127 -0.10660697 0.073293194 -0.11139994
0.034263548 0.006506306 -0.017747372 0.056968473 0.043625392 -0.1265492 -0.035241723 0.056992557
0.023965254 -0.05801336 0.067706764 0.009552341 -0.016225878 0.15251115 0.1110205 0.022359947
0.05172625 0.13668053 0.022237819 0.0582127 0.009535848 -0.028851524 -0.09675711 0.0788463
-0.050658442 0.10026802 0.063248776 -0.036227215 0.07847168 -0.04828673 0.093098074 -0.058646087
0.06201121 0.046413656 0.07634569 0.09068069 0.08285664 0.010150997 -0.052022897 0.03014145
0.11372058 0.12230717 0.1350286 -0.02159781 -0.004169832 -0.031169359 -0.02899819 -0.11217003
0.0081478795 -0.08553388 -0.023458501 0.013243267 -0.030154243 -0.017293384 -0.088799834 -0.09764214
-0.13723327 -0.081809364 -0.11018828 0.004453372 -0.13127823 -0.015025702 -0.09192791 -0.037765447
-0.10091905 -0.008532532 -0.07337689 -0.0873267 -0.15217341 -0.16581012 -0.019486984 -0.0688562
-0.05633704 -0.05083316 -0.13851108 -0.095157295 -0.06830712 -0.0975372 -0.10253881 -0.14701983
-0.121863574 -0.09827249 -0.08663522 -0.1758298 0.02825099 0.008229535 0.14605138 0.051657345
-0.021042261 0.10483738 0.15219621 0.12281542 0.090601295 0.021274105 0.11986353 -0.052204143
0.0054949997 -0.029827477 0.030137217 0.035039276 -0.06699118 0.09574744 -0.005725742 0.11029322
-0.08859348 -0.06462844 -0.0580635 -0.1315203 0.012027362 0.18489277 0.022864854 0.133385
0.14262342 0.13133484 0.1616165 0.083364084 0.06968221 0.17781593 0.13751093 0.058417894
0.19188267 0.099783175 0.0820672 0.022536179 0.16214271 0.0073574637 0.023047972 0.13545646
0.049005307 0.011353017 0.09826139 -0.10927796 -0.08062814 -0.04103247 -0.13198505 -0.0004080321
-0.1445876 -0.03400754 -0.11291338 0.061919585 -0.12759946 -0.023947854 -0.033628438 0.08217934
-0.04030071 0.041563354 0.045158684 -0.020311017 0.07976523 -0.12930427 -0.019381084 0.009040804
0.043383725 -0.1267193 0.019569123 0.0307152 -0.04778462 0.03175375 -0.05784008 0.14166018
0.101355195 0.07586102 0.1232465 0.14931633 0.14788002 0.0047105416 0.064931825 0.02361255
0.0023133175 0.1565615 0.13413787 -0.009958315 0.1345887 -0.028273052 0.08039908 -0.031926762
-0.07694076 0.09200336 -0.047649074 0.03748026 -0.066135116 0.0465874 0.09144209 -0.048423942
0.0822148 0.1274473 0.0044104555 0.09617195 0.08542265 0.024639552 0.16276014 0.13705492
0.15684219 0.029941617 0.15562779 0.096608385 0.1615998 0.058393158 -0.029604018 -0.05412239
0.14113377 -0.06478639 0.070195876 0.063952774 0.12227416 -0.085666314 0.035124462 -0.0604516
0.08642279 0.11794175 0.11541336 0.11505675 0.015743596 0.054775704 0.15175012 0.16600706
0.1861441 0.014900693 0.067497 0.16906086 -0.028930029 0.0049570748 0.075139455 -0.095865674
0.18183 0.08841457 0.12970477 0.031049468 -0.054089654 0.1781536 0.19959378 0.14524153
0.14800613 0.035369232 -0.009858709 0.044224005 -0.06706464 0.030526202 -0.17062849 -0.054334793
00000000: 910d 953d 0d11 593d 0e53 9dbd 1bcf 89bc
00000010: f70f 71bd ba84 99bd 1fa0 48bd a721 93bd
00000020: c212 3f39 67bf bcbd 00c1 aabd b8b4 e2bd
00000030: 31d8 9d3c c154 dabd be1a 963d a725 e4bd
00000040: ef57 0c3d da32 d53b f062 91bc c657 693d
00000050: 8ab0 323d 1d96 01be a059 10bd 0771 693d
00000060: c852 c43c 6b9f 6dbd d8a9 8a3d 6c81 1c3c
00000070: 22ec 84bc e22b 1c3e b75e e33d 352c b73c
00000080: e8de 533d fbf5 0b3e 162c b63c 7170 6e3d
00000090: 3f3c 1c3c 085a ecbc 9728 c6bd 2b7a a13d
000000a0: 3a7f 4fbd 5259 cd3d 9388 813d fd62 14bd
000000b0: c3b5 a03d 4ec8 45bd 34aa be3d e136 70bd
000000c0: 77ff 7d3d 3f1c 3e3d 215b 9c3d ccb6 b93d
000000d0: beb0 a93d 5e50 263c f615 55bd 34eb f63c
000000e0: 56e6 e83d 2e7c fa3d f044 0a3e e4ed b0bc
000000f0: 16a3 88bb e256 ffbc 9d8d edbc 67b9 e5bd
00000100: af7e 053c 632c afbd 0b2c c0bc 4afa 583c
00000110: 0806 f7bc dbaa 8dbc b0dc b5bd 9af8 c7bd
00000120: e186 0cbe ab8b a7bd 65aa e1bd 98ed 913b
00000130: cd6d 06be 5d2e 76bc b344 bcbd f1af 1abd
00000140: a6ae cebd 08cc 0bbc 9f46 96bd 57d8 b2bd
00000150: 59d3 1bbe 21ca 29be 2ba3 9fbc 7b04 8dbd
00000160: abc1 66bd 6e36 50bd d9d5 0dbe d4e1 c2bd
00000170: 9ae4 8bbd 95c1 c7bd deff d1bd 5e8c 16be
00000180: 9c93 f9bd 1643 c9bd ce6d b1bd ba0c 34be
00000190: 9f6e e73c 2cd5 063c 7e8e 153e a796 533d
000001a0: d260 acbc fbb4 d63d 53d9 1b3e a786 fb3d
000001b0: 2c8d b93d 0847 ae3c 037b f53d 03d4 55bd
000001c0: 660f b43b c158 f4bc 53e2 f63c 5885 0f3d
000001d0: ac32 89bd 3c17 c43d 019f bbbb 69e1 e13d
000001e0: 8070 b5bd ea5b 84bd fed3 6dbd 42ad 06be
000001f0: 6a0e 453c 8854 3d3e 134f bb3c 1496 083e
00000200: e00b 123e a47c 063e cc7e 253e caba aa3d
00000210: 8cb5 8e3d 6115 363e aacf 0c3e 9a47 6f3d
00000220: e47c 443e 1f5b cc3d d912 a83d cb9d b83c
00000230: bd08 263e e116 f13b 1acf bc3c 19b5 0a3e
00000240: cab9 483d 0102 3a3c 453d c93d 20cd dfbd
00000250: 5e20 a5bd aa11 28bd 1727 07be 24ed d5b9
00000260: c60e 14be 7e4b 0bbd 213f e7bd 649f 7d3d
00000270: 6fa9 02be 4a2e c4bc f9bd 09bd a44d a83d
00000280: 5b12 25bd 563e 2a3d 50f8 383d 4a63 a6bc
00000290: f45b a33d 5768 04be 14c5 9ebc e11f 143c
000002a0: 22b3 313d b4c2 01be 6d4f a03c 719e fb3c
000002b0: ceb9 43bd 3810 023d b8e9 6cbd 5e0f 113e
000002c0: 5093 cf3d 065d 9b3d a968 fc3d 61e6 183e
000002d0: dc6d 173e e35a 9a3b fafa 843d 1b6f c13c
000002e0: 079b 173b a851 203e 705b 093e 3328 23bc
000002f0: 9fd1 093e e39c e7bc 46a8 a43d a3c5 02bd
00000300: 1e93 9dbd 426c bc3d ad2b 43bd e784 193d
00000310: d971 87bd 6ed2 3e3d fe45 bb3d 2f58 46bd
00000320: 3c60 a83d 8c81 023e 9585 903b cdf5 c43d
00000330: 12f2 ae3d e3d8 c93c 98aa 263e 2058 0c3e
00000340: 3d9b 203e 1f48 f53c e45c 1f3e 9eda c53d
00000350: 6b7a 253e aa2d 6f3d 2084 f2bc 70af 5dbd
00000360: 5f85 103e baae 84bd dbc2 8f3d acf9 823d
00000370: e06a fa3d d271 afbd abde 0f3d 199c 77bd
00000380: 6ffe b03d 728b f13d d75d ec3d e0a2 eb3d
00000390: b7f8 803c 7d5c 603d 6264 1b3e c1fd 293e
000003a0: 8f9c 3e3e 0922 743c de3b 8a3d 4a1e 2d3e
000003b0: abfe ecbc f56e a23b b7e2 993d 3955 c4bd
000003c0: a531 3a3e b312 b53d 54d1 043e 745b fe3c
000003d0: 1d8d 5dbd e66d 363e 5062 4c3e 32ba 143e
000003e0: eb8e 173e 54df 103d 6c86 21bc 3b24 353d
000003f0: 3059 89bd 1612 fa3c 3cb9 2ebe 298e 5ebd

conv1.bias f4 [6]
0.027979337 0.28086907 0.2111036 0.14417653 0.14273244 0.2943535
00000000: ec34 e53c 12ce 8f3e 8b2b 583e 03a3 133e
00000010: 7428 123e 80b5 963e

conv2.weight f4 [16, 6, 5, 5]
0.054947197 -0.070869125 -0.013530846 0.049076658 -0.031821862 0.031729493 0.0150294155 0.03525521
0.06891844 0.06300407 0.04475644 0.06443318 -0.015179838 -0.0014204236 -0.06033084 0.047499213
0.06899168 0.035678238 0.064571895 0.012219155 -0.044454247 -0.005837301 0.07839436 0.07375496
-0.052141603 0.032258414 -0.03411822 -0.046874892 -0.0061802594 0.080060184 -0.031058574 0.101698205
0.062037095 0.036497325 0.023581171 -0.051719107 0.08009324 -0.0033481687 -0.043507677 0.028119633
-0.046172544 -0.05611198 0.057433423 -0.016827393 -0.009942565 -0.07540777 -0.08772397 -0.08254986
0.047240194 -0.050492447 -0.032194197 -0.039276272 0.059151024 0.060145505 0.043951914 0.081728496
0.09113545 -0.0150935585 0.087588325 0.063753426 0.00055031886 -0.009676068 0.07776926 0.03945548
0.056392368 -0.0013720061 -0.07448032 0.015166527 -0.072028436 -0.09880651 0.01528166 -0.041726258
-0.08600131 -0.09958865 -0.11620343 -0.02501858 -0.011373822 0.011014997 0.06548375 0.030974705
-0.0593651 0.058122624 0.0076416656 -0.014054316 0.019172428 0.06574593 0.008173619 -0.06750031
-0.034299523 0.038444478 -0.0061825146 -0.03870551 0.043588683 0.011780236 -0.07294346 0.07853391
0.07817117 -0.044961415 -0.07300214 -0.056819744 0.0386127 -0.049218073 0.037645023 0.023077087
0.027252985 -0.055625096 0.06461127 -0.009662431 0.05731027 -0.03248963 0.05229563 -0.036758117
-0.029754637 -0.04937501 -0.061310798 0.009197998 0.020709869 0.02760791 -0.011671937 -0.078659385
0.019306371 0.055077057 -0.039247993 -0.030426286 0.0052822353 -0.04939851 0.030646786 0.055459786
0.037782528 -0.0041335244 0.015878359 -0.05864744 -0.039219942 -0.08416095 -0.0038448214 0.08087877
-0.02909521 0.006094444 -0.022124466 0.0053437557 -0.05884165 -0.039393358 -0.0021729155 0.05965213
-0.06509269 -0.01378633 -0.034339055 -0.031756278 0.07956498 -0.024671627 0.02305103 -0.04732177
-0.01737191 0.019240167 -0.027198551 0.0533019 0.039271053 0.026421122 -0.0361813 -0.052023817
0.04007154 -0.016967665 0.04249374 -0.051277533 -0.07834717 -0.06600955 0.028839668 0.0026633553
0.039696895 0.017647492 0.04209779 0.04904689 -0.03346155 -0.030536868 -0.03312535 0.038573407
0.058434363 -0.008570158 -0.08650185 0.06441978 -0.02081844 -0.06554302 -0.077995926 -0.015659047
-0.013729498 -0.047646664 0.02119781 -0.018684251 0.075838126 -0.033775855 0.010717913 0.07876227
-0.06786027 -0.0737273 0.05826665 -0.050482497 0.033425514 -0.0007253572 -0.07529563 0.049597807
0.046938326 -0.09578675 -0.08730436 0.029339494 -0.03808637 0.02049927 0.02970284 0.0053044804
0.028433817 0.04967368 -0.06328293 0.07273435 0.0077448273 -0.043427683 -0.06624898 -0.06741292
-0.042639483 -0.022228468 -0.05235874 0.02219882 0.017043956 -0.05954134 -0.07120799 0.05833947
-0.064529 0.039651565 -0.053353827 0.06996905 -0.01305293 -0.069955304 -0.03411596 -0.012726008
0.06440039 0.066238895 -0.001234327 -0.028842494 -0.035268765 0.013841528 0.015927207 0.021595886
0.036483992 0.07334922 0.041985523 0.05431546 0.02556938 0.027992731 0.043279085 -0.021102926
0.08250299 -0.055988457 0.025284322 -0.025424514 -0.014033557 -0.020630507 -0.022811357 0.017091623
00000000: 5010 613d d523 91bd 7bb0 5dbc 9b04 493d
00000010: a457 02bd c9f6 013d f03d 763c c467 103d
00000020: 1c25 8d3d 4708 813d 8752 373d 8bf5 833d
00000030: dbb4 78bc 822d baba 791d 77bd 898e 423d
00000040: 834b 8d3d 5823 123d 453e 843d da32 483c
00000050: a815 36bd d446 bfbb 398d a03d d70c 973d
00000060: 6f92 55bd 6621 043d 8cbf 0bbd e3ff 3fbd
00000070: c683 cabb 98f6 a33d 8d6e febc 2647 d03d
00000080: 9c1a 7e3d 387e 153d 4d2d c13c 6ad7 53bd
00000090: ed07 a43d f36c 5bbb 1b35 32bd 255b e63c
000000a0: 6c1f 3dbd add5 65bd 4f3f 6b3d 9ad9 89bc
000000b0: 24e6 22bc 646f 9abd a0a8 b3bd e70f a9bd
000000c0: ef7e 413d 2bd1 4ebd 10de 03bd 28e0 20bd
000000d0: 5848 723d 225b 763d ec06 343d 4561 a73d
000000e0: 39a5 ba3d f94a 77bc 8261 b33d 2891 823d
000000f0: 4643 103a 5f88 1ebc 7d45 9f3d 129c 213d
00000100: affb 663d e3d4 b3ba 2389 98bd 067d 783c
00000110: a583 93bd 115b cabd ed5f 7a3c 27e9 2abd
00000120: 7421 b0bd 22f5 cbbd 10fc edbd c4f3 ccbc
00000130: 4459 3abc 3f78 343c 581c 863d aabe fd3c
00000140: d228 73bd fd11 6e3d f066 fa3b 1344 66bc
00000150: 7f0f 9d3c cda5 863d a5ea 053c 9a3d 8abd
00000160: a87d 0cbd f577 1d3d b196 cabb ab89 1ebd
00000170: 0c8a 323d e401 413c 6163 95bd 63d6 a03d
00000180: 3518 a03d 7629 38bd 2582 95bd d2bb 68bd
00000190: 5a28 1e3d e498 49bd ab31 1a3d 290c bd3c
000001a0: a741 df3c 24d7 63bd ea52 843d 2c4f 1ebc
000001b0: 2cbe 6a3d d913 05bd f133 563d ae8f 16bd
000001c0: ffbf f3bc 733d 4abd 0821 7bbd 33b3 163c
000001d0: bea7 a93c fc29 e23c a73b 3fbc 2c18 a1bd
000001e0: 6528 9e3c 7b98 613d 81c2 20bd 8c40 f9bc
000001f0: 9a16 ad3b 1856 4abd f80e fb3c cd29 633d
00000200: dac1 1a3d 8472 87bb 5513 823c 4c38 70bd
00000210: 17a5 20bd 935c acbd 66f9 7bbb c5a3 a53d
00000220: 1459 eebc e7b3 c73b 5e3e b5bc ac1a af3b
00000230: f103 71bd ee5a 21bd 7967 0ebb cb55 743d
00000240: 514f 85bd 0fe0 61bc 1ca7 0cbd df12 02bd
00000250: f7f2 a23d 271c cabc 83d5 bc3c 79d4 41bd
00000260: 894f 8ebc 8e9d 9d3c 7fcf debc 1853 5a3d
00000270: afda 203d 1c71 d83c d832 14bd ed16 55bd
00000280: 0e22 243d c6ff 8abc ea0d 2e3d 6408 52bd
00000290: 7b74 a0bd 0430 87bd 2b41 ec3c b08b 2e3b
000002a0: 3699 223d 7991 903c bb6e 2c3d 64e5 483d
000002b0: fa0e 09bd 7428 fabc 72ae 07bd 26ff 1d3d
000002c0: df58 6f3d d969 0cbc e227 b1bd 85ee 833d
000002d0: 6f8b aabc 6b3b 86bd 54bc 9fbd 6747 80bc
000002e0: b0f1 60bc 2629 43bd 08a7 ad3c b70f 99bc
000002f0: 0551 9b3d 8d58 0abd 2f9a 2f3c 1d4e a13d
00000300: 53fa 8abd 57fe 96bd 03a9 6e3d bcc6 4ebd
00000310: 31e9 083d e625 3eba 9834 9abd 1227 4b3d
00000320: 6742 403d d82b c4bd a1cc b2bd 6159 f03c
00000330: 7400 1cbd 16ee a73c 5f53 f33c 35d1 ad3b
00000340: 09ee e83c a176 4b3d 7b9a 81bd bff5 943d
00000350: 52c8 fd3b 3ae1 31bd 8cad 87bd c90f 8abd
00000360: bda6 2ebd 7a18 b6bc 1e76 56bd 4dda b53c
00000370: c49f 8b3c 9fe1 73bd 7fd5 91bd 5ef5 6e3d
00000380: c827 84bd ae69 223d 8b89 5abd ef4b 8f3d
00000390: f5db 55bc ba44 8fbd 2dbd 0bbd bf80 50bc
000003a0: 5ae4 833d 42a8 873d 24c9 a1ba 1847 ecbc
000003b0: fb75 10bd 94c7 623c c679 823c dbe9 b03c
000003c0: 3d70 153d 1e38 963d 03f9 2b3d e379 5e3d
000003d0: e076 d13c 0351 e53c 6945 313d 0be0 acbc
000003e0: 54f7 a83d 2754 65bd 1121 cf3c 1247 d0bc
000003f0: 01ed 65bc 4f01 a9bc e2de babc bb03 8c3c

conv2.bias f4 [16]
-0.07219044 -0.0012330554 0.15441842 0.0046451003 0.016192697 0.14746508 -0.06814071 0.008105285
-0.01667026 -0.06517422 0.008180577 0.13810606 0.109878264 -0.020074902 0.00038870407 -0.046338506
00000000: 95d8 93bd 799e a1ba dd1f 1e3e ed35 983b
00000010: 8ca6 843c 1601 173e 5b8d 8bbd 07cc 043c
00000020: 1290 88bc 107a 85bd d407 063c ad6b 0d3e
00000030: db07 e13d 1f74 a4bc faca cb39 72cd 3dbd

fc1.weight f4 [120, 400]
-0.021991521 -0.013984088 -0.0052200872 0.041655187 0.03867854 0.0122614205 0.03901515 -0.017093001
-0.0028956307 0.00970265 -0.031725384 0.037085216 0.0005623512 -0.0061451225 0.046209913 0.007869023
-0.032582074 -0.02139785 -0.0114523005 0.0028184254 0.046242703 -0.028231157 -0.029340668 -0.030309146
0.03886671 0.039422084 -0.03171608 0.0075165555 0.021134546 -0.045874227 -0.039105006 -0.028828587
0.04709528 0.027495882 0.02913833 -0.03194242 -0.030883977 -0.041753083 0.0066435584 -0.031896073
0.013964981 0.026585795 -0.01779223 0.028962288 -0.022355635 0.048990596 0.0034090197 -0.027676715
0.031978622 0.021465732 -0.008170678 0.011698041 -0.022394372 -0.046170346 0.005838151 -0.010332763
-0.038089834 0.017218867 0.009474239 0.02281992 0.03839409 -0.039068036 0.042742908 -0.008413155
-0.020608095 0.010799999 0.010234525 0.018175654 -5.4980505e-06 -0.02017144 -0.028194852 0.039547767
0.020895885 0.023693593 0.023270207 -0.01928705 -0.04078087 0.03601515 -0.026613766 -0.031391196
-0.014263384 -0.0026598219 -0.043756545 -0.040031504 -0.006644499 0.018357463 -0.015261394 -0.031994045
0.04408099 0.04625064 0.012638143 0.049501758 -0.044686485 0.018154735 -0.0076603056 0.019689806
-0.011700008 -0.033378497 -0.040806774 0.0130149005 -0.027849875 -0.045908026 0.04894323 -0.0100455545
0.023074578 0.042976826 -0.048867654 -0.018642895 -0.0120050125 0.047140036 -0.03765486 0.0017063468
0.033707466 0.04689725 -0.007935426 -0.015128758 0.0050586737 -0.034605674 0.004355095 0.0038565807
-0.018256467 -0.021826264 -0.038218636 -0.022341244 0.03184763 -0.00021202958 -0.049262367 0.04585685
-0.007813029 0.047117103 -0.014466619 -0.0392321 -0.009345248 -0.0055629453 -0.002617072 -0.03996151
0.035867848 0.04622997 -0.031046584 0.030751048 -0.04686475 0.04271565 -0.032302335 -0.0054566637
0.038578186 -0.04618185 0.0057885614 0.04072154 -0.048053794 0.046427652 -0.03699706 -0.0003597391
0.04121852 -0.015239973 -0.033428837 -0.0021567433 -0.022841899 0.009192273 0.03815675 0.02149836
-0.024508338 0.034614593 -0.027899586 -0.022368424 0.0071714893 -0.0122227995 -0.038048245 -0.022516593
-0.005509169 -0.0075475504 0.018850513 0.01038954 0.0066475095 -0.019469187 0.025629919 0.023924066
0.036344033 0.032499976 -0.0231172 0.004540655 0.020535737 -0.005139556 0.01096952 -0.030427506
-0.04863672 0.034154538 -0.0050315782 -0.004706407 0.035143 -0.004575231 -0.03983461 0.0110705
-0.006555002 -0.004781706 0.025274679 0.043253195 0.0034581602 -0.007016475 -0.04744966 -0.03476141
0.00814293 -0.014885839 0.022806022 -0.04113724 -0.028425334 0.011276023 0.00051715714 0.012145859
-0.0025344396 -0.030841116 -0.0427672 -0.0228179 -0.045121357 0.011328975 -0.006901222 -0.042720877
-0.019578781 0.04968525 -0.031923994 0.04987787 -0.036145594 0.012586872 -0.025604146 -0.042970337
-0.010075256 0.027784564 -0.03488575 0.013575155 -0.0038244757 0.01645233 0.0072422107 0.0008341042
0.043888055 0.004099877 0.036190268 0.031296305 0.018842902 -0.0053886427 -0.014732521 -0.047151327
-0.031041864 -0.028177006 -0.013782664 0.0065283873 -0.03051187 -0.02494424 -0.021218061 -0.0044659562
-0.026700763 -0.03742385 0.018740628 -0.011591255 -0.012196945 0.029123198 0.04597776 0.0004227088
00000000: 9027 b4bc 841d 65bc 440d abbb a19e 2a3d
00000010: 646d 1e3d 20e4 483c 5ace 1f3d 9f06 8cbc
00000020: 9fc4 3dbb ddf7 1e3c 7af2 01bd abe6 173d
00000030: c06a 133a 065d c9bb 9b46 3d3d 13ed 003c
00000040: c874 05bd 8b4a afbc 6ea2 3bbc 55b5 383b
00000050: fd68 3d3d 0745 e7bc d75b f0bc e34a f8bc
00000060: b332 1f3d 0d79 213d b8e8 01bd 704d f63b
00000070: 5b22 ad3c 9de6 3bbd 922c 20bd ee29 ecbc
00000080: fbe6 403d 0b3f e13c 82b3 ee3c 0ed6 02bd
00000090: 6500 fdbc 4805 2bbd 35b2 d93b 75a5 02bd
000000a0: 60cd 643c 74ca d93c 03c1 91bc 5242 ed3c
000000b0: 2a23 b7bc 5daa 483d dc69 5f3b 47ba e2bc
000000c0: 04fc 023d e7d8 af3c 4fde 05bc 24a9 3f3c
000000d0: 6774 b7bc 1e1d 3dbd f64d bf3b c04a 29bc
000000e0: 1604 1cbd 950e 8d3c d739 1b3c d7f0 ba3c
000000f0: 1f43 1d3d ce05 20bd 3013 2f3d 54d7 09bc
00000100: 4fd2 a8bc 7bf2 303c b6ae 273c 1ce5 943c
00000110: e57b b8b6 933e a5bc e4f8 e6bc d7fc 213d
00000120: d92d ab3c 1119 c23c 29a1 be3c e0ff 9dbc
00000130: d709 27bd 9f84 133d 1d05 dabc 0e94 00bd
00000140: f8b0 69bc 6850 2ebb 103a 33bd 13f8 23bd
00000150: 19ba d9bb 6462 963c ed0a 7abc 300c 03bd
00000160: 458e 343d 5071 3d3d 3710 4f3c 5bc2 4a3d
00000170: 2d09 37bd 3db9 943c 4d03 fbbb 844c a13c
00000180: 64b1 3fbc e4b7 08bd 0125 27bd 733c 553c
00000190: 6c25 e4bc 0e0a 3cbd b278 483d 1c96 24bc
000001a0: e606 bd3c 7808 303d 7329 48bd fcb8 98bc
000001b0: acb0 44bc e915 413d fc3b 1abd 7fa7 df3a
000001c0: d710 0a3d 5517 403d 9703 02bc 9cde 77bc
000001d0: 3bc3 a53b aebe 0dbd 2fb5 8e3b b0be 7c3b
000001e0: 968e 95bc fecc b2bc 258b 1cbd fc04 b7bc
000001f0: a972 023d 4254 5eb9 56c7 49bd 64d4 3b3d
00000200: 3802 00bc ddfd 403d 6605 6dbc d7b1 20bd
00000210: d01c 19bc 5e49 b6bb 2f83 2bbb aeae 23bd
00000220: 2aea 123d a35b 3d3d 6855 febc 9fe9 fb3c
00000230: 41f5 3fbd 9bf6 2e3d 744f 04bd d0cd b2bb
00000240: 2904 1e3d 2e29 3dbd f9ad bd3b a1cb 263d
00000250: 0ed4 44bd ec2a 3e3d 3b8a 17bd 5d9b bcb9
00000260: c0d4 283d 14b1 79bc adec 08bd 2658 0dbb
00000270: ef1e bbbc 309b 163c 414a 1c3d 541d b03c
00000280: b6c5 c8bc 08c8 0d3d ac8d e4bc fc3d b7bc
00000290: d0fe ea3b 2342 48bc 7ad8 1bbd b874 b8bc
000002a0: 4286 b4bb 7151 f7bb 646c 9a3c e438 2a3c
000002b0: 5ad3 d93b d87d 9fbc d6f5 d13c 67fc c33c
000002c0: 7bdd 143d b21e 053d 4860 bdbc c6c9 943b
000002d0: 903a a83c b869 a8bb 80b9 333c 1b43 f9bc
000002e0: 4c37 47bd a1e5 0b3d f0df a4bb 3438 9abb
000002f0: 1bf2 0f3d d2eb 95bb 9e29 23bd 0b61 353c
00000300: 58cb d6bb dbaf 9cbb d80c cf3c 432a 313d
00000310: 4da2 623b 75ea e5bb 935a 42bd fb61 0ebd
00000320: ed69 053c bce3 73bc b2d3 ba3c 867f 28bd
00000330: 3fdc e8bc 12bf 383c d491 073a 6dff 463c
00000340: d718 26bb 82a6 fcbc a92c 2fbd 9bec babc
00000350: 2cd1 38bd 2a9d 393c a523 e2bb 16fc 2ebd
00000360: ae63 a0bc c382 4b3d bcc2 02bd bd4c 4c3d
00000370: 670d 14bd 2b39 4e3c c9bf d1bc aa01 30bd
00000380: b012 25bc 749c e33c 5ce4 0ebd 546a 5e3c
00000390: 0ea4 7abb 09c7 863c 1150 ed3b c9a7 5a3a
000003a0: f6c3 333d 4358 863b 3f3c 143d 8e30 003d
000003b0: 6e5c 9a3c 3693 b0bb ac60 71bc c021 41bd
000003c0: 824b febc 77d3 e6bc afd0 61bc 15ec d53b
000003d0: 07f4 f9bc dd57 ccbc 80d1 adbc 2857 92bb
000003e0: 8fbb dabc c049 19bd f285 993c 3fe9 3dbc
000003f0: b2d5 47bc c693 ee3c 2d53 3c3d 049f dd39

fc1.bias f4 [120]
-0.023553176 0.03086828 -0.035083555 0.050028577 -0.052820306 -0.033586692 -0.045481376 0.01339016
-0.026674703 -0.013097262 -0.04287141 0.07719159 -0.010545528 -0.04659378 0.014178296 -0.042093985
0.01665555 -0.030780267 0.026627384 -0.030287946 -0.05654798 -0.024791 -0.015541713 -0.018431026
-0.027954128 -0.01670446 0.033619493 -0.013547766 -0.004321132 -0.014202539 0.058141686 -0.005735767
-0.000562643 -0.045423325 -0.030934226 -0.028624743 0.011560932 0.024729628 0.0761439 -0.0071736854
0.022242947 -0.04193519 0.03287466 -0.0021073949 -0.024219047 0.016368559 -0.030155813 -0.020471571
-0.029417595 0.000101802456 0.0511083 0.026996745 -0.024504201 0.0063499887 -0.0028292993 0.07098056
-0.031621 -0.032207582 0.058650333 0.03963931 0.03917425 -0.029442627 -0.03238024 -0.002686101
0.020471785 0.036227822 -0.015621743 0.011382303 -0.034450002 0.017218372 -0.043857954 -0.017665975
0.03914807 0.036156897 0.028323956 0.046875965 -0.01407716 0.009258062 0.021908596 -0.007924632
-0.0007791085 -0.014061637 -0.00063727784 -0.023298338 0.03150253 -0.021141622 0.015150731 -0.034446195
0.0153091075 0.019973451 0.055355497 -0.045251746 0.006295037 -0.028016215 0.07330459 -0.0019901244
0.07838642 -0.003528376 -0.010526373 -0.034377784 -0.028840628 -0.0032143292 -0.027447684 0.01609512
0.009972291 0.069739826 0.015335235 0.028483136 0.05453222 0.0291945 -0.005174211 -0.008445889
-0.018122349 -0.03886056 -0.0008465366 0.048919115 -0.018902363 -0.019551706 0.0047294786 0.018293826
00000000: 97f2 c0bc 7adf fc3c c6b3 0fbd c4ea 4c3d
00000010: 1b5a 58bd 3392 09bd ae4a 3abd 6762 5b3c
00000020: e884 dabc e695 56bc ee99 2fbd a016 9e3d
00000030: 26c7 2cbc 1fd9 3ebd 154c 683c be6a 2cbd
00000040: 3871 883c e626 fcbc ac21 da3c 6d1e f8bc
00000050: db9e 67bd 7f16 cbbc aba2 7ebc aafc 96bc
00000060: 0e00 e5bc cbd7 88bc 98b4 093d 73f7 5dbc
00000070: 4898 8dbb c4b1 68bc fa25 6e3d 1af3 bbbb
00000080: 557e 13ba cf0d 3abd c669 fdbc 707e eabc
00000090: 106a 3d3c ca95 ca3c 55f1 9b3d 3c11 ebbb
000000a0: d736 b63c 3cc4 2bbd 94a7 063d 381c 0abb
000000b0: 0667 c6bc 5b17 863c 5309 f7bc ffb3 a7bc
000000c0: 2bfd f0bc c77e d538 f056 513d 4728 dd3c
000000d0: 09bd c8bc 9113 d03b c46b 39bb 415e 913d
000000e0: 0685 01bd 19ec 03bd 553b 703d d45c 223d
000000f0: 2e75 203d aa31 f1bc 24a1 04bd 4c09 30bb
00000100: 72b4 a73c a063 143d 57f2 7fbc d77c 3a3c
00000110: 721b 0dbd 8b0d 8d3c 66a4 33bd 3cb8 90bc
00000120: ba59 203d 4119 143d a407 e83c 0301 403d
00000130: e3a3 66bc 20af 173c a879 b33c 51d6 01bc
00000140: 163d 4cba c862 66bc fe0e 27ba 28dc bebc
00000150: cc08 013d 3231 adbc c63a 783c 7417 0dbd
00000160: 0dd3 7a3c 5d9f a33c 72bc 623d e559 39bd
00000170: 9946 ce3b 4382 e5bc b820 963d bf6c 02bb
00000180: 0f89 a03d 543c 67bb cf76 2cbc b8cf 0cbd
00000190: 2e43 ecbc 7fa7 52bb f7d9 e0bc ead9 833c
000001a0: d262 233c c1d3 8e3d a340 7b3c 7755 e93c
000001b0: 2d5d 5f3d 4e29 ef3c 6e8c a9bb a060 0abc
000001c0: 5275 94bc 402c 1fbd 1cea 5dba 695f 483d
000001d0: 21d9 9abc e62a a0bc bef9 9a3b efdc 953c

fc2.weight f4 [84, 120]
0.03636825 -0.033975087 -0.00611063 0.08002258 -0.01607068 -0.079148434 -0.01677886 0.0868198
0.03121599 0.05866059 0.034195125 -0.07291842 0.029614756 -0.0057135015 -0.0599302 -0.0044118934
-0.062329378 0.050566804 -0.061946776 0.08145443 -0.0021000307 -0.089879334 0.013435315 0.06444658
0.07685427 -0.085399665 0.0104189655 -0.08785296 -0.07880542 0.06642397 0.02639138 -0.03668711
-0.044700906 -0.032227475 0.04919422 0.06308111 -0.07078759 -0.04842359 -0.016503077 -0.08292702
-0.060629334 0.08801239 -0.09082723 -0.027408576 -0.030241646 -0.020676376 -0.050190207 -0.06706585
0.06463065 0.09071231 -0.0049848733 0.0787401 -0.010273049 0.041180853 0.002524113 -0.0638202
-0.06633999 0.0049515446 0.069758974 0.086637534 -0.030981857 -0.013426211 -0.004325922 0.04675678
0.018187748 -0.06025093 -0.04809473 -0.028200984 -0.016011253 -0.003139055 0.03223674 -0.025246372
-0.050273813 0.07330071 0.04999223 0.033676837 -0.002678764 0.007778805 -0.08692585 -0.08993097
0.031191876 0.05548379 -0.05554283 0.08128066 0.071188346 0.012063507 -0.056738388 -0.079770625
0.07784497 0.012396164 -0.080170974 -0.01263788 -0.035746764 -0.056749307 -0.067866005 0.07266968
-0.038963605 -0.05653252 0.032744806 0.07234091 -0.054066688 0.050817966 -0.044173706 -0.0108152125
0.0038216014 -0.06772052 0.05880635 -0.08790597 0.031379163 -0.013082406 -0.022480624 -0.0013314039
-0.016894948 -0.07975962 -0.010771893 -0.04163902 0.023267392 -0.07868617 0.047844835 -0.05534559
0.0436294 0.040393323 0.040062703 -0.0027724674 0.004809165 0.08811414 -0.025859991 0.012790247
0.047306016 -0.08758558 0.03170585 -0.007829186 0.025823269 0.031760946 -0.06691839 -0.06269084
-0.024219863 0.07888085 0.020640638 -0.016060332 0.081678264 0.076263174 -0.034804262 0.029377185
0.056424886 0.06745696 -0.01577022 -0.025089668 -0.020411795 -0.012744821 0.03146752 -0.060408365
-0.045078713 -0.07969284 0.06171159 -0.033550855 -0.0048033744 -0.085872225 -0.063720696 0.05667485
0.07799246 0.056601286 -0.018026043 0.055794094 0.017221758 -0.07981318 -0.06038799 0.03886062
-0.08649188 0.020894455 -0.033186123 -0.017631534 -0.055068914 0.02710463 0.032647807 -0.08085915
0.040435664 0.08130734 -0.014495871 0.0807293 -0.0678762 -0.043011047 -0.056405783 -0.054433394
-0.026035825 0.026214825 0.054590333 -0.013802722 0.039908 -0.039974123 0.07620822 -0.05398709
-0.07221145 0.0310166 -0.029340127 0.08647556 0.04017903 0.027245533 -0.03343647 -0.08680683
-0.029969942 -0.0040351376 -0.020356633 -0.032813612 0.078209415 -0.06609816 -0.033493597 0.08226713
-0.047217865 -0.0026121475 -0.03802664 0.03195377 0.056805603 0.05567438 0.012794389 -0.033796735
0.016567651 0.060123626 -0.05092985 0.02660363 -0.07237616 -0.03537162 0.036075573 -0.024189424
0.008904197 0.046287008 -0.039764713 -0.07485431 -0.017071683 -0.007798685 -0.047864694 0.07825397
-0.0302344 0.06653025 0.0025831528 -0.07988721 -0.052140456 0.053504124 0.054389916 0.025448052
0.056824077 -0.063514404 -0.013175594 0.026492989 -0.039867647 0.014270582 0.046230294 -0.015073689
-0.029520933 -0.048708692 -0.03451536 0.05522278 0.07544728 0.06432715 -0.07785446 0.0669767
00000000: e0f6 143d 7629 0bbd ae3b c8bb e1e2 a33d
00000010: a9a6 83bc 9318 a2bd d273 89bc 94ce b13d
00000020: adb8 ff3c 1646 703d 3010 0c3d 4156 95bd
00000030: a59a f23c 5338 bbbb 5f79 75bd a591 90bb
00000040: 174d 7fbd 231f 4f3d e7bb 7dbd 95d1 a63d
00000050: aba0 09bb a812 b8bd cc1f 5c3c 92fc 833d
00000060: c665 9d3d 05e6 aebd 4fb4 2a3c 41ec b3bd
00000070: bc64 a1bd 4a09 883d bc32 d83c 3945 16bd
00000080: 4c18 37bd f500 04bd e17f 493d ab30 813d
00000090: 16f9 90bd d057 46bd 7631 87bc a4d5 a9bd
000000a0: 7756 78bd d73f b43d a003 babd f387 e0bc
000000b0: 54bd f7bc 8161 a9bc 3f94 4dbd d259 89bd
000000c0: 135d 843d 60c7 b93d 2658 a3bb 7d42 a13d
000000d0: 4a50 28bc 41ad 283d 976b 253b 2ab4 82bd
000000e0: 43dd 87bd 9140 a23b cbdd 8e3d 056f b13d
000000f0: aacd fdbc 9cf9 5bbc 77c0 8dbb 0a84 3f3d
00000100: 79fe 943c aec9 76bd fbfe 44bd c005 e7bc
00000110: 082a 83bc 9bb8 4dbb ac0a 043d 7bd1 cebc
00000120: eaeb 4dbd af1e 963d a7c4 4c3d b9f0 093d
00000130: 348e 2fbb 59e5 fe3b 2e06 b2bd ba2d b8bd
00000140: 1b86 ff3c f842 633d e180 63bd 7a76 a63d
00000150: 32cb 913d 04a6 453c 8366 68bd c85e a3bd
00000160: 2f6d 9f3d 4819 4b3c ae30 a4bd 1c0f 4fbc
00000170: 336b 12bd f671 68bd 55fd 8abd d7d3 943d
00000180: 4d98 1fbd a58e 67bd 6b1f 063d 7927 943d
00000190: 0875 5dbd 8026 503d 7def 34bd 4a32 31bc
000001a0: d573 7a3b 0eb1 8abd edde 703d 0c08 b4bd
000001b0: 7087 003d 9657 56bc 4929 b8bc 8082 aeba
000001c0: 4667 8abc 0359 a3bd 987c 30bc ad8d 2abd
000001d0: 429b be3c 3726 a1bd f2f8 433d 0fb2 62bd
000001e0: beb4 323d 7873 253d ca18 243d 49b2 35bb
000001f0: 3396 9d3b 3075 b43d 55d8 d3bc 2f8e 513c
00000200: f4c3 413d 1260 b3bd fedd 013d fc45 00bc
00000210: 528b d33c c417 023d 820c 89bd 0e64 80bd
00000220: bc68 c6bc 488c a13d 8e16 a93c f590 83bc
00000230: ef46 a73d de2f 9c3d ea8e 0ebd 6ca8 f03c
00000240: c81d 673d e026 8a3d 8c30 81bc d988 cdbc
00000250: a336 a7bc a7cf 50bc 16e4 003d c36e 77bd
00000260: 75a4 38bd 0036 a3bd 4bc5 7c3d 9f6c 09bd
00000270: a065 9dbb c7dd afbd ff7f 82bd e323 683d
00000280: 83ba 9f3d c0d6 673d 5aab 93bc 5988 643d
00000290: a514 8d3c 1875 a3bd 6659 77bd 502c 1f3d
000002a0: a822 b1bd d92a ab3c 2cee 07bd 0270 90bc
000002b0: f18f 61bd 870a de3c b5b9 053d 7b99 a5bd
000002c0: de9f 253d 7684 a63d 1780 6dbc 6755 a53d
000002d0: ad02 8bbd 5a2c 30bd c009 67bd 8df5 5ebd
000002e0: 1549 d5bc 79c0 d63c 1d9a 5f3d d024 62bc
000002f0: 9276 233d e8bb 23bd 0e13 9c3d 9121 5dbd
00000300: 99e3 93bd 8616 fe3c b55a f0bc 191a b13d
00000310: c492 243d 0632 df3c aef4 08bd c7c7 b1bd
00000320: 8683 f5bc 3039 84bb f4c2 a6bc 9167 06bd
00000330: 422c a03d 795e 87bd 9530 09bd ab7b a83d
00000340: 8567 41bd 9030 2bbb d2c1 1bbd f5e1 023d
00000350: feac 683d d20a 643d 8f9f 513c 726e 0abd
00000360: e2b8 873c 3144 763d d29b 50bd dbef d93c
00000370: f439 94bd d5e1 10bd fbc3 133d e628 c6bc
00000380: e9e2 113c 7297 3d3d 53e0 22bd 374d 99bd
00000390: ead9 8bbc 1d8c ffbb c50d 44bd 9e43 a03d
000003a0: 22ae f7bc 0341 883d 1d4a 293b e89b a3bd
000003b0: 3b91 55bd 2427 5b3d f6c7 5e3d 6f78 d03c
000003c0: 5dc0 683d d713 82bd 72de 57bc d307 d93c
000003d0: 424c 23bd 29cf 693c fa5b 3d3d a2f7 76bc
000003e0: e2d5 f1bc c482 47bd fa5f 0dbd 4831 623d
000003f0: 1b84 9a3d f4bd 833d 2972 9fbd 152b 893d

fc2.bias f4 [84]
0.049957816 -0.047841217 -0.08104961 -0.07030827 0.03212785 -0.04142009 0.049557764 0.034506224
0.009876793 0.06875162 0.019510454 -0.071366586 0.034644112 0.09941194 0.046081673 0.06100389
0.049900647 -0.03619817 -0.060361616 -0.023866659 0.15254962 0.10474509 -0.08074 -0.071122296
-0.0042385925 -0.046183534 0.0074999477 -0.07237405 -0.04030306 -0.026790947 -0.048662856 0.024888113
-0.06703849 0.00024793748 0.123106524 0.10204333 0.06961054 0.045448817 0.0005906374 -0.024177894
-0.016009908 -0.027563266 0.15977056 -0.057195153 -0.029416287 0.05873608 0.1052268 0.030841896
0.0656521 -0.0836729 0.12747419 0.04654454 0.126682 -0.0072043007 -0.042047404 0.08978814
0.052045163 -0.047821227 0.05747267 -0.055035643 -0.09677244 -0.03162067 -0.017926132 0.022377908
-0.07173286 0.090688325 0.030675279 -0.034786273 0.038341016 0.08562774 0.01435017 0.065412015
0.0789258 0.054137893 0.08749089 0.09381098 0.05470848 0.08487386 0.16285934 0.08378103
-0.05684123 -0.07216418 -8.748501e-05 0.13815421
00000000: 91a0 4c3d 27f5 43bd 57fd a5bd c8fd 8fbd
00000010: 7e98 033d 1da8 29bd 15fd 4a3d 6656 0d3d
00000020: 46d2 213c a6cd 8c3d 63d4 9f3c a528 92bd
00000030: fce6 0d3d 7d98 cb3d 23c0 3c3d 37df 793d
00000040: 9f64 4c3d 8844 14bd be3d 77bd 0384 c3bc
00000050: f835 1c3e 9884 d63d 035b a5bd 91a8 91bd
00000060: e4e3 8abb f22a 3dbd 1fc2 f53b d938 94bd
00000070: d214 25bd b078 dbbc b452 47bd 28e2 cb3c
00000080: 7a4b 89bd 9bfd 8139 461f fc3d 18fc d03d
00000090: f98f 8e3d 8a28 3a3d 01d5 1a3a b810 c6bc
000000a0: 3627 83bc 5ccc e1bc e59a 233e 7745 6abd
000000b0: 6dfa f0bc 3e95 703d 2681 d73d 25a8 fc3c
000000c0: 9c74 863d b35c abbd 9888 023e 7da5 3e3d
000000d0: edb8 013e 0e12 ecbb e639 2cbd d8e2 b73d
000000e0: 4f2d 553d 31e0 43bd 7668 6b3d 0e6d 61bd
000000f0: a130 c6bd ad84 01bd d3d9 92bc e051 b73c
00000100: ade8 92bd cdba b93d b94a fb3c 0d7c 0ebd
00000110: 780b 1d3d 995d af3d fa1c 6b3c bcf6 853d
00000120: daa3 a13d b2bf 5d3d 6c2e b33d f91f c03d
00000130: 0016 603d 59d2 ad3d 99c4 263e 6395 ab3d
00000140: 59d2 68bd d0ca 93bd 2878 b7b8 4c78 0d3e

fc3.weight f4 [10, 84]
0.02036734 0.07516059 0.083148584 0.021852642 -0.099831015 0.017061755 0.0025820134 -0.06867099
-0.09396473 0.15734965 -0.02882558 0.107880905 0.15889835 -0.07019371 0.017693827 0.09739882
0.07539471 -0.048552018 -0.05016403 -0.07132675 0.1969707 0.30852672 0.08514821 -0.0833876
-0.02443028 -0.048769932 0.063268155 0.054103218 -0.013621116 -0.04544943 -0.037754614 0.147699
-0.002350394 -0.0039702873 0.28805146 0.39498723 0.1611025 0.19462436 -0.08297007 0.01857136
0.009579134 -0.047838762 0.21185122 0.037499297 -0.07592476 0.23411027 0.022018073 -0.02817276
0.33270767 -0.053710174 0.12995388 0.034850404 -0.036323063 0.0024242105 0.020072412 0.11241269
0.0065815807 0.10113666 0.05375636 0.078699075 0.2963985 0.032052856 0.15053879 0.18350366
-0.059999183 0.051435273 0.24272199 -0.021676598 0.24908271 0.18279606 -0.0920315 -0.020336408
0.104072556 0.0019576205 0.20155367 -0.08820928 -0.06036971 0.080980785 0.19655257 0.110005595
0.07125447 0.11024135 -0.14444421 0.11727588 -0.012059559 -0.08595711 -0.016058039 -0.09021729
0.07299476 0.01982574 -0.04345096 0.04084803 0.02893484 0.048156373 0.080952466 0.01786153
-0.09447716 0.09550739 -0.049954005 -0.031408574 0.014030429 0.05853081 0.05165247 -0.06358143
0.17828086 0.32206106 0.03736926 -0.027653968 -0.037404217 0.0001520054 -0.097040236 -0.0541038
0.098496415 0.08852451 -0.014892196 0.03598254 -0.045134407 -0.058589417 0.14388211 0.3603424
0.20228782 -0.024802214 0.19259307 0.10706813 -0.045260534 0.08770265 0.3798894 0.01805669
0.025784023 0.01849627 0.14248748 0.09831547 0.21216811 0.026565637 0.18939261 -0.042456105
0.24555984 -0.013730163 0.037342772 -0.0014525746 0.1005123 0.01917162 0.040368993 -0.08040594
-0.17919421 0.07197539 0.09705372 0.1344619 -0.05613152 0.17306863 0.14418612 0.013310571
0.06083415 0.1975647 -0.10771049 -0.03125485 0.11956675 -0.08248545 0.13414301 0.2096588
-0.08394705 0.20508584 0.23491484 -0.068652906 0.03524021 -0.11069772 0.20854409 0.27262038
0.0669829 -0.050420675 -0.10290031 -0.01573638 0.0011743746 0.02597599 0.08388044 0.035142563
-0.112582214 0.087559275 0.09132056 0.027059104 -0.048208445 0.014865488 0.03437096 0.08966162
-0.08913746 -0.029818969 -0.006194629 -0.06535238 -0.11075787 0.015175421 -0.101710916 -0.047901817
0.062229004 -0.04638272 0.030893 -0.10636348 0.003956071 -0.106562525 -0.02703762 -0.05825313
-0.056650274 -0.014611691 -0.06606848 -0.141836 -0.023285523 -0.0012608513 0.0076774647 -0.027080707
-0.063430816 -0.07961961 -0.116284065 -0.049538806 -0.10065054 0.065625526 -0.12903215 -0.053899072
0.03818295 0.07935532 -0.08920444 -0.0349343 -0.09274001 0.04293047 0.04078021 -0.026213836
0.03870859 0.097148485 0.029777333 -0.07731149 0.078375064 -0.024560373 -0.030659994 0.06757043
0.022765078 0.086754605 0.017859127 0.038303915 -0.09752561 0.067106485 0.017855056 0.084576435
-0.07839415 0.03599479 -0.11654713 0.073576935 -0.008140262 0.050666366 0.06389429 0.010636506
0.062274918 -0.001475437 0.04964068 -0.11321681 -0.038046084 -0.1059223 -0.024313278 0.030666493
00000000: 68d9 a63c cced 993d ce49 aa3d 5004 b33c
00000010: 3474 ccbd 18c5 8b3c ff36 293b 60a3 8cbd
00000020: 9570 c0bd 4420 213e 9f23 ecbc aaf0 dc3d
00000030: 40b6 223e b8c1 8fbd a5f2 903c 0879 c73d
00000040: 8b68 9a3d 7bde 46bd cc78 4dbd c213 92bd
00000050: b0b2 493e 37f7 9d3e 2f62 ae3d 1ec7 aabd
00000060: 0322 c8bc fbc2 47bd bc92 813d 569b 5d3d
00000070: 1a2b 5fbc 2e29 3abd 95a4 1abd 683e 173e
00000080: 1109 1abb 2f19 82bb 7b7b 933e c43b ca3e
00000090: 0ef8 243e 9c4b 473e 36ec a9bd f722 983c
000000a0: cdf1 1c3c 94f2 43bd 87ef 583e dd98 193d
000000b0: 717e 9bbd 9aba 6f3e 3f5f b43c 8fca e6bc
000000c0: a958 aa3e 33ff 5bbd a112 053e 4cbf 0e3d
000000d0: 7ec7 14bd 81df 1e3b e66e a43c a038 e63d
000000e0: 4daa d73b bd20 cf3d a12f 5c3d fb2c a13d
000000f0: 8bc1 973e db49 033d d726 1a3e 62e8 3b3e
00000100: b4c1 75bd cbad 523d 1d8c 783e 1f93 b1bc
00000110: 8a0f 7f3e e42e 3b3e 037b bcbd 8a98 a6bc
00000120: fe23 d53d 6c4b 003b 1664 4e3e 11a7 b4bd
00000130: 3b46 77bd 41d9 a53d 1445 493e 9d4a e13d
00000140: dded 913d 38c6 e13d 2fe9 13be 562e f03d
00000150: 7595 45bc 480a b0bd 268c 83bc d8c3 b8bd
00000160: 477e 953d 9769 a23c a2f9 31bd 4450 273d
00000170: c208 ed3c 9e3f 453d 68ca a53d 5852 923c
00000180: 3e7d c1bd 6199 c33d 929c 4cbd 47a6 00bd
00000190: e2df 653c 01be 6f3d 8a91 533d fb36 82bd
000001a0: 428f 363e 30e5 a43e 8210 193d 938a e2bc
000001b0: 2a35 19bd a463 1f39 08bd c6bd f29b 5dbd
000001c0: 7db8 c93d 574c b53d 66fe 73bc 6e62 133d
000001d0: dbde 38bd 75fb 6fbd d555 133e cd7e b83e
000001e0: 8a24 4f3e 032e cbbc 1e37 453e 8946 db3d
000001f0: 1c63 39bd 729d b33d dd80 c23e a0eb 933c
00000200: 0439 d33c 7d85 973c 3de8 113e 9f59 c93d
00000210: 9942 593e 2ea0 d93c 23f0 413e 74e6 2dbd
00000220: 0a74 7b3e 7af4 60bc bcf4 183d 5164 beba
00000230: 65d9 cd3d cd0d 9d3c f559 253d dfab a4bd
00000240: b07e 37be d567 933d 1ac4 c63d 61b0 093e
00000250: 2aea 65bd e738 313e 87a5 133e 9514 5a3c
00000260: 3b2d 793d 674e 4a3e 5197 dcbd 1605 00bd
00000270: 6adf f43d 22ee a8bd c95c 093e ccb0 563e
00000280: 6eec abbd 0602 523e 848d 703e e599 8cbd
00000290: 0a58 103d 7cb5 e2bd 958c 553e e694 8b3e
000002a0: 552e 893d e985 4ebd 66bd d2bd 95e9 80bc
000002b0: 79ed 993a 99cb d43c 82c9 ab3d a6f1 0f3d
000002c0: 8191 e6bd 4752 b33d 4606 bb3d 0eab dd3c
000002d0: 3876 45bd 608e 733c 90c8 0c3d 83a0 b73d
000002e0: b38d b6bd e946 f4bc 50fc cabb 78d7 85bd
000002f0: 06d5 e2bd 54a2 783c d04d d0bd b234 44bd
00000300: d7e3 7e3d cffb 3dbd 5113 fd3c 19d5 d9bd
00000310: eea1 813b 743d dabd 007e ddbc d69a 6ebd
00000320: 1e0a 68bd e065 6fbc e94e 87bd 753d 11be
00000330: 48c1 bebc 2643 a5ba 3e93 fb3b 5cd8 ddbc
00000340: 04e8 81bd 9b0f a3bd 5726 eebd 34e9 4abd
00000350: df21 cebd ad66 863d 0121 04be 46c5 5cbd
00000360: ba65 1c3d 0b85 a23d d1b0 b6bd 4517 0fbd
00000370: 79ee bdbd dcd7 2f3d 2609 273d 66be d6bc
00000380: e68c 1e3d c9f5 c63d 98ef f33c 7d55 9ebd
00000390: 1b83 a03d d632 c9bc ab2a fbbc 5e62 8a3d
000003a0: d47d ba3c 66ac b13d 4e4d 923c 91e4 1c3d
000003b0: 82bb c7bd 206f 893d c444 923c 6936 ad3d
000003c0: 1d8d a0bd 466f 133d 43b0 eebd 81af 963d
000003d0: bc5e 05bc 8987 4f3d 02db 823d bd44 2e3c
000003e0: fc13 7f3d 7363 c1ba 0754 4b3d 37de e7bd
000003f0: 36d6 1bbd caed d8bd a42c c7bc 4c38 fb3c

fc3.bias f4 [10]
0.25454867 0.74024147 -0.027132181 -0.0376368 -0.059397776 -0.17989707 -0.14593689 -0.17794307
-0.11735045 -0.095406815
00000000: 3454 823e 7780 3d3f 4f44 debc 0c29 1abd
00000010: 154b 73bd f036 38be 7b70 15be b536 36be
00000020: 6f55 f0bd a664 c3bd
