masked_model.pth (torch, 251519 bytes, 10 tensors)

conv1.weight f4 [6, 3, 5, 5]
00000000: 5e91 fd3d 4bfa b83d b281 9ebb 9efa 61bc
00000010: 2a81 23bd b201 493d 49c3 643d 4dd0 f43d
00000020: 5232 a9bd fa2b 0abe 5ff5 d43d c7f2 663d
00000030: 1d64 683d f36a 653d 3e19 e1bd dd1b 523c
00000040: e494 e03d 54a9 41bd a01f 04bd f6ec cfbd
00000050: 5134 6ebd 359b 993d 4ec9 013e 7711 9aba
00000060: 2c0c 433c 7257 65bd 6e57 2bba 046c 84bd
00000070: 6687 593d b897 953d 03a6 023e f30f 133e
00000080: b157 a43d dfd8 3e3d d639 ebbd a43c 833d
00000090: 400e 523d 33e7 f33d eff8 ce3d f76d d1bc
000000a0: 00e1 6b3d 1d5e 023d f568 3f3c df3e c03d
000000b0: 382e 27bc f634 393d 61c0 3bbd d159 743d
000000c0: 84c2 f4bd 6dfe 81bd 2c6e a83c b803 77bd
000000d0: 002a 6fbd 8734 eb3d a507 3abc 6714 86bb
000000e0: d861 f3bd d2fa a23d 64e1 6b3d fc93 21bd
000000f0: 3ec6 aebd 2e9d 9bbd 950d a9bc 1f23 2ebd
00000100: 9061 313c c3aa fcbb 08b9 cdbd 43df 873d
00000110: 3861 dfbd 68ce 31bc 3d43 153d 34d8 233c
00000120: 0b02 8f3d 5d76 1cbe 0984 2b3c a805 f0bd
00000130: 6673 72be e4ac a23d 737b b4bd 60bd d03d
00000140: 94ef 68bd 9e92 1f3e 1cdd 073e 3f52 f1bc
00000150: 475e 76bd e4b2 c53d ef4c 693d 043c 3e3d
00000160: bfe2 37be f7a4 51bd a54b 493e 04f4 b1bc
00000170: 6577 16bd 7f66 683d 2158 563a f691 253e
00000180: 4d46 093d b883 1f3e 2068 603e 8a83 233e
00000190: 6683 323e d917 cd3d c102 173e 6438 173e
000001a0: 824b 3f3e accf 073e 674b 823e 61ac d93d
000001b0: faad c2bc 0584 e53d 2035 9c3d edbb 883e
000001c0: b5fa 013e 717a 31be 8ad2 07be 8cf8 793e
000001d0: 9077 0bbd 819d d03d 2f5b 063e 21e6 1f3c
000001e0: f8ce 813d 7c95 ecbc 1e97 8d3e c0af 893e
000001f0: ca51 8d3e 3545 3dbe 6543 7dbd 3d81 ee3c
00000200: e936 dabd a538 343e 0246 16be 53d6 1e3e
00000210: 5c42 41bd 87c7 84be 40b1 2dbe bc44 3dbe
00000220: 9c86 1abc dc3e 16be 167f c4be 50ca a0be
00000230: 2d89 32be 6a44 9bbe 748c 2dbe ef34 55be
00000240: 5316 6fbe cd9b 2abe a10b 59be 5a4d d43d
00000250: eccf 763e e4ef 953c a4f1 953d 20dc 313e
00000260: b3d5 683e 5a58 d33d f19f ca3d 4041 703d
00000270: 8339 5c3e aa7d 893e dce7 523e c62c 333e
00000280: 0996 04be d140 7cbd f11c cf3d f55c 123b
00000290: 0611 673d 0219 74be 1d8f 1dbe 074b 2fbe
000002a0: 4e69 16be ba57 24be b2b2 a7be e4bb 60be
000002b0: 3ed7 d3bd 6fb7 3cbe f5ab 59be 782c 2ebe
000002c0: 465a 9cbc 7433 603c 8b29 563d 58e1 7b3c
000002d0: 2500 023e b446 953d 71c3 953d 701e 0f3e
000002e0: 673d 3f3d dbbf 17bd 438a fc3c 820f 203d
000002f0: 796d d1bc 204e a93d 6bf3 66bd 4219 28be
00000300: 0b60 69bd 96cc b1bd 69d6 abbc 3ade 10be
00000310: 1728 dcbc ac64 93bd cc15 4ebd 114a c4bb
00000320: a533 e13c e67a e9bd 990f d9bd 06e1 f2bd
00000330: e358 b1bc 1892 393d 2752 0a3e a5c8 a03d
00000340: 8dc0 173e d3a4 b23d 12ad fa3b 2129 343d
00000350: 4a69 813c 94cd 2c3d 3774 893d 726e 29bc
00000360: e93d 94bc 9ad8 073e affc 0e3e 452c 8abd
00000370: a2d0 a7bd 747c 36bd e1ed 33bd ace8 9d3c
00000380: 3acf 253d e5ec 6b3d f652 6f3e d8e9 bf3d
00000390: 7b3d a23d 2a08 54bd 8764 453e 93ba d63d
000003a0: 4616 b33d 1440 0d3e b6d4 103d b0e9 583e
000003b0: 36ff 803e b8db 483e d36d 0e3e 19e5 963d
000003c0: 29d9 833d a308 183e 71fe 253e df6a ce3d
000003d0: f16b 65bd a0f5 663c ce1d 2b3e 4066 ff3d
000003e0: 940e 43bc b76e 833c 68a1 11bb e0f9 45bd
000003f0: 9661 edbc 7b3e 4abe a10d 5dbe 24cd 0abe
0.12381242 0.090321146 -0.004837238 -0.013792662 -0.039918102 0.049073882 0.0558503 0.11953793
-0.08261551 -0.13493338 0.10398363 0.056383874 0.0567361 0.056010198 -0.10991143 0.012824026
0.10965899 -0.047280625 -0.032256722 -0.101526186 -0.05815536 0.075003065 0.12674448 -0.0011754473
0.0119047575 -0.055991597 -0.00065361604 -0.06465915 0.05310764 0.07304329 0.12758641 0.14361553
0.08024538 0.046593543 -0.11485641 0.06408051 0.05128312 0.11909332 0.10106074 -0.02556513
0.057587624 0.031828035 0.011682739 0.09386992 -0.0102038905 0.045216523 -0.045837764 0.059655968
-0.119511634 -0.06347356 0.020560347 -0.06030628 -0.058389664 0.11484628 -0.011354362 -0.0040917876
-0.118838966 0.079579964 0.057587996 -0.03944777 -0.085339054 -0.07598339 -0.02063636 -0.042513963
0.010826483 -0.007710786 -0.100450575 0.06634381 -0.10907215 -0.010852434 0.036441077 0.010000277
0.069828115 -0.15279527 0.010468491 -0.11719829 -0.23676834 0.079431325 -0.088126086 0.101923704
-0.056869105 0.15583274 0.1326794 -0.029458163 -0.060148504 0.09653261 0.056958135 0.046443954
-0.1795759 -0.051182713 0.19657762 -0.021722801 -0.036734957 0.056738373 0.00081765844 0.16168961
0.03351431 0.1557759 0.2191472 0.15968147 0.17432937 0.10014314 0.14747144 0.14767605
0.18681148 0.13262814 0.25448152 0.10628582 -0.0237646 0.11206821 0.0762732 0.26705876
0.12693293 -0.17331864 -0.13263908 0.2441122 -0.03404957 0.101862915 0.13120721 0.009759457
0.06338304 -0.028879873 0.27654356 0.268919 0.27601463 -0.18483432 -0.06183185 0.02911436
-0.106550045 0.17599733 -0.14675143 0.15511446 -0.047182426 -0.25933477 -0.16962147 -0.18483251
-0.009431507 -0.14672416 -0.3837821 -0.31404352 -0.17435141 -0.30325633 -0.1694811 -0.20820974
-0.2334836 -0.16660996 -0.21195842 0.10366316 0.24102753 0.018302865 0.0732148 0.17369127
0.2273777 0.10319586 0.09893788 0.058655977 0.21506314 0.26853687 0.2059626 0.17497548
-0.12947859 -0.06158525 0.10112942 0.0022333239 0.05641272 -0.23837665 -0.15386625 -0.17118464
-0.14688608 -0.1604909 -0.3275352 -0.21946675 -0.103437886 -0.1842935 -0.21257003 -0.17009151
-0.019086014 0.013684142 0.052285712 0.01537355 0.12695368 0.07288876 0.07312668 0.13976455
0.046689417 -0.037048202 0.030827647 0.03907729 -0.025564896 0.08266854 -0.056384485 -0.16415885
-0.05697636 -0.086816 -0.020976262 -0.14147273 -0.026874585 -0.07196936 -0.050313756 -0.0059902747
0.027490446 -0.11400394 -0.10598678 -0.11859326 -0.02164883 0.04530534 0.13507901 0.0785077
0.14819546 0.08722844 0.007650026 0.043984536 0.015797276 0.042188242 0.06711619 -0.010341274
-0.018095927 0.1326622 0.13963579 -0.06746725 -0.081940904 -0.04455228 -0.04392803 0.019275986
0.04048083 0.057598967 0.23371491 0.09370774 0.07921883 -0.0517656 0.1927663 0.10484805
0.08744483 0.13793975 0.035359107 0.21182895 0.2519471 0.19615066 0.13909082 0.07367916
0.064379044 0.14847045 0.16210343 0.10078978 -0.056011144 0.0140966475 0.16710588 0.124706745
-0.011905331 0.016044004 -0.002222145 -0.048334002 -0.028977197 -0.19750397 -0.2158723 -0.13554817

conv1.bias f4 [6]
00000000: 1e49 95bd 096c e03d ba73 80be 7c80 45be
00000010: 2630 743e 01cf d43e
-0.072893366 0.10958106 -0.25088292 -0.19287294 0.23846492 0.4156418

conv2.weight f4 [16, 6, 5, 5]
00000000: 4508 43bd f388 833d f880 9a3c eed6 a33c
00000010: 1365 f43c 41cd 823d 6416 963d eea1 cb3c
00000020: d340 fc3b 367d 67bd 9973 ebbc 8b8c 0d3d
00000030: 1931 4d3c bae0 e83c 81df 38bd a545 55bd
00000040: 7e7e 8b3d b4c0 063d 3c4f 5bbc 26e6 82bd
00000050: 2582 a63d ae5d efbc 44e2 00bc 22d1 833d
00000060: c405 b9bd 2c34 85bd 420a a13c 2ad1 11bd
00000070: 8f21 b8bd c0dc 2abd ad65 14bc 2e85 c5bc
00000080: 5003 8cbd 1f59 e9bd e2c1 93bd 2f0f 983c
00000090: 3ede 733c d526 babd b9bc 383d 3cf2 11bd
000000a0: 1240 cabd d70b 033d 1ad9 5f3c ff34 3e3c
000000b0: 6e3b e93c 6d2f da3b 3adc 3b3c 63a8 88bd
000000c0: 2a01 a8bd 12a2 a3bd 434e 283d 5d2a 033e
000000d0: ab70 0a3e f104 33bc a090 063e 1213 2fbd
000000e0: 35d3 86bd 2706 963d f329 90bd ffc1 9d3d
000000f0: d35c a8bc e3bd a2bc a356 e2bd 3bbe f2b8
00000100: c4fe edbd efaf 9abd ee68 833c c1ae 6abd
00000110: 87aa 91bb d8ce aebd ca6f 623d a423 59bd
00000120: a8ba 89bc 8c7d 253c ee6f 9bbd e688 edbb
00000130: 21b5 c03d 20c5 ba3c 7f5e 413d 80bb 073d
00000140: d494 813d a762 a13d 0eda 213d d36e 983d
00000150: da52 85bb 7782 c9b9 d22e b23d 3245 4f3d
00000160: 080e e6bd d05e ecbc a8bc 56bd a08f 08bd
00000170: a310 4e3d 41a0 a4bd e46d 14be 97f2 3e3d
00000180: 1a27 dd3c 7cd8 a73b d909 25bc af40 a4bd
00000190: 3ef9 d5bd c306 21bd 70dc 9e3a 5d27 32bc
000001a0: 1028 e7bc 5782 2a3d 9a4f 4c3d 1b26 f43c
000001b0: 218f 293d e92b 8e3b eb91 dabc bc16 c03c
000001c0: d654 79bd a2c9 8f3d 3ec4 e43c 98dd 833c
000001d0: a6b6 97bc 3803 01bd 7b11 253d c47b cf3d
000001e0: 2b66 753d 27d7 83bb 9af6 173e 15ea 873d
000001f0: a4bd ad3c 4ed9 b73d e901 f93d ec48 e63d
00000200: 73ca 8b3d 8d83 84bd 7fe8 6e3d 1d2f 893d
00000210: 51ec 083e 2bc8 e63c 521b 903d 7c56 44bd
00000220: 75bc b83d 4c82 47bd 49d8 ba3c f31f afbc
00000230: 5d80 02bd 2c73 863d 4976 a4bc 2b57 f0bd
00000240: cea0 9cbd c4b0 bdbd a784 aebd d3b6 b4bd
00000250: 7200 9fbd 0c10 10be 30ed 1bbb ab9e a1bc
00000260: 814d ffbc ae1f 543d e272 9e3d a962 22bd
00000270: 215b 233d ff3f c53c e07a 35bc 09d1 913c
00000280: 077f 6bbd c6ad 013c e932 a03d 1367 8bbd
00000290: 7252 67bd 5d9a ba3c e461 7cbd 249d 423d
000002a0: d831 afbd 4544 9a3d 5986 a13d ac18 383c
000002b0: fc56 8ebb d197 843c dc3e af3c 3445 453c
000002c0: e35f a8bd b440 4fbd 9257 a73d 94a5 363d
000002d0: eb97 6d3d a73a c83c 13bc f23d 1da8 0fbd
000002e0: 28f8 4fbd 5c2f e13c 7a68 e83c 5f19 983d
000002f0: 443a 8dbd 7fcf 6abd 294e f43d ae86 e8bc
00000300: 3c81 babd 1e26 95bd 5832 be3c 1d05 fa3d
00000310: 18e6 e3bb c348 9cbd db05 9fbd 6978 a3bd
00000320: 5634 5b3d 4924 51bd cfa6 103d b3e5 9fbc
00000330: 8eff 853c ba00 88bd bc82 8c3d c752 343d
00000340: f23e 453d 4edd b8bd 1a89 7a3d e14c 5dbd
00000350: a2b8 4b3c 7b54 b1bd f96c 33bd 4e9a 19bb
00000360: 997a 2f3c 5e1f 8bbc a111 a3bc 2032 78bd
00000370: a6db 9cbd 2c13 acbd 055d 90bd 04ac b13c
00000380: 0448 9e3d e2ba 71bc 56ef 03bd 7f7d 8f3c
00000390: 035d 353c 401d 883c c04c 14bd c29e 643b
000003a0: ce9d f33c baa1 8fbd a5da 86bd a9fb 8fba
000003b0: 4240 73bc 18b8 683d ecd0 043d 671b db3c
000003c0: 153d 563a 7244 5fbd f69c 81bd 955c c6bc
000003d0: d273 8fbc d71e 05bd 7796 f63c f80b b5bd
000003e0: 1fee c6bd 2007 90bd 245b 53bc f1f5 9dbd
000003f0: b2f1 83bd 895e debc b118 563d 9a93 d2bd
-0.04761531 0.06422605 0.018860325 0.019999947 0.029833352 0.06386805 0.073284894 0.024857488
0.0076981573 -0.056515895 -0.028741645 0.03455786 0.012523913 0.02842747 -0.045135025 -0.05206837
0.06811236 0.03289862 -0.01338559 -0.063915536 0.08130292 -0.029219475 -0.007866446 0.06436373
-0.09034303 -0.065040916 0.019658212 -0.035599865 -0.08990776 -0.04171443 -0.0090574445 -0.024111357
-0.06836569 -0.113939516 -0.072147146 0.018561928 0.01488453 -0.09089438 0.045101855 -0.035631403
-0.09875502 0.031993713 0.013662601 0.011609315 0.028470721 0.0066584856 0.01146608 -0.06672742
-0.08203347 -0.07989897 0.04109026 0.12809129 0.13519542 -0.010926471 0.13141108 -0.042742796
-0.06583253 0.07325392 -0.07039251 0.077030174 -0.020552075 -0.019865936 -0.11051681 -0.000115748924
-0.11620858 -0.07553088 0.016041245 -0.057295565 -0.0044453773 -0.08535546 0.05528239 -0.053012505
-0.016812637 0.0101007335 -0.07589708 -0.0072489856 0.094095476 0.022799075 0.04720926 0.0331378
0.06327215 0.078801446 0.039514594 0.07443013 -0.0040687146 -0.0003843491 0.087003365 0.0506031
-0.11233145 -0.028853804 -0.05242601 -0.033340096 0.050308835 -0.080383785 -0.14495045 0.04661807
0.026996184 0.0051222425 -0.010073149 -0.0802015 -0.1044793 -0.03931309 0.0012120139 -0.010873643
-0.028217345 0.041628208 0.0498806 0.029803326 0.041396264 0.0043387306 -0.026680907 0.02344834
-0.06087192 0.0702088 0.027925607 0.016096875 -0.01851971 -0.03149721 0.040299874 0.10131028
0.059911888 -0.004023451 0.14840165 0.066364445 0.021208592 0.089769945 0.121585675 0.112443775
0.068257235 -0.06470404 0.058327194 0.06698439 0.13371398 0.02817162 0.07036461 -0.04793404
0.0902032 -0.048708245 0.02280821 -0.02137754 -0.031860698 0.06564936 -0.020075934 -0.11735376
-0.076478586 -0.09262231 -0.08521395 -0.088239335 -0.07763757 -0.14068621 -0.0023792498 -0.01972898
-0.031164886 0.051788025 0.07736756 -0.03964487 0.03988183 0.024078367 -0.011076659 0.017799871
-0.05749419 0.007914966 0.0782221 -0.06806769 -0.05647511 0.022778684 -0.061616793 0.047513142
-0.08554429 0.07532553 0.07886953 0.011236351 -0.0043438654 0.016185673 0.021392278 0.012040425
-0.08221414 -0.050598815 0.081709996 0.0445915 0.05800621 0.02444203 0.118522786 -0.035072435
-0.05077377 0.027488403 0.02837013 0.07426714 -0.06895879 -0.05732679 0.1192897 -0.028384533
-0.09106681 -0.07282661 0.023217365 0.122080065 -0.0069549195 -0.07631066 -0.07764789 -0.07981951
0.05351671 -0.051059995 0.03531533 -0.019518709 0.01635721 -0.066407636 0.06860873 0.044024255
0.048155732 -0.090265855 0.061165906 -0.054028396 0.012434157 -0.086586915 -0.043805096 -0.002343792
0.010710382 -0.01698273 -0.019905867 -0.060594678 -0.07659082 -0.08402094 -0.07048992 0.021688469
0.0772858 -0.014754029 -0.03221067 0.017515896 0.011069539 0.01661551 -0.036206007 0.0034884666
0.029738333 -0.07013269 -0.06584672 -0.0010985035 -0.014846863 0.05681619 0.032425806 0.026746465
0.0008172554 -0.054508634 -0.06328766 -0.024214068 -0.017511282 -0.032500114 0.030101044 -0.088401735
-0.09713387 -0.07032609 -0.012900148 -0.07712925 -0.06442584 -0.027144687 0.05226964 -0.10282059

conv2.bias f4 [16]
00000000: 7691 163d f7d5 bd3d c154 1b3d d575 abbd
00000010: 6a60 8e3d 5a24 f13d 7dcc eebd 462a 093e
00000020: 1fea aa3a 77ec a23d b5db e63c cca2 c63d
00000030: 5f71 e23d b1e3 863c 05f0 ff3d 61a2 053e
0.036759816 0.09269326 0.037922624 -0.08372084 0.06951983 0.11774512 -0.11660097 0.13395032
0.0013039744 0.07955258 0.028180936 0.0969902 0.1105678 0.016465994 0.12496952 0.13050224

fc1.weight f4 [120, 400]
00000000: 2a73 623c 5874 563d c0cf 233d e696 21bc
00000010: 779d 523d 3213 65bc a5af ba3c e68c 39ba
00000020: 5328 ecbc fa2a e2bc 4e46 813c 907f 2e3d
00000030: 601f 50bc 32a2 483c 32e2 feba fd3f 063c
00000040: e978 5abd 510f 05bd fd56 6abd f023 f6bc
00000050: 7381 08bb 955b 19bc 7345 e2bc ffc2 043d
00000060: 754a 2abd fef6 27bd 32f7 123c c20e 06bd
00000070: fda6 39bd 8d71 bdb9 19bc 553c b33b 533d
00000080: ae26 663c b189 133c 34e7 8ebc 97d6 d63c
00000090: 74f5 04bd 83ce 223d 75d5 17bd b7ed 153d
000000a0: edec ce3c 1d7a 21bd 4065 443d eb4e 293d
000000b0: e476 2a3c 2c63 55bd 7452 40bd e3d3 433d
000000c0: 0871 dfbc 6f96 f0bc 0480 b2bc 1780 883c
000000d0: be18 1e3d c8ce 16bd 3e1b 10bd a8c1 473d
000000e0: a7ec 8bbc 3b98 163d 51cf edbb 0a31 a33c
000000f0: d2ff 413d 4916 9e3c 3f92 ccbc 1e89 9fbc
00000100: 0c1d 173d 2c2d 223d 6451 8b3b 3a73 18bd
00000110: 9bcc 6fbc 3833 bb3c 721b 23bb aee2 643c
00000120: 403b 153d 4c75 15bd 0c6f 48bd 20c3 3b3d
00000130: 2fd7 8dbc e06a 303c 8ecd 30bc e400 b2bc
00000140: 0611 2e3d 75b8 bd3c 6944 d33b 7744 363d
00000150: f17f 5cbc 546d 193d 3204 19bd 8086 e93c
00000160: 21dd 02bd d758 073d 222e 1f3c c404 193d
00000170: 6172 323d 2c65 29bc d30b 34bd fbaa 423b
00000180: 521e b33b 2de5 18bd 245d cebc 36fa b9bc
00000190: efe2 54bd 9874 ca3c 921b 1dbc 1c7c 45bd
000001a0: 88a1 223d d6b4 153d 9f99 f03c d8f8 cf3b
000001b0: 44e8 23bc ba0a 4a3d 833a bbbb 15f0 453d
000001c0: 89ac 733a 1076 abbc 5de8 8ebc fb8c 343d
000001d0: 22a9 02bd ee90 743d 5f0d 94bc ef63 773d
000001e0: 07a6 3f3a 1702 6bbc 6b9e a83c 15a6 babc
000001f0: 77c1 663d 2d1b 8b3c 2877 4b3d f8ea e93a
00000200: 17bb 13bd f682 28bd 2124 3cbd d62c 69b9
00000210: 5ea2 26ba 4ea6 893c 938f fa3c c39e b03b
00000220: 67c3 0e3d 14ce 8a3c a2a2 103d 027f 2b3c
00000230: e5ea 143d a513 36bd d26e 993c ddda a2bc
00000240: 7d8b c93c 5fe3 453d 3a44 783c 0196 073d
00000250: b924 07bc 3f43 4f3d 4449 03bc e3de 853c
00000260: 6836 cdbb 3f1c b3bc 8b1c 35bd 0cfc 19bd
00000270: e4dd 12bd ea5d b6bc 22c2 45bd 247c 09bd
00000280: 3392 033d 782b 3b3d aa31 20bd 7a58 ef3c
00000290: 8069 94bc 2145 70bd 1949 02bd 2f9e 4aba
000002a0: 4500 1dbd eb7d 9a3c 2fa5 5fbd 54b4 95bc
000002b0: b423 c33a e7be dd3c d93a b93c 5076 453d
000002c0: 8de2 3a3d 5489 933d 43a3 d03c e6e0 4b3d
000002d0: c7de debc 7ae2 c03c ce18 56bc 281b 053d
000002e0: de2d ccbb 24f5 3abc e014 bcbc a2c5 133d
000002f0: 0de8 febb 01f7 febc 4102 29bc 4065 1bbd
00000300: 97ab ae3c b6df 8fbb 43cf 3a3d 2bea 67bd
00000310: dd86 1a3d b17b f1bc f745 113d 8231 18bd
00000320: a8b8 22bd 3e3f 183d c906 4fbc 24eb fc3b
00000330: 842c 34bc 6952 1b3d 6fea a23c a124 b03c
00000340: 2d46 5f3c d992 2fbd b2d1 85bc 9d0f 34bc
00000350: 041e 2bbc 355d cb3c a662 573c df08 00bb
00000360: 9e90 dfbc e798 14bd 0c24 c4bc 4bf4 d7bc
00000370: 8cc2 913c f19d 90bb 8621 2fbd 9147 2e3d
00000380: c940 b0bc 912c ac3b b332 d8bc e55c ed3c
00000390: 95d4 a43b 16c1 78bc 0e83 77bc da67 413d
000003a0: 0dfb 0fbd 95f7 283d 094c 0e3d f5a9 e53c
000003b0: 3b7e 513c 4c48 4b3d 4731 bbbc 9da1 cf3a
000003c0: 1948 183d 651c ee3c ecf6 783c 55e6 05bd
000003d0: 9271 e8bc fda8 433c 9f4d a5bc 4113 c6bc
000003e0: cb21 853c a323 8f3c c1a1 87bc 35fc f33c
000003f0: c886 683d c231 463d 2632 21bd 7780 2a3d
0.013821403 0.052357048 0.039993048 -0.009862637 0.0514197 -0.013981627 0.022788832 -0.00070781854
-0.028827822 -0.027608383 0.015780594 0.04260212 -0.012702793 0.012245702 -0.0019446074 0.008193967
-0.053337965 -0.03248531 -0.057211865 -0.030046433 -0.002082911 -0.009360214 -0.027621007 0.032412525
-0.041574914 -0.041007034 0.008970069 -0.032728918 -0.045325268 -0.0003613349 0.013045334 0.051570605
0.014047308 0.009004996 -0.01744423 0.026225371 -0.032460645 0.039747726 -0.037068803 0.036603656
0.02525946 -0.039423097 0.047948122 0.041335028 0.010404322 -0.05209653 -0.046953633 0.047809493
-0.027275577 -0.029368607 -0.021789558 0.01666264 0.038597815 -0.036818296 -0.03518223 0.04876867
-0.017080618 0.036766272 -0.00725738 0.019920845 0.04736311 0.019297736 -0.02497208 -0.019474562
0.036892936 0.03959386 0.004251646 -0.037219264 -0.014636184 0.022851571 -0.0024888185 0.01397006
0.03643346 -0.036488816 -0.048934028 0.045840383 -0.017314522 0.0107676685 -0.010791196 -0.02172894
0.042496704 0.023159245 0.006447364 0.044498887 -0.013458238 0.03745778 -0.037357517 0.028506517
-0.031949166 0.03304371 0.009715589 0.03735806 0.04356611 -0.010339063 -0.04395659 0.0029703963
0.005466261 -0.037327934 -0.025190897 -0.022702318 -0.051974233 0.0247138 -0.009589093 -0.048214063
0.03970483 0.03654941 0.029370127 0.006346803 -0.010004107 0.049326636 -0.0057137622 0.048324663
0.0009295424 -0.02093032 -0.017444784 0.044079762 -0.03189958 0.05970853 -0.018072782 0.06039804
0.0007310812 -0.01434376 0.020583352 -0.022784272 0.056336846 0.016980732 0.049674183 0.0017846515
-0.036067095 -0.04114052 -0.045932893 -0.00022237314 -0.0006356592 0.016802933 0.03058604 0.0053900196
0.03485432 0.016943969 0.03531135 0.010467293 0.036356825 -0.04445233 0.018729601 -0.019879753
0.024602646 0.04831254 0.015152985 0.03310204 -0.008248501 0.05060124 -0.008013073 0.016341632
-0.0062625892 -0.021864055 -0.044216674 -0.037593886 -0.035856143 -0.022261579 -0.048280843 -0.033565655
0.03212185 0.045695752 -0.039109863 0.029216994 -0.018116713 -0.058659676 -0.031807993 -0.00077292597
-0.038330335 0.01885887 -0.05460089 -0.018274464 0.001488796 0.027068568 0.022611069 0.048208535
0.045626212 0.07203928 0.025468474 0.049775027 -0.027205838 0.023545492 -0.013067437 0.0324966
-0.0062310537 -0.011410985 -0.022959173 0.03607715 -0.0077791275 -0.03112364 -0.010315479 -0.037938356
0.021322055 -0.004390682 0.045607816 -0.056619804 0.037726272 -0.029477926 0.035467114 -0.03715659
-0.039726883 0.037169687 -0.012635895 0.0077184606 -0.0109969415 0.03792039 0.019887177 0.021501841
0.013627571 -0.042864654 -0.016335342 -0.010990051 -0.010444168 0.024824718 0.013146078 -0.0019536538
-0.027290639 -0.03627863 -0.02394297 -0.026361605 0.017792962 -0.0044133593 -0.04275658 0.04254872
-0.021515267 0.005254336 -0.026391363 0.02897496 0.0050302246 -0.015182754 -0.0151069295 0.04721818
-0.03515153 0.041251738 0.03474048 0.028035143 0.012786443 0.049629495 -0.022850646 0.0015841011
0.037178133 0.029066274 0.0151955895 -0.032690365 -0.028374467 0.011942145 -0.020178614 -0.024179103
0.016251465 0.017473048 -0.016556622 0.029783348 0.056769162 0.048387296 -0.039354466 0.04162642

fc1.bias f4 [120]
00000000: 1454 ffbb 7d51 e1bc 5d4a 043d d6fa a63b
00000010: b036 54bd 8ec1 e13c 9952 3b3d 1bca 2b3d
00000020: 67ba 5bbc 6e67 1e3b fa38 ed3b fca8 5f3d
00000030: 2156 52bd d6a3 4a3d d2e4 77bc 1036 28bd
00000040: fc26 94bc 456f 203d 0d87 09bd 15b9 82bc
00000050: 7a49 223d 20ba 113d f064 29bb b639 61bd
00000060: cd99 1abc 74bd 6ebc 6e06 8d3d 3edd 16bd
00000070: 5e24 4ebd bc94 0abd efbe a43c fa56 bbbc
00000080: 377b 983d fa07 163d 1fbb d23b e974 4ebd
00000090: 58de ff39 d598 373c 204a 983c 65a7 87bb
000000a0: 9155 c83d 9eb1 813b 83d0 2d3d dff1 013d
000000b0: 761c 8abc 431e 46bc 1d88 283d 9893 11bd
000000c0: 7be4 81bd 7716 00bd 90f0 e33c 68b9 0bbd
000000d0: 5835 21bb 16cf 9b3c 652c 41bd e86f 9c3c
000000e0: 72eb 033c f7ae 60bd 906d 1fba 2380 54bd
000000f0: 18ea fc3c 00b4 1abd 0e1c 67bc 43f4 0d3c
00000100: db35 dd3c dd7c 7b3d 3f75 0ebd e31c 0dbd
00000110: 3fec 61bd c649 5fbb 6a9d 1dbd 936a 473d
00000120: 71d8 333c ac18 46bd 6f58 c3bc 744d 8c3a
00000130: 7b8b 4c3c 3a19 403d 5340 103d e92b 323c
00000140: cf51 0bbd 725a 043e 5d5f 49bc 5663 ddbc
00000150: 7feb 523d abfa 08bd de00 3bbd 3944 393d
00000160: 3aa2 733c 467b 673d a217 dcbc 9876 a73c
00000170: 4322 423c 612f e23b 6f08 edbc c121 5e3c
00000180: 5285 1bbc 24a7 903d 5661 513d c362 f73b
00000190: 1a45 c4bb da1f bbbc ad68 0ebd 8020 903b
000001a0: 0e39 a1bb f18c 793a 7c9f 23bd ea74 173d
000001b0: 72c1 0fbc f5c4 87bc 0581 47bb 88f1 d53d
000001c0: 132c f83a 8607 41bc 52be 15ba 1b65 5ebd
000001d0: 9646 f53c a380 5cbc 051f 0a3d 311a 5a3d
-0.0077920053 -0.027504677 0.03229748 0.00509582 -0.051809967 0.027558114 0.04573307 0.04194079
-0.013411141 0.0024170536 0.007239458 0.054604515 -0.05135167 0.049472652 -0.015130239 -0.041067183
-0.018084995 0.039168615 -0.03357606 -0.015957395 0.039620854 0.035577893 -0.0025847517 -0.054986678
-0.009436083 -0.014571536 0.06885992 -0.036832087 -0.05032765 -0.03383325 0.020110575 -0.022868622
0.07445376 0.0366287 0.006430998 -0.050404463 0.0004880305 0.011205872 0.018590033 -0.004139828
0.097819455 0.003957941 0.04243518 0.031724807 -0.016859274 -0.012092176 0.041145433 -0.035541147
-0.06342407 -0.031271424 0.02782467 -0.034112364 -0.0024598446 0.019019645 -0.04716148 0.01909633
0.00805174 -0.05485436 -0.0006081695 -0.051880013 0.030873343 -0.037769318 -0.01410581 0.008664194
0.02700322 0.061398376 -0.034779783 -0.034451377 -0.055156942 -0.0034071072 -0.0384802 0.04868562
0.010976897 -0.048363373 -0.02384588 0.0010704235 0.012484427 0.046899058 0.035217594 0.010874727
-0.034013566 0.12925127 -0.012290803 -0.027024906 0.051494118 -0.03344218 -0.045655124 0.045231078
0.014870221 0.056514047 -0.026866738 0.020442292 0.011848989 0.0069026207 -0.028934686 0.013557852
-0.009492235 0.070631295 0.051118217 0.007549615 -0.005989683 -0.022842336 -0.034767795 0.0043984056
-0.0049201315 0.0009519598 -0.039947018 0.036976732 -0.008774148 -0.016573409 -0.0030441892 0.10446459
0.0018934034 -0.011781579 -0.0005712259 -0.05429564 0.029940885 -0.013458404 0.03372099 0.053247634

fc2.weight f4 [84, 120]
00000000: 578c 7ebd 646f 193d b94d 33bd bd3b ebbc
00000010: 9db3 03bc 4dc6 6fbd 6a17 803d fada 57bd
00000020: 14b4 2abc 6660 d03d c5e3 99bc 8ead f4bc
00000030: 9145 e1bc d0f1 ea3c 1069 5dbd c75d b1bd
00000040: 5db1 98bd 889b cfbc b3e3 473d b75e 2e3d
00000050: 7467 b83d f8a2 823d 2ea4 c23d aa23 fa3c
00000060: dbf6 223d 35df 6ebd a36c 983d 4d5c 60bd
00000070: c08e c6bc de4a 783d 4310 633d 7d02 0cbd
00000080: 527d cc3c 3cad bcbd a410 15bd 9235 1c3c
00000090: 75f5 c1bc aa0a b3bc 3f8a 02bd 41be 4ebc
000000a0: 6b36 dd3d 83c6 be3c 750d 82bd 19fe bdbc
000000b0: 46fc 44bd 75aa 7cbb 832b c63d 93d2 8abd
000000c0: 8a7f 7f3c b048 acbd 6833 95bd a8f1 4abd
000000d0: 6755 723d acf1 3b3d c4d2 513d 8c6f b23d
000000e0: e982 973d 1de5 b23d 3212 8fbc c07a 2bbd
000000f0: b8c3 9d3d b52f a2bb c27b 8dbc d0c4 92bc
00000100: 9e66 9e3d 3d0a a23c d5fc 7bbd 6aab 78bc
00000110: b443 bfbd 549e 54bd 3a13 5cbd f0a1 913d
00000120: 7240 4fbd abda 0cbd f6ed b5bd 8da3 803d
00000130: 09db 5d3d 38c4 c1bc c2fc 2a3d d866 873d
00000140: 562f 693d dad9 d23d 7134 8cbc 3e50 963c
00000150: 0ad9 08bc f495 89bd 7f6d 903d 68d1 c2bd
00000160: 81ad 743d 2750 763d b199 b43d 38d9 343d
00000170: 3cca a6bd 585d f13b bbda 91bd 2cbc 25bd
00000180: 4d05 aebd b4bd 493c b29b 3c3d 253f 213d
00000190: ff72 92ba c0c5 603d e38f a8bc 5539 083d
000001a0: 5c71 2dbd 1482 0e3d b5bb f43c 3f0d d43d
000001b0: a4c7 a9bb b99f 193d d651 943b 5622 5f3d
000001c0: 156a 75bc 9e11 eabc edbd 6c3d 5960 7abc
000001d0: bbaf 113d a959 12ba b038 4ebc 05ca 85bd
000001e0: 1b00 a0bd 355b 79bd bb15 eebc 97f0 63bd
000001f0: 23f8 af3d 9b11 1f3d 4fe0 a93d 845c 1f3d
00000200: 5026 a13d 1f75 68bd 8758 cd3d 0456 913c
00000210: 78cf 35bd b909 3a3c abc9 1abc 7be8 b43c
00000220: b218 ac3c 1494 8cbd e171 76bd f0cc 88bd
00000230: 25ad 7dbd 64b5 643d 1585 ff3c 5d3d 95bd
00000240: c2fd 97bd 4747 35bd 829e a3bd 49e9 e33c
00000250: 4af6 483c 1f56 2bbd bf55 b63d 296e 113d
00000260: 3881 723d 3c6e 533c c467 b0bd 5dcf 27bd
00000270: c13d a73d fdd6 2bbd 7115 793d 4b25 81bd
00000280: 28fa b43d 824f 37bd 7b86 2b3d 28cf 6bbd
00000290: 381b a6bd 6a12 31bd c867 84bd f281 393d
000002a0: e958 783c 2a7e 54bd 7d02 a23d b268 24bd
000002b0: 6aeb a8bd 0dbc 8f3d a186 5a3d 7115 7c3d
000002c0: 5f07 dabb a879 863d 76be 15bd bab3 ffbc
000002d0: c455 ac3c 02c0 723d f6a0 6dbd b6f6 dabc
000002e0: f4da 813d 4230 8bbd 0097 9dbd cc7c 643c
000002f0: 09e6 0bbb 27ec 1f3c 2c57 4bbd 39f8 5e3b
00000300: 836f a83b 4bc6 393d 297f e83c bba9 ba3d
00000310: 7862 933d 792b a4bd 77fb 6e3d 24d0 f33b
00000320: 21fc 883c dda8 8ebd d1fa 38bc 845a 91bd
00000330: fb89 b8bd 82e9 003d fae5 213d 576d aebd
00000340: cbe8 043c 5ebb 4b3b a1e3 9cbd 19d3 073d
00000350: 377d 063d a7db 84bc b571 b53d 0da0 86bc
00000360: a24e 0e3d 0cef 3cbd d7d1 66bc eca1 83bd
00000370: d9f4 c3bc 9348 84bd 95ee 8cbd e9ab 79bb
00000380: d9c2 d5bc b654 2cbd ae8e 543d 2a09 ac3d
00000390: 7ae6 253d ffad 773d ebc8 f53c 3e2e d4bc
000003a0: 7598 f13c e82c a0bd 6fb2 8dbd d623 933d
000003b0: 9859 663d a208 95bd c615 4abd 02b3 84bd
000003c0: 1ca5 a7bb 7482 813d 0738 6d3d c65f c93b
000003d0: bb67 843d 4213 b9bd 6a58 2f3d c645 203d
000003e0: 2f4b b83d c2f6 07bd 0c43 96bd 0566 b7bd
000003f0: fd00 50bd 4410 3c3c 07a4 d4bc caf7 b0bd
-0.062145557 0.037459746 -0.043775294 -0.028715009 -0.008038429 -0.058538724 0.06254466 -0.052699067
-0.0104189105 0.101746365 -0.018785367 -0.029867914 -0.027498992 0.028679758 -0.054055274 -0.08660465
-0.07455704 -0.025342718 0.048801135 0.042570796 0.09004107 0.0637874 0.09503971 0.030534584
0.0397862 -0.058318336 0.07442596 -0.054775525 -0.02423799 0.060618274 0.05543543 -0.03418206
0.024962101 -0.09212729 -0.036392823 0.0095342565 -0.023676613 -0.021855671 -0.031870123 -0.012618602
0.10801395 0.023288017 -0.06350223 -0.023192452 -0.04809215 -0.0038553749 0.09676268 -0.06778445
0.0155943725 -0.084123015 -0.072851956 -0.049546868 0.059163477 0.045884773 0.051226392 0.08712682
0.07398016 0.08735106 -0.01746473 -0.04186511 0.07703346 -0.004949535 -0.017270926 -0.017916113
0.077344164 0.019780273 -0.061520416 -0.015177587 -0.09339085 -0.051908806 -0.053729273 0.07110965
-0.05059857 -0.034388226 -0.08883278 0.06281195 0.054163966 -0.023653135 0.041744955 0.06611413
0.05692991 0.10295458 -0.01711485 0.01834881 -0.008352527 -0.067180544 0.07052135 -0.09512597
0.05973578 0.060135033 0.08818377 0.04415247 -0.08144042 0.007365864 -0.07121798 -0.040462658
-0.08497105 0.012313295 0.04604692 0.03936686 -0.0011173188 0.05487609 -0.020576423 0.0332578
-0.042344436 0.03479202 0.029874662 0.10354089 -0.0051812697 0.03750584 0.004526357 0.054476105
-0.014978905 -0.028572854 0.057798315 -0.01528176 0.03556798 -0.00055828184 -0.012586758 -0.06532673
-0.0781252 -0.060877997 -0.029063096 -0.055649366 0.0859225 0.03883515 0.082947366 0.03890659
0.07868636 -0.05675232 0.10026651 0.01774121 -0.04438731 0.011354857 -0.009447495 0.022083512
0.02100787 -0.06864181 -0.060167197 -0.06679714 -0.0619327 0.05583705 0.031191388 -0.07287095
-0.07421447 -0.04425743 -0.07989217 0.0278212 0.012265751 -0.04183018 0.089030735 0.035505448
0.059205264 0.0129047 -0.08613542 -0.04096924 0.081660755 -0.041953076 0.060811464 -0.06305941
0.08836776 -0.04475356 0.041876297 -0.057570606 -0.0811066 -0.04323045 -0.06465107 0.04528994
0.015157917 -0.051878132 0.07910631 -0.040138908 -0.08248027 0.0701829 0.05335105 0.061543886
-0.0066537107 0.06566173 -0.03655859 -0.03121363 0.02103699 0.059265144 -0.058014832 -0.026728969
0.0634059 -0.06796314 -0.076948166 0.0139457695 -0.0021346828 0.009760893 -0.04964368 0.0034022464
0.0051402464 0.045355123 0.028380947 0.09114405 0.07196516 -0.08016104 0.058345284 0.007440584
0.016721787 -0.06965802 -0.011290268 -0.070973426 -0.09010693 0.03147269 0.039525963 -0.08516949
0.008112143 0.0031087021 -0.07660604 0.033160303 0.032834258 -0.01621802 0.088595785 -0.01643374
0.03474296 -0.04612641 -0.014088116 -0.064273685 -0.023920463 -0.06459155 -0.068814434 -0.0038096851
-0.026093887 -0.042072974 0.051893882 0.084001854 0.040503003 0.06046867 0.030003032 -0.025900956
0.029491642 -0.07821065 -0.06918799 0.071845695 0.056237787 -0.07277037 -0.04933717 -0.064794555
-0.005116118 0.0632371 0.05791476 0.0061454503 0.064650975 -0.09036876 0.042808928 0.03912904
0.08998715 -0.03319431 -0.07337007 -0.089550056 -0.050782192 0.011478487 -0.02595712 -0.08641012

fc2.bias f4 [84]
00000000: 18dd f33c d53f 91b9 5540 063d da8d 2f3e
00000010: 0580 353d 42a4 a8bd aaa5 ca3d 3ecc b53b
00000020: 9efd cbbd 907d c6bb d605 01bd d9f0 36bd
00000030: 852c da3d 36e1 09bd d213 edbc e0ec 6f3b
00000040: c720 423e 0359 dbbc a0c6 c03d 08d8 783d
00000050: cbeb d9bd 9989 f73c 6aec 03bd 58d4 723d
00000060: ccf7 2c3e 13a7 ea3b 7a76 62bd ad0e cdbc
00000070: 6ea1 d4bc f0b6 823c 8eb5 a6bc c9c2 bd3d
00000080: 5451 3b3d f1be 45ba 5f44 63bd 9c3c a13d
00000090: c854 7b3c ab6d 5a3d 5978 893c 229a b73d
000000a0: 6ef3 57bd e78f 85bc f501 103d 4bc7 873d
000000b0: 474a c3ba 7e37 15bc 7b69 0c3d ee3c 51bd
000000c0: 01b0 02bd 8fd4 e53c 111f 5b3d 7246 9fbc
000000d0: bb68 143e 83c6 babd 28ee 2a3e a7e2 99bd
000000e0: 2a0a 0bbc 1d20 dfbd 7d58 aebc 0d91 123d
000000f0: 45f9 ea3c 9966 bdbd 6777 45bc efe9 8f3d
00000100: 0b0a b3bd bd03 92bd 1399 953d 76eb b4bd
00000110: d051 133c 008d 16bd 82e5 b4bd 2e10 d4bc
00000120: ae52 f6bc 4c54 8cbd f601 e83a 8bfb df3d
00000130: 030c 203e 9755 efbc 8611 033e 1175 26bd
00000140: 0162 fbbd 7cf7 b4bd 4f4b cf3d 2a65 b33c
0.029768512 -0.00027704114 0.032776196 0.17143956 0.044311542 -0.08234455 0.09894879 0.005548029
-0.09960483 -0.0060574487 -0.031499706 -0.044663284 0.10653023 -0.033662044 -0.028940115 0.0036609694
0.18957816 -0.026775843 0.09412885 0.0607529 -0.10640677 0.030216979 -0.032207884 0.059284538
0.16891402 0.00716103 -0.05528877 -0.025031412 -0.025955882 0.015956372 -0.020350244 0.09265668
0.045731857 -0.0007543406 -0.055485126 0.078728884 0.015340038 0.053327244 0.016781019 0.089649454
-0.052722387 -0.01630397 0.035158116 0.06629809 -0.0014899456 -0.009107469 0.03428028 -0.051083498
-0.03190613 0.028055457 0.053496424 -0.01944277 0.14493077 -0.09119894 0.16692412 -0.07513934
-0.00848631 -0.10894797 -0.021282429 0.035782862 0.028683314 -0.092480846 -0.0120523935 0.07027041
-0.0874215 -0.07129619 0.07304587 -0.08833973 0.008991674 -0.03675556 -0.08832838 -0.025886621
-0.030068722 -0.06852016 0.001770078 0.1093665 0.15629582 -0.029215617 0.12799653 -0.040638987
-0.12274552 -0.088362664 0.10121786 0.021898825

fc3.weight f4 [10, 84]
00000000: 3197 553e 8ce6 e2bd 7aa6 913d 0225 bd3e
00000010: d8e8 73bd 35a7 4bbd d69a 5f3e 5acc bdbd
00000020: 54f2 3f3d bd39 c9bd 0ec2 9ebd c4c6 563d
00000030: e2b5 a63e 2a10 88bd 9fd4 91bd e02c 67bd
00000040: d588 9b3e 510d 873c b16e 253e 3719 96bd
00000050: 4971 d0bd e554 6dbd 79a0 b6bd 8f63 943d
00000060: 8e81 7d3e a9cf 2ebd 95a0 fc3c f67c 2c3c
00000070: fc22 c83d 23a5 b0bd 5d49 94bd 485b a43e
00000080: 4eeb f83d 1262 d23d 3a05 bbbd c16c 833d
00000090: fead cdbd 446e abbd cbb6 963d f62e d63d
000000a0: 9eda c3bd 81a5 e5bd f3e7 b03d 8a39 353e
000000b0: 12b9 d3ba fba6 9bbc 0137 0ebd 0095 193d
000000c0: 61c6 563e e14e 0f3e ad0e f6bc 9548 e63b
000000d0: b3bd 9a3e a9f0 0cbd 8fc4 e43e c811 d83d
000000e0: 1b94 dbbc a5cc debd f1cd 453c 4685 5dbd
000000f0: fd54 203e bb9e 653d 9280 21bd a2a5 c3bc
00000100: 5121 783d b1de 873d 85fc c8bd 365f d33d
00000110: 4ed9 8cbc 0582 babd 52fe 17bd b1e0 ddbd
00000120: 6b32 a7bd f749 97bc 3305 abbb 0a08 953e
00000130: ad89 9f3e bf85 ae3d e4f4 a13e acdf 6bbc
00000140: 24b0 46bd 8e45 ebbc 0e43 8a3d 5e3c bfbc
00000150: 9b0f 223d 991d 03bc 0eed d43b 7c22 2d3e
00000160: 92ec c0bd 580f f63d 6f31 e3bc d2e0 51bd
00000170: 9473 95bd 41f3 ddbd f909 d43d 025a 94bd
00000180: 6c62 c73e 7572 493e 2dfe c1bd bed1 e13c
00000190: bee5 0ebe daf1 ff3d 0371 323e cee1 0c3d
000001a0: d290 2f3e 1533 bd3c bd72 4d3d 0150 5a3d
000001b0: 961a bf3d ea62 11bd c1a3 a7bc 21a1 543d
000001c0: d27f d6bd 23ea 803d 321d 853c ac4a 113f
000001d0: b8e9 cfbd 3cd7 d73c d8da 4d3d 0aa9 043e
000001e0: f5f9 ddbc 3bda e3bc 0e84 223d aeea fdbc
000001f0: 0068 7738 c171 65bc 2bb3 dc3c f439 8b3e
00000200: 5c96 a9bc 3bc0 b6bd 22ae 513e 56ee 9b3e
00000210: af6c 053e b0c9 773e d113 363d f203 a8bd
00000220: 2981 8b3c eb70 22bd 0c9a 9e3e e4da 91bd
00000230: 6844 a5bd 4e23 483e 9417 99bc b7c7 0e3d
00000240: f94b 293e 37d9 bc3d 3e71 8e3d 3c08 a8bd
00000250: b535 5d3e b87e a73d b197 f0bc 3d16 cd3d
00000260: 1682 c73c 4ab0 70bc 1246 a43e f276 b7bc
00000270: 361d 573d 92d8 babd 05ff e8bd d561 dc3e
00000280: e772 433e d402 4a3e b5bc ae3c 9b95 913d
00000290: 5c87 6c3e ee72 8f3b 9c0d 373e 6e0c c73c
000002a0: 9262 a9bd f9a1 a23d 0362 ad3d 3ea9 ffbd
000002b0: 7aed cfbd 11b4 933d 2af3 d6bc 6a57 87bd
000002c0: 267d 9f3d 7f3d 9a3d 70af adbd f53a 0cbc
000002d0: db37 253c 781f 17bd 7ee1 123c 6f2f 703c
000002e0: f601 22bd f794 573d 6df0 e9bd bc33 47bb
000002f0: c05f 8b3d 0089 a4bc ace4 8e3d bffe 013d
00000300: faa9 673d d1fb cd3c e95a 1dbd d398 62bc
00000310: 26a3 813d 91cb 60bd bd57 f8bc c01f 3cbe
00000320: 14ae ae3d 0a27 9bbd 5d80 c1bc 5738 96bc
00000330: 13e9 a9ba 0249 4bbc 0d81 10bb b0d4 393c
00000340: 7440 a8bd 7541 bdbb d39e 00be 8dbe 1ebe
00000350: 27a2 66bd 4f1b 6d3d 8977 a13b 5eec 20bb
00000360: 02b5 85bc dcc9 30bc 0744 adbd 223a c33c
00000370: 5ec4 bebd 4c91 7e3d 542e 943c 682f f13b
00000380: 7d99 a4bd 8ac3 823b 77b2 5abd 3e77 83bb
00000390: 6f08 4ab7 71bb 4ebd 8e0b de3d d852 51bd
000003a0: e084 bbbd ebc9 bf3d dd49 33bd 9c03 2e3d
000003b0: 2ac9 b23c ada7 283d 5a08 6b3d f78b b83d
000003c0: 464f a8bd 9926 1bbd b895 c2bd ae17 debd
000003d0: bda3 033d c93f ac3d 7ad5 15be 8c02 3e3c
000003e0: d9d5 0e3d fb45 75bc 3053 bbbd ef50 36bd
000003f0: 7b1d 63bd 5478 473d 9e40 813d 2361 dcbd
0.20858456 -0.110791296 0.07111831 0.36942297 -0.05954823 -0.049720008 0.21836409 -0.092674926
0.04686196 -0.09825466 -0.07751857 0.05243565 0.3256064 -0.06643708 -0.071206324 -0.05643928
0.30377832 0.016485842 0.16155507 -0.07329028 -0.101778574 -0.05794229 -0.089173265 0.07245552
0.24756452 -0.04267851 0.03083829 0.01052784 0.09772298 -0.08625247 -0.072405554 0.32100892
0.12154256 0.10272612 -0.09131856 0.064172275 -0.10042952 -0.08370641 0.07359084 0.10458176
-0.09563182 -0.11213208 0.08637991 0.1769773 -0.0016153178 -0.01900052 -0.034720425 0.037495613
0.20974113 0.13994934 -0.030036295 0.0070276954 0.30222854 -0.0344092 0.44681212 0.105502665
-0.02680402 -0.108788766 0.012073026 -0.054082178 0.1565742 0.05605958 -0.039429255 -0.02388269
0.060578648 0.06634272 -0.09813789 0.103208944 -0.017193463 -0.091068305 -0.037107773 -0.10833872
-0.08163913 -0.018467886 -0.0052191257 0.29107696 0.31159726 0.08521604 0.3163215 -0.014396589
-0.048507825 -0.02871969 0.06751071 -0.023344215 0.039565664 -0.008002662 0.0064979857 0.16907686
-0.09420122 0.12014645 -0.027733533 -0.051239796 -0.072974354 -0.108374126 0.10353465 -0.0724373
0.38942277 0.19672568 -0.09472308 0.027565833 -0.13954827 0.124973014 0.17425923 0.03439503
0.17145088 0.023095647 0.05015825 0.053298954 0.09331243 -0.035494722 -0.020463826 0.051911477
-0.104735985 0.06294658 0.016249273 0.56754565 -0.10152 0.026347749 0.050257534 0.12955108
-0.027096728 -0.027814021 0.03967672 -0.030995693 5.8986247e-05 -0.014004172 0.026940903 0.27192652
-0.02070158 -0.08923384 0.20476583 0.30455273 0.13029741 0.24198031 0.044452492 -0.082038775
0.017029362 -0.03965847 0.30976903 -0.07121828 -0.08069688 0.19544718 -0.018688 0.03485843
0.16532888 0.09221118 0.06955193 -0.082046956 0.21602519 0.081784666 -0.029369207 0.10014007
0.024354022 -0.014690468 0.3208471 -0.022395585 0.052518092 -0.09123339 -0.11376766 0.4304339
0.190868 0.19727641 0.021330217 0.07108613 0.2309851 0.0043777144 0.17876285 0.02429792
-0.08270754 0.0794105 0.0846596 -0.12483452 -0.10152717 0.07212079 -0.026238997 -0.0660847
0.07787542 0.07531261 -0.08480728 -0.008558978 0.010084118 -0.036895245 0.008964894 0.014659747
-0.03955265 0.0526323 -0.11422811 -0.0030395826 0.06805372 -0.020084858 0.069772094 0.031737085
0.056558587 0.02514449 -0.038416777 -0.013830381 0.06329946 -0.054881636 -0.030315274 -0.18371487
0.085292965 -0.075758055 -0.023620779 -0.018337412 -0.0012963138 -0.012407543 -0.0022049577 0.011342213
-0.082154185 -0.0057756254 -0.12560587 -0.15502377 -0.056306984 0.05788737 0.00492758 -0.0024554948
-0.016321663 -0.0107903145 -0.08460241 0.02383143 -0.09314798 0.062150285 0.018088497 0.0073603876
-0.08037088 0.003990595 -0.053392854 -0.0040120175 -1.2042102e-05 -0.050471727 0.10842048 -0.051104397
-0.09156203 0.09364685 -0.043771613 0.04248391 0.021824438 0.041175533 0.05738101 0.09011071
-0.08218245 -0.037878606 -0.09501213 -0.1084436 0.032138575 0.084106036 -0.14632216 0.011597287
0.03487191 -0.014970298 -0.09146726 -0.044510778 -0.055448037 0.04869874 0.06311153 -0.10760715

fc3.bias f4 [10]
00000000: a33a 463f f277 2f3e 5b1f 25be 11e2 05bd
00000010: e221 12be 4321 1dbe 6955 bdbd 073c 59be
00000020: 6eec 52bd cefd 26be
0.7743322 0.171356 -0.16125242 -0.032686297 -0.14270738 -0.1534472 -0.09244806 -0.21214305
-0.05149501 -0.16307756
