Masked.pth (torch, 251519 bytes, 10 tensors)

conv1.weight f4 [6, 3, 5, 5]
0	0xbce815b1	-0.028330656
1	0x3e1d1e8c	0.15343684
2	0xbdcccbfc	-0.099998444
3	0x3d8a2e56	0.06747119
4	0xbd0b3793	-0.033988547
5	0x3de46c02	0.11153413
6	0x3d29025e	0.041262023
7	0xbe29c232	-0.16577986
8	0x3caf307e	0.021385428
9	0x3d990252	0.07471146
10	0xbce812b9	-0.02832924
11	0x3da3d8df	0.08000349
12	0x3e2ba422	0.1676183
13	0x3d6c2077	0.05764815
14	0xbdcc144b	-0.09964808
15	0x3e15946b	0.14607398
16	0xbd1ac18a	-0.03778223
17	0x3de1f89c	0.110337466
18	0x3e0aed2c	0.13567036
19	0x3d00b350	0.031421006
20	0x3e01a30c	0.12659854
21	0xbc8dde27	-0.017317845
22	0x3e5054bb	0.20344822
23	0x3e6732ef	0.22578023
24	0x3e0ebfe4	0.13940388
25	0x3e1f57fa	0.15560904
26	0x3d8c7683	0.06858542
27	0xbd91ca54	-0.07118669
28	0x3da60af4	0.08107558
29	0x3dd89681	0.10575581
30	0x3e4d956c	0.20076531
31	0x3e2c9a19	0.16855659
32	0xbde32704	-0.11091426
33	0x3d92c41c	0.07166311
34	0x3da2122f	0.079136245
35	0xbbe974f2	-0.0071245367
36	0x3d757920	0.059929967
37	0x3e403412	0.18769863
38	0x3dea75cf	0.114482515
39	0xbdfc1c75	-0.12310115
40	0x3c651696	0.013982436
41	0xbdaee74d	-0.08540211
42	0x3d38db24	0.045130864
43	0x3e34528a	0.17609611
44	0xbe1515d8	-0.14559114
45	0x3de38f05	0.11111263
46	0x3cc0ff0e	0.02355912
47	0x3e3b0f7f	0.1826763
48	0x3e7eaf69	0.24871601
49	0x3e09715b	0.13422148
50	0xbc45db50	-0.012076214
51	0x3cb3d2d1	0.021951111
52	0xbe76be33	-0.24095993
53	0xbdd2182a	-0.10258515
54	0xbbd6bed9	-0.0065535125
55	0x3dc0d882	0.094162956
56	0xbe13854c	-0.14406317
57	0xbea03586	-0.31290835
58	0xbe185c27	-0.14878903
59	0xbc954316	-0.018220466
60	0xbe4ff633	-0.20308761
61	0xbe1b3d09	-0.15160002
62	0x3d747c8c	0.05968909
63	0x3afb29af	0.0019162203
64	0xbe68c063	-0.2272964
65	0xbe7e8434	-0.24855119
66	0xbeabc842	-0.33551222
67	0xbe479366	-0.19489822
68	0xbd58156b	-0.0527548
69	0xbe8e0125	-0.27735248
70	0xbe7be464	-0.24598843
71	0xbe18d6fb	-0.14925759
72	0xbdd09a5f	-0.10185694
73	0xbd9aa112	-0.07550253
74	0xbd98042b	-0.0742267
75	0xbe3e07b1	-0.18557622
76	0xbe3d0b9b	-0.18461458
77	0xbe914eae	-0.2838034
78	0xbecc760c	-0.39933813
79	0xbdf6e53d	-0.120554425
80	0xbd83a093	-0.064271115
81	0xbe341e66	-0.17589721
82	0xbdb2a2e2	-0.08722474
83	0xbdd722b7	-0.10504668
84	0xbe123f54	-0.1428197
85	0xbd9b55cd	-0.075847246
86	0xbd05b745	-0.032645483
87	0xbb96c805	-0.004601481
88	0xbe4e3d9a	-0.20140687
89	0xbe982cfd	-0.29721823
90	0xbdc890fc	-0.097932786
91	0xbdef150f	-0.116739385
92	0xbc1c2174	-0.00952946
93	0xbb593b95	-0.0033147086
94	0xbd74ce5a	-0.059767105
95	0x3e579f21	0.21056797
96	0xbcdaefbe	-0.026725646
97	0x3d83d473	0.06437006
98	0xbc892cfc	-0.016745083
99	0x3ddfa817	0.109207325
100	0x3e329b4e	0.17442057
101	0x3dfc4f08	0.123197615
102	0x3d698a69	0.057016764
103	0x3e0ba4ef	0.13637136
104	0x3e293cbc	0.16527075
105	0x3e420fb9	0.1895131
106	0x3e9783ae	0.2959265
107	0x3e2ac650	0.16677213
108	0x3e49a62e	0.19692299
109	0x3db0ff3b	0.08642431
110	0xbd9cee83	-0.0766268
111	0x3e154a16	0.14579043
112	0x3e7d6d5a	0.24748746
113	0x3e957aea	0.29195338
114	0x3ae6b3fe	0.0017601249
115	0x3e512ab3	0.20426445
116	0x3d7a0c7f	0.061047073
117	0x3db491d1	0.08816875
118	0x3e9ee47e	0.310337
119	0x3e189f76	0.1490458
120	0x3e0dd9e8	0.13852656
121	0x3d67e357	0.056613293
122	0x3d30babf	0.043146845
123	0xbc960f34	-0.018317796
124	0x3d4d1cfd	0.050076474
125	0x3e3d211f	0.18469666
126	0x3c9b3dae	0.01895031
127	0x3cd78e2c	0.02631291
128	0xbd770d3b	-0.060315352
129	0x3dcd1ee8	0.100156605
130	0xbcd8f223	-0.026482647
131	0xbcebe71f	-0.02879673
132	0x3e933317	0.28749916
133	0x3e63dd38	0.22252357
134	0x3e0b5b6c	0.13609093
135	0xbe851e8d	-0.2599987
136	0xbe36e8bf	-0.17862223
137	0x3dd1b5c1	0.10239745
138	0x3e8186d8	0.2529819
139	0xbe4a3620	-0.1974721
140	0x3daae071	0.0834359
141	0xbd81ad83	-0.06331923
142	0xbd9151ec	-0.070957035
143	0x3e3e98fa	0.18613043
144	0xbe39a09a	-0.18127671
145	0xbdd9554b	-0.106119715
146	0xbe2dc3bf	-0.16969202
147	0xbe875709	-0.2643359
148	0xbe598a0f	-0.21244071
149	0x3d9a0664	0.0752075
150	0xbe3b082f	-0.1826484
151	0xbdf62e99	-0.120206065
152	0x3d48a171	0.048982088
153	0x3d0ab931	0.03386802
154	0x3d367dc5	0.044553537
155	0xbe1e3925	-0.15451486
156	0xbe10fcfb	-0.14159004
157	0x3e06829b	0.1313576
158	0x3e3f854d	0.18703194
159	0x3e3c326d	0.18378611
160	0xbda8d0cc	-0.0824295
161	0x3cea3b1c	0.028592639
162	0x3e09010d	0.13379307
163	0x3e05f7d3	0.13082819
164	0x3e816f03	0.25280008
165	0x3d86ac5b	0.06575843
166	0x3cb2f035	0.021843055
167	0x3e6cd699	0.23128738
168	0x3e6c1e1c	0.23058361
169	0x3dd84aae	0.10561119
170	0x3de2c638	0.110729635
171	0xbd5d6768	-0.054053694
172	0x3e14e97a	0.14542189
173	0x3e47fd78	0.19530284
174	0x3ddb8200	0.10718155
175	0xbe82c8b9	-0.25543764
176	0xbe5254b3	-0.20540123
177	0xbd52c432	-0.051456638
178	0xbd3f02d6	-0.046633564
179	0xbdd9ad3d	-0.10628746
180	0xbe41f4fa	-0.18941107
181	0xbe37f14c	-0.17963141
182	0xbe01eaee	-0.12687275
183	0xbde93edc	-0.113889426
184	0xbdda9bab	-0.106742226
185	0xbdd87de6	-0.10570888
186	0xbcfb40a5	-0.030670473
187	0x3b27195d	0.0025497295
188	0xbc7fd03d	-0.015613613
189	0xbdc9558e	-0.098307714
190	0xbdd0a1ad	-0.10187087
191	0xbdf9bf12	-0.12194647
192	0xbd800fd0	-0.06253016
193	0x3def9155	0.11697642
194	0x3d7e11e1	0.06202877
195	0xbd2f201e	-0.04275524
196	0xbdd06272	-0.10175027
197	0xbc012f4c	-0.007884812
198	0x3e141674	0.1446169
199	0x3d23b738	0.039969653
200	0xbdaa687b	-0.08320709
201	0xbdff3298	-0.12460822
202	0xbdb7ff1c	-0.08984205
203	0x3d632424	0.05545439
204	0xbdec5bb1	-0.11540926
205	0xbe066630	-0.13124919
206	0x3c832160	0.016007125
207	0xbc9fc890	-0.019504815
208	0xbcd7c490	-0.026338845
209	0x3cf4b89e	0.029873189
210	0xbe045129	-0.12921585
211	0xbe0c4c2f	-0.13700937
212	0xbd826156	-0.063662216
213	0x3d1db691	0.038504187
214	0x3da5922f	0.08084523
215	0x3d4bea25	0.049783845
216	0x3e0030ff	0.1251869
217	0x3e305167	0.17218553
218	0x3c11f31f	0.008908062
219	0x3e0c1f16	0.13683733
220	0xbd612c66	-0.054973982
221	0x3df2e424	0.118599206
222	0xbb602a3c	-0.003420486
223	0x3e28a7eb	0.16470306
224	0x3e07ff14	0.13280898
225	0xbded9a21	-0.116016634
226	0xbe51f8a2	-0.20505002
227	0xbdb904f3	-0.09034147
228	0xbdb67c30	-0.08910406
229	0xbcf47fee	-0.029846158
230	0xbe5d079c	-0.21584934
231	0xbdda48fd	-0.10658453
232	0x3cf216f4	0.02955196
233	0xbc32f430	-0.010922477
234	0xbd8e786e	-0.06956564
235	0xbe4c61b2	-0.19959143
236	0xbe058e4b	-0.13042562
237	0xbdce3948	-0.10069519
238	0xbe2041c2	-0.15650085
239	0x3d760f1d	0.060073007
240	0xbe203bac	-0.15647763
241	0x3c170d5e	0.009219496
242	0xbde3bc59	-0.11119909
243	0xbe065b3b	-0.13120739
244	0xbdca7b65	-0.09886817
245	0xbe188a39	-0.14896478
246	0x3d6d45ec	0.05792801
247	0xbddf87ee	-0.109145984
248	0x3d856ef8	0.06515306
249	0xbdbdf783	-0.09275725
250	0xbd00b813	-0.031425547
251	0x3c6c8b1e	0.014437465
252	0x3dc4e0f3	0.09613218
253	0x3e18a2f8	0.14905918
254	0x3dff5a5e	0.12468408
255	0x3da08c67	0.078392796

conv1.bias f4 [6]
0	0x3e55b62a	0.20870271
1	0x3efab5ad	0.48966733
2	0xbe0b46c7	-0.13601218
3	0xbd516e95	-0.05113085
4	0x3b943002	0.0045223245
5	0xbe418cea	-0.1890141

conv2.weight f4 [16, 6, 5, 5]
0	0x3aebb0f6	0.0017981816
1	0x3c8abe15	0.016936341
2	0xbdca64f1	-0.09882534
3	0xbdefa1c2	-0.11700775
4	0xbcf1ef07	-0.029532922
5	0xbbb61b81	-0.005557478
6	0xbdbd7568	-0.09250909
7	0xbd94e430	-0.07270086
8	0xbe1d72fd	-0.15375896
9	0x3c7723e8	0.015084244
10	0xbd38faae	-0.04516094
11	0xbdcb8f2a	-0.09939416
12	0xbdfbbdb2	-0.12292041
13	0xbe129e0d	-0.14318104
14	0x3d2a308f	0.041550215
15	0xbb9e23bf	-0.0048260386
16	0xbde89a21	-0.11357523
17	0xbe27bb5b	-0.16380064
18	0xbd550d2c	-0.052014515
19	0xbd5c5625	-0.05379309
20	0x3dc24739	0.09486241
21	0x3c4c0c91	0.012454168
22	0xbdc24348	-0.09485489
23	0xbc1f7f0c	-0.00973488
24	0x3d6cf6a7	0.057852414
25	0x3d7a27b2	0.061073013
26	0x3d2e0957	0.042489376
27	0x3c2deaf7	0.010615102
28	0x3c738740	0.014863789
29	0xbb08720e	-0.0020819935
30	0x3d726921	0.05918229
31	0xbd1aeacb	-0.037821572
32	0xbd3f4960	-0.046700835
33	0xbd29a964	-0.04142131
34	0xbc490766	-0.01226983
35	0x3c31bdc6	0.010848468
36	0x3b34f200	0.0027610064
37	0xbce66518	-0.028124377
38	0xbd51f907	-0.05126288
39	0x3cd8ba8d	0.026456142
40	0xbce7ea68	-0.028310016
41	0x3d90c972	0.07069673
42	0xbc8831b2	-0.01662526
43	0xbdbead73	-0.093104266
44	0xbd3398ff	-0.04384708
45	0xbcd055f2	-0.025431607
46	0x3d60809e	0.05481016
47	0xbca8de4a	-0.020613808
48	0xbde6716b	-0.112521015
49	0xbd071647	-0.03298023
50	0x3a41baa9	0.000739018
51	0xbca94f8a	-0.02066781
52	0x3ca51586	0.020151865
53	0x3d514e3a	0.051099993
54	0xbd57f947	-0.052727964
55	0xbdbec362	-0.0931461
56	0xbb159d9d	-0.002282954
57	0x3c6d6fbc	0.014491972
58	0xbd77cd74	-0.06049867
59	0xbd92e91a	-0.07173367
60	0xbd42163b	-0.047384482
61	0xbd414ace	-0.04719048
62	0xbc126757	-0.008935771
63	0xbd233cfb	-0.039853077
64	0x3d52aec4	0.0514362
65	0x3d0614a1	0.032734517
66	0xbdca24ef	-0.09870326
67	0xbdac73e6	-0.084205434
68	0xbdaf70cb	-0.085664354
69	0x3deea40a	0.11652382
70	0x3e01011d	0.12598081
71	0xbd59bc7a	-0.05315826
72	0x3d5490c9	0.05189589
73	0x3da25f11	0.07928289
74	0x3df6b221	0.12045694
75	0xbd7986e0	-0.060919642
76	0x3cb7f43b	0.022455325
77	0x3dbf1118	0.09329432
78	0xbd6cc5ae	-0.05780571
79	0x3b573415	0.003283744
80	0x3dcf9954	0.10136667
81	0x3dbf7bdb	0.093497954
82	0xbc856a09	-0.016285913
83	0x3d6f1410	0.058368742
84	0x3d953aa6	0.07286577
85	0x3dd2b207	0.10287862
86	0x3bccaffa	0.006246564
87	0xbc8a571c	-0.01688724
88	0xbda6394b	-0.081163965
89	0x3cff6d4e	0.03118005
90	0x3dc87775	0.097884096
91	0xbcae40eb	-0.02127119
92	0x3d5297b2	0.0514142
93	0x3ca0b10c	0.019615673
94	0xbcc6e970	-0.024281234
95	0xbd6f9984	-0.058496013
96	0xbdcb9ff9	-0.09942622
97	0x3c428734	0.011873055
98	0x3c086373	0.008324492
99	0xbd254e02	-0.040357597
100	0xbd1d80f4	-0.038453057
101	0xbda290c2	-0.079377666
102	0xbd95801c	-0.072998255
103	0xbc87addc	-0.016562395
104	0x3c8a799d	0.016903693
105	0x3cbb0bb9	0.022832738
106	0x3d110dff	0.03541374
107	0x3c051220	0.008121997
108	0x3d924f6c	0.07144055
109	0xbcdd8f09	-0.027045744
110	0xbc8ba00b	-0.017044088
111	0xbd0a1e5f	-0.03372037
112	0xbc84e3d6	-0.016221922
113	0x3d85feb4	0.065427214
114	0xbcb6b9ee	-0.022305455
115	0xbdc80ea5	-0.09768418
116	0x3d3b0e41	0.04566789
117	0x3dad017a	0.08447547
118	0x3dad856f	0.08472716
119	0x3d5770e7	0.052597906
120	0xbd22917a	-0.03968952
121	0x3d22fa40	0.03978944
122	0x3dcacdb8	0.09902519
123	0x3d71814b	0.058961194
124	0x3d1ef044	0.038803354
125	0x3d79c57d	0.060979355
126	0x3dc96300	0.09833336
127	0x3c14d3be	0.009083686
128	0x3dec9b39	0.11553044
129	0x3cb93389	0.022607582
130	0x3d95c3e8	0.07312757
131	0xbd21bf4a	-0.039489068
132	0x3c4440b4	0.011978317
133	0xbc8624bb	-0.016374936
134	0xbccf41a9	-0.025299864
135	0xbc0448f6	-0.008074036
136	0x3db0ff05	0.08642391
137	0x3d1fb78d	0.038993407
138	0xbd47e65d	-0.048803676
139	0xbda28a8b	-0.07936581
140	0x3cfda3ab	0.030961832
141	0x3c97d02f	0.018531887
142	0x3d6acde6	0.057325266
143	0xbdff4918	-0.124651134
144	0xbd85c5c5	-0.06531862
145	0x3d3dfe0c	0.046384856
146	0x3caa4de5	0.020789096
147	0x3c2e6937	0.010645202
148	0xbd81a435	-0.06330148
149	0xbd69648c	-0.056980655
150	0x3e11d94c	0.14243048
151	0x3d9cb11f	0.07650971
152	0xbcbe6154	-0.023239769
153	0xbd2c8b8c	-0.04212527
154	0x3dbc8450	0.09204924
155	0x3dfc0d55	0.123072304
156	0xbc901e02	-0.017592434
157	0xbd05a32a	-0.03262631
158	0xbdad7f9f	-0.084716074
159	0x3d80da28	0.0629161
160	0xbd95cfb2	-0.07315005
161	0xbe01f7ad	-0.12692137
162	0xbd1cba8d	-0.038263846
163	0xbdae6cf8	-0.08516878
164	0xbd3198f7	-0.04335877
165	0xbd9eee4c	-0.07760295
166	0xbdfaf74b	-0.12254199
167	0xbddf4d8b	-0.10903462
168	0xbe06344c	-0.13105887
169	0xbdf2ba56	-0.11851947
170	0xbdec2abe	-0.1153159
171	0xbe06a895	-0.13150246
172	0xbc8804f0	-0.016603917
173	0xbc96bef8	-0.018401608
174	0xbd076eae	-0.033064537
175	0xbd35acf3	-0.04435439
176	0xbdd0e5d3	-0.102000855
177	0xbd742d9f	-0.05961382
178	0xbe3711e4	-0.17877918
179	0xbdea42a1	-0.1143849
180	0xbd4eefcc	-0.050521657
181	0xbdeeb03c	-0.11654708
182	0xbe1e01a9	-0.15430321
183	0xbe369e89	-0.17833914
184	0xbd8f5958	-0.06999463
185	0xbd5ea962	-0.054360755
186	0xbdb7ce17	-0.089748554
187	0xbca550dc	-0.020180158
188	0xbd700f8b	-0.058608573
189	0xbd8ac3ee	-0.06775652
190	0x3d2e01cd	0.042482186
191	0x3bfd6fee	0.0077342903
192	0x3cfa4cae	0.030554142
193	0xbd7bad2a	-0.06144444
194	0x3ce008ad	0.027347887
195	0x3de63eb4	0.112424284
196	0x3d9796fc	0.07401845
197	0x3c01a41b	0.007912661
198	0x3d8e6a78	0.06953901
199	0x3ac07a46	0.0014684878
200	0x3d130a4f	0.035898503
201	0x3cb6544b	0.02225699
202	0xbcb3152a	-0.021860678
203	0x3e138c8d	0.14409085
204	0xba55ad8f	-0.00081511674
205	0xbdac3276	-0.08408062
206	0xbd124a74	-0.035715535
207	0x3d2072b2	0.039171882
208	0x3dd52205	0.10406879
209	0x3e27fd04	0.16405112
210	0xbdc2a571	-0.09504212
211	0xbd261e33	-0.040556144
212	0x3cb7ddfc	0.022444718
213	0x3d654a18	0.055978864
214	0xba8410c7	-0.0010075801
215	0xbe1c6ebb	-0.15276615
216	0xbe11ed20	-0.14250612
217	0xbd92e21e	-0.07172035
218	0x3ce2a593	0.027666843
219	0x3cb564e1	0.02214283
220	0xbe02aa98	-0.12760389
221	0xbc92557c	-0.017863028
222	0xbe05ab79	-0.13053693
223	0x3ca777cc	0.020442866
224	0x3e132589	0.14369787
225	0xbe1034fb	-0.1408271
226	0xbe1310eb	-0.14361922
227	0xbd48ea95	-0.04905184
228	0xbd840c36	-0.064476416
229	0xbd708512	-0.058720656
230	0xbdca9471	-0.09891594
231	0x3cb1f1ac	0.021721683
232	0xbd9150e5	-0.070955075
233	0xbdfdb58c	-0.12388143
234	0xbdc93070	-0.09823692
235	0x3daf0fd5	0.085479416
236	0xbd07528a	-0.0330377
237	0x3c7899c3	0.015173378
238	0xbd4f6dd5	-0.050641853
239	0x3e009ac7	0.12559043
240	0x3c931393	0.01795367
241	0xbcf51819	-0.029918717
242	0x3d3447a0	0.04401362
243	0xbd0aa445	-0.033848066
244	0x3df8f641	0.12156344
245	0x3df8ef7e	0.121550545
246	0xbd3d0c7c	-0.046154484
247	0xbc188567	-0.009309149
248	0x3d195106	0.037430786
249	0x3e04422c	0.12915868
250	0xbe31c8c3	-0.17361741
251	0xbd872408	-0.06598669
252	0xbe1a0266	-0.15039977
253	0xbe1fbf63	-0.15600352
254	0xbd7d2fac	-0.06181304
255	0xbccb9e6a	-0.024855811

conv2.bias f4 [16]
0	0x3d9df48c	0.07712659
1	0xbc5acc91	-0.0133544365
2	0xbd088dea	-0.033338465
3	0xbab877f2	-0.0014073832
4	0x3ae86858	0.0017731292
5	0xbb9225f7	-0.004460092
6	0x3e3d0f42	0.18462852
7	0xbd82add5	-0.06380812
8	0x3cfde53f	0.030993102
9	0x3e0e2fd4	0.13885432
10	0x3cd5c35e	0.026094135
11	0xbcb31e19	-0.021864938
12	0xbd7feac5	-0.062479753
13	0xbc2e88f0	-0.010652766
14	0x3e194d26	0.14970836
15	0x3e0f1706	0.13973626

fc1.weight f4 [120, 400]
0	0xbcd73824	-0.026271887
1	0xbc79a49f	-0.015237003
2	0x3d294229	0.04132286
3	0xbbf4f56e	-0.0074755466
4	0x3d4aa698	0.049475282
5	0xbd08e0cc	-0.033417508
6	0x3cc089b8	0.02350317
7	0x3d067d70	0.03283447
8	0x3c59443c	0.013260897
9	0x3b0e8844	0.00217487
10	0x3cd1d717	0.025615258
11	0xbcd0e9a3	-0.025502032
12	0xbcd092c2	-0.025460605
13	0xbd3b438b	-0.04571871
14	0xbbdc26fa	-0.0067185136
15	0x3bf25f84	0.0073966403
16	0x3d137b32	0.03600616
17	0x3c74528b	0.014912258
18	0xbcd77ce8	-0.026304677
19	0xbc8ab3e4	-0.016931482
20	0x3c92323e	0.017846223
21	0xbc52a59e	-0.012856869
22	0xbcb22371	-0.021745415
23	0x3c6bf453	0.014401513
24	0x3cb866a2	0.022509877
25	0xb936d7e4	-0.00017437298
26	0xbb7feb90	-0.0039050318
27	0x3c929047	0.017891062
28	0xbc9feb67	-0.019521428
29	0x3c1322cb	0.008980463
30	0x3c0c50f7	0.008564225
31	0x3cb4aa33	0.022053814
32	0xbcc8e10d	-0.024521375
33	0x3d076984	0.033059612
34	0x3c763e6c	0.015029531
35	0x3c1fe8fd	0.009760139
36	0x3d436980	0.047708035
37	0x3c818b90	0.015813619
38	0x3c3bd983	0.011465433
39	0xbc159c74	-0.00913154
40	0x3cba1c91	0.0227187
41	0xbc054b09	-0.008135566
42	0x3c6b71d0	0.014370397
43	0x3d1b4bc8	0.037914068
44	0xbd3be02e	-0.04586809
45	0x3d13de72	0.036100812
46	0xbc3da59c	-0.011575129
47	0x3c9aaa9d	0.018880183
48	0x3cac69e7	0.021046592
49	0x3d42c7ce	0.04755383
50	0x3d1565d1	0.036474053
51	0xbd029fb0	-0.03189057
52	0x3d40360d	0.046926547
53	0x3d0ad050	0.03389007
54	0xbcc81bd6	-0.024427336
55	0x3c5d3d0c	0.013503324
56	0x3d263e03	0.040586483
57	0x3d2a90ad	0.04164188
58	0x3cb8f27b	0.022576561
59	0xbd09eb58	-0.033671707
60	0x3d3b8884	0.04578449
61	0x3c657b31	0.014006422
62	0xbc4965b1	-0.0122923115
63	0xbce80626	-0.028323244
64	0xbcedd4ca	-0.02903213
65	0x3d427cdf	0.047482368
66	0xbcdc6600	-0.026904106
67	0x3d0768bb	0.033058863
68	0x3ca829d2	0.020527754
69	0x3c74c916	0.014940521
70	0x3bd020bc	0.0063515585
71	0xbc81a156	-0.015824001
72	0xbbe1205c	-0.0068703126
73	0x3badeb96	0.005307625
74	0x3cdb8ab3	0.026799535
75	0x3cb45bab	0.022016367
76	0x3d4aac3f	0.049480673
77	0xbd09467d	-0.03351449
78	0x3d46b592	0.048513003
79	0xbc8e1efd	-0.01734876
80	0x3c982a2a	0.018574793
81	0x3bc856db	0.0061138696
82	0xbcd87737	-0.026424034
83	0x3d51fda8	0.051267296
84	0xbbb47c24	-0.005507963
85	0xbd2878b8	-0.04113075
86	0xbc9325ba	-0.017962325
87	0xba8013a3	-0.0009771477
88	0x3c7309d9	0.014833891
89	0x3d02a1d1	0.0318926
90	0xbccbdb19	-0.024884747
91	0x3d016098	0.03158626
92	0xba43a867	-0.00074637536
93	0x3cd1aa65	0.025593946
94	0xbbb5fc19	-0.005553734
95	0x3cad1091	0.021126064
96	0x3d07fb38	0.033198565
97	0x3d43b7e9	0.047782812
98	0x3d234101	0.039856914
99	0xbc9c3c8f	-0.019071845
100	0xbd06972f	-0.032859024
101	0xbd2ef634	-0.042715266
102	0x3c3561c7	0.011070675
103	0xbcf21585	-0.029551277
104	0xbd1824e0	-0.03714454
105	0xbd2c52ac	-0.04207103
106	0xbc6cc124	-0.014450345
107	0x3d442ea2	0.047896035
108	0x3cbfc5a6	0.023409676
109	0x3d2e512d	0.042557884
110	0x3c8fe8c0	0.017567039
111	0xbd091c9c	-0.03347455
112	0x3d26b723	0.040701997
113	0xbd3e76c8	-0.046499997
114	0x3d029f29	0.03189007
115	0x3cc78c7c	0.02435898
116	0xbb6efec4	-0.003646777
117	0x3be90905	0.007111671
118	0x3cc41921	0.023937764
119	0x3d118f09	0.0355368
120	0xbb5c537f	-0.0033619103
121	0x3b3e1a67	0.0029007436
122	0x3c6fb223	0.014629873
123	0x3abf8caa	0.0014614065
124	0xbd043ca3	-0.03228439
125	0xbc649b02	-0.013952972
126	0xbbd73ca7	-0.0065685096
127	0x3c81df32	0.015853498
128	0xbc927168	-0.017876342
129	0xbcaff7fa	-0.02148055
130	0x3cee013a	0.02905332
131	0xbba0c40e	-0.004906184
132	0xbcd2e38e	-0.025743272
133	0xbc1650d8	-0.009174548
134	0x3cd6366f	0.026149003
135	0xbd064ca2	-0.032787926
136	0x3d1cfaf7	0.038325276
137	0xbd2f2e8b	-0.042768996
138	0x3d2d5d93	0.042325567
139	0x3d2f727d	0.042833794
140	0xbd270129	-0.04077259
141	0x3be65841	0.0070295637
142	0x3cdda8a5	0.027057955
143	0x3c5574c3	0.013028326
144	0xbceb8192	-0.028748307
145	0xbd24d69e	-0.040243737
146	0xbcd246e0	-0.025668561
147	0x3d201883	0.039085876
148	0xbd3407fd	-0.04395293
149	0xbd261233	-0.0405447
150	0x3c8147ca	0.015781302
151	0x3c15785f	0.009122937
152	0xbcda35cc	-0.02663698
153	0x3d3473cc	0.044055745
154	0x3b648701	0.0034870508
155	0xbc3a3b74	-0.011366714
156	0xbb11f904	-0.002227367
157	0x3c8e3ac5	0.017362008
158	0xbb97534c	-0.004618084
159	0x3d462921	0.048379067
160	0xbcb02a33	-0.021504497
161	0x3d09d0ce	0.033646397
162	0x3d16a081	0.036774162
163	0x3d5deda7	0.05418172
164	0x3d4ac788	0.049506694
165	0xbc1473cd	-0.009060812
166	0xbcb6eb2c	-0.022328936
167	0xbcef19b8	-0.029187068
168	0x3cb92147	0.022598876
169	0x3d67a0d8	0.056549877
170	0x3cfa2249	0.030533927
171	0x3c5010de	0.012699334
172	0xbca7d219	-0.020485925
173	0x3cb83340	0.022485375
174	0xbcd7aaca	-0.026326556
175	0xbd3db68b	-0.046316665
176	0x3d1c7ae9	0.038203154
177	0x3ca23b01	0.019803526
178	0xbd0cf86d	-0.034416605
179	0xbc927ffb	-0.017883291
180	0x3c1c336c	0.009533744
181	0x3b9d9ef9	0.004810211
182	0xbc3d7b68	-0.011565067
183	0xbb0a98c9	-0.0021148196
184	0xbd0f574a	-0.034995355
185	0xbc40e467	-0.011773205
186	0xbb0c5f54	-0.0021419125
187	0x3b0fc449	0.0021937063
188	0xbd2b2e8a	-0.04179243
189	0x3ca7e62b	0.020495495
190	0xbbc702c0	-0.006073326
191	0x3d3479d6	0.044061504
192	0x3b9c7d07	0.0047756466
193	0x3cc1f7de	0.023677763
194	0x3d18366e	0.037161283
195	0xbd076e01	-0.033063892
196	0x3a6ec2be	0.00091079983
197	0x3c91c3bb	0.017793527
198	0x3d466a83	0.04844142
199	0xbd015709	-0.031577144
200	0x3be81a4b	0.0070832125
201	0x3c8082c6	0.015687358
202	0x3d021eb6	0.03176757
203	0x3c069e11	0.008216397
204	0xbcfbd460	-0.030740917
205	0xbcb21c4b	-0.021742007
206	0xbc16e94f	-0.009210899
207	0x3cfba33c	0.030717485
208	0xbcd98314	-0.02655176
209	0x3d0661aa	0.032807983
210	0x3d602435	0.05472203
211	0xbd1a1e3c	-0.03762649
212	0xbc9f0503	-0.01941157
213	0x3d4a5832	0.049400516
214	0xbce3da47	-0.027814044
215	0x3d480531	0.048833076
216	0x3d0ee15f	0.0348829
217	0xbd0b1142	-0.033952005
218	0x3d24fca4	0.04028
219	0x3d3a7b6b	0.045527857
220	0xbc24c108	-0.010055788
221	0xbb7cfdec	-0.0038603498
222	0x3cda1489	0.02662112
223	0x3d53117a	0.05153034
224	0x3d10cbf5	0.03535076
225	0xbca2116b	-0.019783696
226	0xbc6b27e7	-0.014352775
227	0xbcf952dd	-0.03043502
228	0xbbc3a88c	-0.00597102
229	0xbbfcb9e5	-0.00771259
230	0x3d27b259	0.04094157
231	0x3c153e8d	0.009109152
232	0xbd22ceff	-0.039748188
233	0xbce3bb00	-0.02779913
234	0xbd4a9849	-0.049461637
235	0x3d008d05	0.031384487
236	0xbc178faf	-0.009250565
237	0x3cbd8feb	0.023139914
238	0xbcb097c9	-0.021556752
239	0xbc4b1084	-0.012394074
240	0x3d296784	0.041358486
241	0xbcac0fad	-0.021003569
242	0x3d326686	0.043554805
243	0xba4e0951	-0.00078596646
244	0xbc7aecf2	-0.015315281
245	0x3d219f60	0.039458632
246	0x3ccb6d79	0.024832474
247	0x3d32c7f7	0.043647733
248	0x3cc7920b	0.02436163
249	0xb86f2f00	-5.7025813e-05
250	0x3ca9dd08	0.020735279
251	0x3d3e6f48	0.046492845
252	0xbd0cc460	-0.034366965
253	0x3cfb8946	0.030705106
254	0xbceb8754	-0.028751053
255	0x3c303e9d	0.010757116

fc1.bias f4 [120]
0	0x3ce71452	0.028207932
1	0x3c6eb270	0.01456891
2	0x3d9087e8	0.07057172
3	0x3d7c890e	0.061654143
4	0xbc991fd1	-0.018691929
5	0x3ce26aa4	0.02763874
6	0x3c0de22d	0.008659882
7	0x3c9715d6	0.01844303
8	0xbcf14054	-0.02944962
9	0x3ce16973	0.027516102
10	0xbce0f629	-0.027461128
11	0x3d421015	0.04737862
12	0xbd1bbc7f	-0.03802156
13	0xbb00cc0f	-0.0019652878
14	0xbd3cfc8a	-0.046139278
15	0xbced94a2	-0.029001538
16	0xbce31bca	-0.027723212
17	0x3c39dc75	0.011344065
18	0x3c4cae2c	0.012492698
19	0xbbd93d3d	-0.0066296146
20	0x3d3da026	0.046295308
21	0x3d79f7f7	0.061027493
22	0x3d79bbf8	0.060970277
23	0x3c809eab	0.015700659
24	0x3ca5a1f8	0.020218834
25	0xbd51b991	-0.05120236
26	0x3b12c309	0.0022394082
27	0x3cb663d6	0.022264402
28	0xbd24fd4f	-0.040280636
29	0xbbf38717	-0.0074318754
30	0xbc727aa4	-0.014799748
31	0xbccf4304	-0.02530051
32	0x3ceacd47	0.028662337
33	0xbc727acc	-0.014799785
34	0x3c8778de	0.016537126
35	0x3b9e8b71	0.0048384
36	0x3cd77eb5	0.026305536
37	0x3c24defc	0.010062929
38	0x3da05a7d	0.07829759
39	0x3c84823d	0.016175384
40	0x3cb30081	0.021850826
41	0x3d058728	0.0325996
42	0x3cf607fd	0.030033106
43	0x3d386605	0.04501917
44	0x3d779e0d	0.060453463
45	0x3d67634c	0.05649118
46	0xbd551040	-0.05201745
47	0x3cd7dd2b	0.026350578
48	0x3d2a8545	0.041631002
49	0x3bfdaec9	0.0077417833
50	0xbd0591da	-0.032609798
51	0x3d5446de	0.051825397
52	0x3da32498	0.07965964
53	0xbc379947	-0.011205978
54	0xbcc3b133	-0.023888206
55	0x3c9a27c7	0.018817795
56	0xbcc580e5	-0.024109313
57	0xbd6f4007	-0.05841067
58	0x3c6d6c9e	0.014491228
59	0xbc16801e	-0.009185819
60	0x3d259a84	0.04043056
61	0xbcae6d4f	-0.021292357
62	0xbce78f5b	-0.0282666
63	0xbd0b71fe	-0.03404426
64	0x3cd5466c	0.026034556
65	0xbcab5ef1	-0.020919295
66	0xbc06385a	-0.008192146
67	0x3d4a23c5	0.04935052
68	0x3bb6f308	0.005583171
69	0x3c40724c	0.0117460005
70	0xbd181f12	-0.037139006
71	0x3d010222	0.031496175
72	0x3c9ce57d	0.019152397
73	0x3b896932	0.0041934485
74	0x3d5cb933	0.053887557
75	0x3cfa4714	0.03055147
76	0xbbfc63a7	-0.007702309
77	0x3bf31b6f	0.007419042
78	0xbb1f7b76	-0.0024335063
79	0xbcbae282	-0.022813085
80	0xbd50466c	-0.05084841
81	0xbcfecff8	-0.031105027
82	0x3bdb07f2	0.0066842968
83	0x3cb983c7	0.022645844
84	0x3cd461c3	0.025925523
85	0x3c26a46c	0.010171037
86	0xbd23fa8b	-0.04003386
87	0x3cbf0fd8	0.023322985
88	0x3d8f3ef4	0.06994429
89	0x3bc2d3be	0.005945652
90	0x3c9a2008	0.018814102
91	0x3c73ebb9	0.014887744
92	0xbd4f5f4f	-0.050628003
93	0xbbdebe6a	-0.0067976015
94	0x3d335602	0.043783195
95	0x3af55573	0.0018717482
96	0xba46d410	-0.00075847004
97	0x3a9d53bc	0.0012003104
98	0xbd005283	-0.03132869
99	0x3d968443	0.07349446
100	0x3d9e7c10	0.07738507
101	0x3cece183	0.028916126
102	0xbcdcf13e	-0.026970502
103	0xbb51af42	-0.003199533
104	0xbbb048f7	-0.005379792
105	0xbd2d41aa	-0.04229895
106	0xbcc4ad95	-0.024008552
107	0x3c3eb1c5	0.011639063
108	0xbcd1eff1	-0.025627108
109	0xbd10722e	-0.03526514
110	0x3d463e90	0.048399508
111	0xbbe2169a	-0.006899667
112	0x3c2e266a	0.010629276
113	0x3d1e5fe8	0.038665682
114	0x3c82251d	0.015886838
115	0x3cd670cd	0.026176834
116	0xbc05b5c9	-0.008161017
117	0xbb9dd00e	-0.004816062
118	0xbd3fb215	-0.04680069
119	0x3b15b3a6	0.0022842675

fc2.weight f4 [84, 120]
0	0x3c1ec394	0.009690184
1	0xbd564d4a	-0.052319802
2	0xbd9bfcbd	-0.076165654
3	0x3befe1f2	0.007320636
4	0x3c83b6f2	0.016078446
5	0xbcc91f3a	-0.024551023
6	0x3da8176f	0.082075946
7	0x3d6e73eb	0.058216017
8	0x3cd6dc28	0.026228026
9	0x3da65fac	0.08123717
10	0xbd353672	-0.044241376
11	0xbcbd3d58	-0.02310054
12	0xbd843f53	-0.06457391
13	0x3d1c3a9c	0.03814183
14	0x3dae518b	0.08511647
15	0xbd2e5d97	-0.042569723
16	0x3cc71083	0.024299866
17	0x3cc4280a	0.023944873
18	0x3d41fa87	0.047358062
19	0x3cf9d22f	0.030495731
20	0xbdb7539c	-0.08951494
21	0x3b6fbe5b	0.0036581967
22	0xbd15e6a0	-0.036596894
23	0xbd600479	-0.054691765
24	0x3d867e37	0.06567042
25	0x3c9c6094	0.01908902
26	0xbdb64e9e	-0.08901714
27	0x3dbb48d1	0.09144748
28	0xb8b8351f	-8.783698e-05
29	0x3d8e0947	0.06935363
30	0xbd4c2611	-0.04984099
31	0x3da16867	0.07881241
32	0xbda7ece2	-0.08199479
33	0xbc0f2485	-0.008736734
34	0x3c41808b	0.011810432
35	0xbd63cf13	-0.055617403
36	0x397fc394	0.00024391554
37	0x3d1c4ead	0.03816097
38	0xbc36f7bd	-0.011167464
39	0xbb6cce2d	-0.0036133633
40	0x3c6f1c19	0.014594101
41	0xbb8cf73a	-0.0043019326
42	0x3cc96f9c	0.024589352
43	0x3d74046c	0.05957453
44	0x3a8cf46a	0.0010753993
45	0x3a39fc97	0.0007094829
46	0xbd782c97	-0.0605894
47	0x3c07eb9e	0.008295922
48	0x3d3c67ef	0.045997556
49	0xbd4d14f8	-0.050068825
50	0x3d85f772	0.06541337
51	0x3d9a198a	0.075244024
52	0xbc1ca442	-0.0095606465
53	0x3cb071c8	0.02153863
54	0xb9422296	-0.00018514166
55	0xbd3acc3d	-0.045604933
56	0xbcc38960	-0.023869216
57	0x3da75815	0.08171097
58	0xbd406bc9	-0.046977792
59	0x3ce3e664	0.02781982
60	0xbc98481b	-0.01858907
61	0x3d7e5e39	0.062101576
62	0xbce470bb	-0.027885785
63	0xbd1aba5a	-0.037775375
64	0xbc9ac259	-0.0188915
65	0xbd017148	-0.031602174
66	0xbc5221c3	-0.012825432
67	0x3d638146	0.055543207
68	0xbd6cabe2	-0.057781108
69	0xbc674777	-0.01411616
70	0x3b864a1c	0.00409819
71	0x3cf36264	0.029710002
72	0x3d495a33	0.049158286
73	0xbd502921	-0.050820474
74	0xbc5842a7	-0.013199485
75	0x3c386534	0.011254597
76	0xbd174900	-0.036934853
77	0xbd5df037	-0.054184165
78	0x3cafe7b9	0.021472799
79	0xbbf9a787	-0.007618848
80	0xbda6d472	-0.081459895
81	0x3db174f6	0.08664887
82	0x3d3aeef8	0.045638055
83	0xbbbbbd16	-0.005729328
84	0xbd9de87c	-0.077103585
85	0xbc709ccd	-0.014685822
86	0x3cf5e16b	0.030014714
87	0x3da11c0b	0.07866677
88	0x3d89ee6b	0.06734928
89	0xbd56bb4f	-0.052424725
90	0xbca21d11	-0.01978925
91	0x3af11b83	0.001839504
92	0x3cc9cf5e	0.024635013
93	0x3d580c15	0.052745897
94	0x3b32880c	0.0027241735
95	0x3d8d05c9	0.06885869
96	0xbaf7e9a8	-0.001891424
97	0x3cd1d320	0.025613368
98	0xbd54ba49	-0.051935468
99	0x3ccf5a3a	0.025311578
100	0xbc3baaf0	-0.011454329
101	0x3c6cfe8b	0.014464985
102	0xbd9c34e2	-0.07627274
103	0xbd10c9fc	-0.035348877
104	0x3da40c3a	0.080101445
105	0x3cb0d701	0.021586897
106	0x3d8f1d02	0.06987955
107	0x3d9c77a2	0.07640006
108	0xbd1554d4	-0.03645785
109	0x3c8e8c96	0.017401021
110	0xbd6f8eea	-0.058485903
111	0xbda95797	-0.082686596
112	0x3be23fc2	0.006904573
113	0xbdb833a4	-0.08994225
114	0x3da846a5	0.082165994
115	0xbcd89630	-0.026438802
116	0x3db59d3e	0.08867882
117	0xbc2938a5	-0.0103284465
118	0x3d5d963d	0.054098357
119	0xbd5f7e72	-0.054563947
120	0x3d235757	0.039878216
121	0x3d3f3638	0.046682566
122	0x3cca5eac	0.024703346
123	0xbd33ed84	-0.043927684
124	0xbd4b32b3	-0.049608897
125	0x3dbeb2b5	0.093114294
126	0x3d876aca	0.06612165
127	0x3d235944	0.039880052
128	0xbd97fe02	-0.07421495
129	0x3d486501	0.04892445
130	0x3d877827	0.06614714
131	0x3d4c3099	0.049851034
132	0xbd9d305a	-0.07675238
133	0x3d915c7e	0.070977196
134	0x3db48503	0.088144325
135	0xbc5c1a11	-0.013433949
136	0xbdacbc9b	-0.08434411
137	0xbd612feb	-0.05497734
138	0xbd3d3f58	-0.046202987
139	0xbd8273eb	-0.06369766
140	0x3d8b5e40	0.06805086
141	0xbd8f6826	-0.070022866
142	0x3dd75c39	0.10515637
143	0xbc9513dc	-0.018197946
144	0x3c2c8474	0.010529626
145	0x3da0cee0	0.07851958
146	0x3d3642f2	0.044497438
147	0x3d4d9253	0.050188374
148	0xbda452f5	-0.08023635
149	0x3c5d0c29	0.013491669
150	0x3d8cc6ea	0.06873877
151	0x3d8aa3b2	0.06769504
152	0x3cfb24b1	0.030657144
153	0x3d0d6435	0.034519393
154	0xbd7e4ad4	-0.06208308
155	0x3d8dfb67	0.06932717
156	0xbd26f79d	-0.040763486
157	0xbd8c5b5d	-0.06853364
158	0x3d7da206	0.061922096
159	0xbd3e2d71	-0.046430055
160	0xbc873be7	-0.016508056
161	0x3d683e11	0.056699816
162	0x3dbbf1dc	0.091769904
163	0x3db8402b	0.08996614
164	0xbdb059b7	-0.08610862
165	0xbceb3040	-0.02870953
166	0x3b8bce63	0.0042665466
167	0xbd2461d0	-0.040132344
168	0xbd400dda	-0.04688821
169	0x3adff216	0.0017085697
170	0x3d501687	0.050802734
171	0xbcb3c7cf	-0.021945862
172	0xbd94eafb	-0.072713815
173	0xbd6b7fa9	-0.057494793
174	0x3db5da9a	0.088795856
175	0x3cd873be	0.026422378
176	0x3dadc16f	0.0848416
177	0xbdaf0200	-0.08545303
178	0x3d245d2f	0.04012793
179	0xbd74602a	-0.05966202
180	0x3d5f5db0	0.054532707
181	0xbc1984f8	-0.009370081
182	0x3ce2a6ec	0.027667485
183	0xbda10d3f	-0.078638546
184	0xbd99c39d	-0.075080134
185	0x3d9ad0bf	0.075593464
186	0x3d68ab76	0.056804143
187	0x3cba1f98	0.022720143
188	0x3c7a3fb7	0.01527398
189	0x3dcb9fa6	0.0994256
190	0x3d9522e4	0.072820455
191	0xbda3e4bd	-0.08002613
192	0xb9ab35bd	-0.000326557
193	0x3d32110e	0.043473296
194	0xbc212b94	-0.00983705
195	0xbb703f36	-0.003665877
196	0x3d244904	0.040108696
197	0xbd3fd986	-0.046838306
198	0x3d8f162d	0.069866516
199	0xbc33ae37	-0.010966829
200	0x3c29b573	0.010358202
201	0xbd38f4f2	-0.045155473
202	0xbd7b0b1a	-0.061289884
203	0x3d867560	0.06565356
204	0xbcf5dc10	-0.03001216
205	0xbd8d716c	-0.06906399
206	0x3d9fc450	0.078011155
207	0xbdad4efe	-0.08462332
208	0x3c4ccf83	0.0125006465
209	0x3d67fcad	0.056637455
210	0xbc8f8a30	-0.017521948
211	0x3d9e1523	0.07718875
212	0x3d91d972	0.071215525
213	0xbd0d0555	-0.034428913
214	0xbd071eb5	-0.03298827
215	0xbd73426f	-0.059389528
216	0x3d5d41cf	0.054017838
217	0xbc99822d	-0.01873883
218	0xbd45daf4	-0.048304513
219	0x3c4dff88	0.01257313
220	0xbda14fc2	-0.07876541
221	0x3d52352a	0.051320232
222	0xbce8e757	-0.028430624
223	0x3d8d0658	0.068859756
224	0xbb8c731d	-0.0042861835
225	0xbcdcd729	-0.026958065
226	0x3cdf562b	0.027262768
227	0xbd369015	-0.044571
228	0x3d7900ed	0.0607919
229	0xbd609d70	-0.054837644
230	0xbc4c777c	-0.012479659
231	0xbc7f4602	-0.015580656
232	0xbda7ddc7	-0.081965975
233	0xbd9058e8	-0.070482075
234	0x3ca701d9	0.020386623
235	0xbd4f2d48	-0.050580293
236	0xbd63ade6	-0.055585764
237	0xbd9bf44a	-0.07614954
238	0xbd498b82	-0.04920531
239	0x39c0c1ae	0.00036765396
240	0xbd33a974	-0.043862775
241	0x3d844293	0.064580105
242	0x3d9eacd7	0.0774781
243	0xbd17fb8c	-0.03710513
244	0xbd1709f0	-0.03687471
245	0x3a82e331	0.0009985921
246	0x3dc851b9	0.09781212
247	0xbd619765	-0.05507602
248	0xbd7fd124	-0.06245531
249	0xbc26d1c0	-0.010181844
250	0xbdb1f9b3	-0.086902045
251	0xbd6bdf40	-0.057585955
252	0xbcb7f814	-0.02245716
253	0xbbbb259d	-0.005711271
254	0x3db33401	0.08750153
255	0xbd5d8cca	-0.054089345

fc2.bias f4 [84]
0	0xbcf5081d	-0.029911095
1	0x3d36741a	0.044544317
2	0x3e2d0733	0.16897278
3	0xbba368ea	-0.004986872
4	0x3e45ccbb	0.1931638
5	0x3d9f5c36	0.0778126
6	0x3d704b27	0.05866542
7	0xbdacb943	-0.08433773
8	0x3d89b22c	0.06723437
9	0x3e5a4f49	0.21319307
10	0xbcb2158e	-0.021738794
11	0x3cb51d61	0.022108736
12	0x3b759477	0.0037472525
13	0xbdb5056e	-0.08838926
14	0xbb695f43	-0.003560976
15	0xbdd01da6	-0.10161905
16	0xbd9169a6	-0.07100229
17	0xbacc8d8e	-0.0015606151
18	0xbda64e41	-0.081203945
19	0x3cb35031	0.021888824
20	0xbcdc2603	-0.026873594
21	0x3a59793f	0.000829596
22	0x3d8f992e	0.070116386
23	0x3d861a06	0.06547932
24	0xbd4822d4	-0.04886134
25	0x3d43a6e0	0.047766566
26	0x3c3ed0c7	0.011646456
27	0xbdad4b57	-0.084616356
28	0x3e007c75	0.12547477
29	0xbd56546f	-0.052326616
30	0x3d973439	0.073830076
31	0xbd9d0efb	-0.07668873
32	0x3d580f32	0.052748866
33	0x3e17c840	0.14822483
34	0x3d992dd4	0.07479444
35	0x3d4fcd50	0.05073291
36	0xbb5b768b	-0.0033487405
37	0x3d22df71	0.03976387
38	0xbd068ee2	-0.032851107
39	0x3c422336	0.011849215
40	0x3d11439b	0.035464864
41	0xbdb51539	-0.088419385
42	0x3bfb6a11	0.007672556
43	0x3d91cb20	0.07118821
44	0x3dd8d796	0.10587995
45	0xbc20dccd	-0.009818268
46	0xbd1df28e	-0.038561396
47	0x3d972223	0.07379558
48	0xbdba584d	-0.09098873
49	0x3d3b8cc0	0.045788527
50	0xbd0d9683	-0.034567367
51	0xbd3d5b3d	-0.04622959
52	0x3d86dd1f	0.06585144
53	0x3d921767	0.0713337
54	0x3e11041e	0.14161727
55	0x3d8cfb28	0.06883842
56	0x3cee0036	0.029052835
57	0x3d8c79ce	0.0685917
58	0x3b56a768	0.003275359
59	0x3d8a3903	0.06749155
60	0xbd2b417b	-0.041810494
61	0x3c8f60ad	0.017502153
62	0x3d772afd	0.06034373
63	0xbda6c459	-0.08142919
64	0x3d9eae71	0.07748116
65	0x3dc41522	0.09574343
66	0x3d4c5b2b	0.049891632
67	0x3c8f5e5c	0.017501049
68	0x3d27a661	0.040930156
69	0xbcab3e54	-0.020903744
70	0x3dc2caf9	0.0951137
71	0xbd027189	-0.031846557
72	0xbd591d8f	-0.053006705
73	0xbbeb7509	-0.0071855825
74	0x3dcb5ae0	0.099294424
75	0xbda65c76	-0.08123104
76	0x3df1115b	0.117708884
77	0x3c24b661	0.010053248
78	0x3d57cde4	0.052686587
79	0xbdb2f543	-0.08738186
80	0xbda7ce2f	-0.08193623
81	0xbdb9ebff	-0.09078216
82	0xbb3cab05	-0.002878846
83	0xbd223828	-0.039604336

fc3.weight f4 [10, 84]
0	0x3d091b0e	0.033473067
1	0xbbbaca5d	-0.005700393
2	0x3eae2530	0.34012747
3	0xbd912604	-0.07087329
4	0x3e9221b8	0.2854135
5	0x3d7c604c	0.061615273
6	0xbc804e7a	-0.01566242
7	0xbd431574	-0.04762788
8	0x3e285f59	0.16442622
9	0x3ed8ad63	0.42319784
10	0x3d3a0799	0.045417402
11	0x3e93c491	0.28860906
12	0xbdee1488	-0.1162501
13	0x3dd63a48	0.10460335
14	0x3d550423	0.0520059
15	0xbcd2df8f	-0.025741367
16	0xba1b2453	-0.00059181935
17	0xbdb413b4	-0.087928206
18	0xbacabcda	-0.0015467659
19	0xbc64adfc	-0.013957497
20	0x3b3d0ecf	0.0028847938
21	0x3dc7e4af	0.09760415
22	0x3db6b2b6	0.08920805
23	0x3d9300ab	0.07177862
24	0xbb2e7430	-0.0026619546
25	0x3ead9eb6	0.3391015
26	0x3c9ac8ea	0.018894631
27	0x3d09ed1f	0.033673402
28	0x3e96d39b	0.29458317
29	0xbdb8f271	-0.09030617
30	0x3e791208	0.24323285
31	0x3d8f387f	0.06993198
32	0x3d7f132f	0.062274154
33	0x3e89e16f	0.26929805
34	0xbcf2365e	-0.02956694
35	0x3de337f7	0.11094659
36	0x3c7d9850	0.015478209
37	0xbd647328	-0.055773884
38	0xbd142e35	-0.03617688
39	0xbcda75ae	-0.026667442
40	0x3c345581	0.011006714
41	0xbdc57325	-0.09641103
42	0x3e99a364	0.3000747
43	0x3dc1f614	0.09470764
44	0x3e872f8e	0.2640347
45	0xbb1e45a6	-0.00241504
46	0x3b01a915	0.0019784619
47	0x3dc758fd	0.0973377
48	0x3cc0742d	0.023492897
49	0x3dcf0de7	0.101100735
50	0x3d3b5036	0.045730792
51	0xbd06f735	-0.0329506
52	0x3e5627b0	0.20913577
53	0xbc52d80c	-0.012868892
54	0x3ebe9099	0.37219694
55	0xbdc21e0b	-0.094783865
56	0x3da725ac	0.08161482
57	0x3ea658b0	0.32489538
58	0xbdcc631c	-0.09979841
59	0x3d761fd0	0.060088933
60	0xbd76df53	-0.060271572
61	0x3dc7a074	0.09747401
62	0xbd064651	-0.032781903
63	0x3da10ad3	0.07863393
64	0xbcd8de3b	-0.026473155
65	0xbc07051a	-0.008240962
66	0xbd5b8334	-0.053591922
67	0x3be7cdb3	0.007074082
68	0x3d0ae57d	0.033910263
69	0x3cc713c4	0.024301417
70	0x3e50ce37	0.20391165
71	0xbddd3f38	-0.10803074
72	0x3ba31cee	0.004977814
73	0xbd1c4e7f	-0.038160797
74	0xbd443a72	-0.0479073
75	0x3d97f38f	0.07419502
76	0x3ed634ed	0.41837254
77	0xb9a3246a	-0.00031116913
78	0xbc94b4ea	-0.018152673
79	0xbcbfb0d2	-0.023399744
80	0xbdc82f43	-0.097746395
81	0xbc256e19	-0.01009705
82	0xbdbf3559	-0.09336347
83	0xbd580e34	-0.05274792
84	0xbd09171d	-0.03346931
85	0x3dfcfa73	0.12352457
86	0x3cd62e73	0.026145196
87	0xbd5710ae	-0.05250614
88	0x3eab51aa	0.33460742
89	0x3e5e48b4	0.21707422
90	0x3e19f2d7	0.15034042
91	0xbd532e42	-0.051557787
92	0xbdd58dad	-0.10427413
93	0x3ec64ae6	0.38729018
94	0x3db89c4f	0.090141885
95	0x3de6ad4b	0.11263522
96	0x3d8ac009	0.06774909
97	0xbd38527e	-0.045000546
98	0xbd4b0995	-0.049569685
99	0x3c99381b	0.018703511
100	0x3d016edf	0.031599876
101	0xbdc63ddf	-0.0967977
102	0xbddcdf8e	-0.10784827
103	0xbc9e1f9b	-0.01930218
104	0xbd1facae	-0.03898304
105	0xbd471efd	-0.048613537
106	0xbd61b814	-0.05510719
107	0x3df81dbf	0.121150486
108	0x3c8ad70c	0.016948245
109	0x3d4cdcc7	0.050015237
110	0xbc9cfe6d	-0.019164288
111	0xbdadaabe	-0.08479832
112	0x3dae0b79	0.08498282
113	0xbdd2220e	-0.10260402
114	0xbbbc42b4	-0.0057452563
115	0xbd3f52eb	-0.046709936
116	0x3e1ab9a6	0.15109882
117	0x3c1ff6d4	0.009763438
118	0x3e8ca51e	0.27469724
119	0xbdf694a9	-0.120400734
120	0xbd435aed	-0.047694135
121	0xbd094410	-0.033512175
122	0xbdfd715d	-0.12375138
123	0xbdbcf890	-0.09227097
124	0x3e050dc7	0.12993537
125	0x3d299682	0.0414033
126	0x3e47bda1	0.19505931
127	0x3e58cf5d	0.21172853
128	0x3dd32831	0.103104
129	0xbd46737f	-0.04844999
130	0xbdba6e51	-0.091030724
131	0xbd433fba	-0.047668196
132	0xbdb841b6	-0.08996908
133	0xbd602921	-0.054726724
134	0xbd3d50e8	-0.046219736
135	0x3da5f828	0.08103973
136	0x3eeebd60	0.46628857
137	0x3e15c1f3	0.14624767
138	0x3ef74f1f	0.48302552
139	0x3d9a22a3	0.07526138
140	0xbd72a8b1	-0.059242908
141	0x3d572b88	0.05253175
142	0xba355f1d	-0.0006918775
143	0x3d98f8b7	0.074693136
144	0x3d236df9	0.0398998
145	0xbdda5b95	-0.10661999
146	0xbb5a0872	-0.0033269194
147	0x3cf2f42c	0.029657446
148	0x3da217ae	0.07914673
149	0x3db2ddf3	0.0873374
150	0x3d6a5809	0.057212863
151	0x3e15d95c	0.14633697
152	0x3e26f38b	0.16303842
153	0x3e4289db	0.189979
154	0x3e89eb76	0.26937455
155	0xbcd39069	-0.025825696
156	0xbdf70d4d	-0.12063084
157	0xbdb86c89	-0.090050764
158	0x3e4bb354	0.19892627
159	0xbdd89748	-0.105757296
160	0x3eace5dd	0.33769122
161	0xbd66f8ae	-0.056389503
162	0x3d3f7cac	0.046749756
163	0xbd20047b	-0.039066773
164	0x3d433ba3	0.047664296
165	0x3db12edc	0.08651516
166	0x3e5a505f	0.21319722
167	0xbd6a22ec	-0.05716221
168	0x3c71bd89	0.014754661
169	0xbdf30aa4	-0.11867264
170	0xbdff7b90	-0.124747396
171	0x3dadecd7	0.08492439
172	0xbdd56794	-0.104201466
173	0x3dab45cf	0.08362924
174	0xbdbf7b68	-0.0934971
175	0xbd8699af	-0.065722816
176	0x3bbef351	0.0058273454
177	0x3bf3028d	0.0074160756
178	0x3c2acae4	0.010424349
179	0xbc814cb6	-0.015783649
180	0xbd77a39e	-0.060458772
181	0x3d505130	0.050858676
182	0x3dc6afd2	0.09701504
183	0x3bd4914b	0.006487047
184	0xbd80b44a	-0.062843874
185	0x3dd657a8	0.10465938
186	0x3dc6dedf	0.09710478
187	0xbd1ecd88	-0.03877023
188	0x3dbd9d78	0.092585504
189	0xbc4c0565	-0.012452458
190	0x3c7913fe	0.01520252
191	0xbd4d19f1	-0.050073568
192	0x3dbe98a8	0.093064606
193	0x3d655c6c	0.055996343
194	0xbdc35acb	-0.09538802
195	0x3b0dc51e	0.0021632384
196	0xbcb20b86	-0.02173401
197	0xbd4efa60	-0.050531745
198	0x3b80ebfc	0.0039343815
199	0x3d6837de	0.056693904
200	0xbe007c99	-0.1254753
201	0xbc67e471	-0.014153586
202	0xbdef8a0e	-0.11696254
203	0x3dbce816	0.092239544
204	0xbbe5becf	-0.0070112715
205	0xbd906991	-0.07051385
206	0xbc08f570	-0.008359298
207	0xbd00f304	-0.031481758
208	0xbdec357a	-0.11533637
209	0x3d2c785a	0.042106964
210	0xbcc2ec65	-0.023794362
211	0x3d1bbb3a	0.03802035
212	0xbd03cbb6	-0.032176696
213	0x3cb4e02b	0.022079548
214	0xbcc4cf88	-0.02402474
215	0x3d180a68	0.0371193
216	0x3d849141	0.064730175
217	0xbd723027	-0.059127953
218	0x3d7e63b9	0.06210682
219	0xbd8af714	-0.06785408
220	0xbddc588f	-0.10759079
221	0xbc768957	-0.015047393
222	0xbdef378a	-0.11680515
223	0xbd4e8140	-0.05041623
224	0xbca7e89f	-0.020496665
225	0xbda13b25	-0.07872609
226	0x3d988b83	0.07448485
227	0xba00d3f9	-0.0004914399
228	0x3d399476	0.0453076
229	0xbd5d80c5	-0.054077882
230	0x3d8e1db1	0.06939257
231	0xbda9e78c	-0.08296117
232	0xbd9c8a63	-0.07643583
233	0x3d377ad7	0.044794884
234	0x3d839e36	0.06426661
235	0xbdbae166	-0.091250226
236	0xbde071d0	-0.10959208
237	0x3d1328ff	0.03592777
238	0xbdb0a46c	-0.08625111
239	0x3dd76496	0.10517232
240	0xbc1300a4	-0.008972321
241	0x3d3b89fc	0.04578589
242	0xbd2378ee	-0.03991025
243	0x3c1c8a20	0.009554416
244	0xbc423b47	-0.011854953
245	0x3d51c23e	0.051210634
246	0xbdce5956	-0.10075633
247	0x3b9cc6f6	0.00478446
248	0xbd46304d	-0.048385907
249	0x3dba8ed0	0.091092706
250	0xbce42e10	-0.027853996
251	0xbd157c5b	-0.036495548
252	0x3c538a9d	0.012911466
253	0xbd41f22a	-0.047350086
254	0xbe002722	-0.12514928
255	0x3c0cf823	0.008604082

fc3.bias f4 [10]
0	0x3f190aa8	0.59781885
1	0x3eaf8144	0.3427831
2	0xbe55e0f8	-0.208866
3	0xbe4b1139	-0.19830789
4	0xbdd27164	-0.10275534
5	0xbe36372e	-0.17794487
6	0xbc817875	-0.015804509
7	0xbdbf43e0	-0.09339118
8	0xbe332f4c	-0.17498511
9	0xbde56fae	-0.11202942
