masked_model.pth (torch, 251519 bytes, 10 tensors)

conv1.weight f4 [6, 3, 5, 5]
0	0x3ddbd478	0.107338846
1	0x3d5f8ec0	0.054579496
2	0x3d9a6414	0.0753862
3	0x3dbbbb85	0.09166626
4	0x3d354b23	0.04426111
5	0x3ce30d13	0.027716195
6	0xbc896baa	-0.016774971
7	0x3dbfde16	0.093685314
8	0x3de86d56	0.11348979
9	0x3da2b70e	0.07945071
10	0xbbad737d	-0.0052933083
11	0x3d81ae46	0.06332068
12	0x3c92adeb	0.017905196
13	0xbde96bb1	-0.11397494
14	0xbc0a83c1	-0.008454264
15	0xbe0723f6	-0.13197312
16	0xbe43377f	-0.19064139
17	0xbd2311b5	-0.03981181
18	0xbdb87754	-0.09007135
19	0xbe2e215e	-0.17004916
20	0xbdf290d0	-0.11844027
21	0xbe656903	-0.2240334
22	0xbd330f90	-0.043716013
23	0x3c02bdd4	0.007979829
24	0xbdbfa0d8	-0.093568504
25	0x3be9cb9e	0.0071348688
26	0x3decbff3	0.11560049
27	0xbd7d706d	-0.061874796
28	0x3dfbd54d	0.12296543
29	0x3ca04093	0.019562041
30	0xbd51170f	-0.05104738
31	0x3d3e6184	0.046479717
32	0x3d45dc16	0.048305593
33	0x3d579d9f	0.052640554
34	0x3ddbbae3	0.10729005
35	0xbd4aaa8b	-0.04947905
36	0x3d794ae6	0.060862444
37	0x3ca196b7	0.019725187
38	0x3d7154f4	0.05891891
39	0x3dca9e14	0.09893432
40	0xbcc85feb	-0.0244598
41	0xbcd110cd	-0.025520707
42	0x3e49dbfd	0.19712825
43	0x3e02e45f	0.12782429
44	0x3d5c5043	0.05378748
45	0x3c8ae946	0.016956937
46	0x3dc1e49c	0.09467432
47	0x3d95abdf	0.073081724
48	0x3e30019c	0.17188114
49	0x3dafa950	0.08577216
50	0x3d27997e	0.040917866
51	0xbd1cd62e	-0.038290195
52	0x3d980057	0.0742194
53	0xbd89decb	-0.067319475
54	0x3dade754	0.08491388
55	0x3d0304b8	0.031986922
56	0x3e1de17f	0.15418051
57	0x3e436335	0.19080813
58	0x3b3cc52a	0.0028804042
59	0x3e026a55	0.12735875
60	0x3de23984	0.110461265
61	0x3d4f9a4c	0.05068426
62	0x3e78eeae	0.24309799
63	0x3e106609	0.14101423
64	0x3e618594	0.22023612
65	0xbd3128d1	-0.043251816
66	0x3d8c3e5c	0.068478316
67	0x3db2c986	0.08729844
68	0x3dad1048	0.08450371
69	0x3e063d36	0.13109288
70	0xbd2d523a	-0.042314745
71	0xbbfea793	-0.0077714412
72	0x3da10e04	0.078640014
73	0x3d8e9dd7	0.06963699
74	0x3e134a31	0.1438377
75	0xbda0050f	-0.07813465
76	0xbd2eb9e8	-0.042657763
77	0x3d90bb0d	0.07066927
78	0x3e1073a3	0.14106612
79	0x3dc3c161	0.095583685
80	0x3ce844c8	0.02835311
81	0xbdc233dd	-0.094825484
82	0xbd3a0e19	-0.0454236
83	0xbb46d38d	-0.0030338496
84	0x3e289d92	0.16466358
85	0x3dc41a85	0.09575371
86	0x3d164066	0.03668251
87	0x3e38c049	0.18042101
88	0x3dd78969	0.10524256
89	0x3e4c985a	0.19979993
90	0x3dba4905	0.090959586
91	0x3de11df1	0.10992039
92	0x3e5406ad	0.20705672
93	0x3e723f64	0.23656994
94	0x3e8a481b	0.27008137
95	0x3bc7c76d	0.0060967715
96	0x3e189262	0.1489959
97	0xbd2247c0	-0.039619207
98	0x3bd3ae92	0.0064600194
99	0x3d9032c0	0.0704093
100	0xbdffc272	-0.124882594
101	0xbe12aeb5	-0.14324458
102	0xbdea652b	-0.114450775
103	0xbc893565	-0.016749093
104	0xbe107f4c	-0.1411106
105	0xbe1ddb36	-0.15415654
106	0xbe8a0577	-0.26957294
107	0xbe838861	-0.25689986
108	0xbe3cc85f	-0.1843581
109	0xbd05075a	-0.032477714
110	0x3c38abc2	0.011271419
111	0xbdaa6fc3	-0.08322098
112	0xbd84c131	-0.06482161
113	0xbdf48f03	-0.1194134
114	0x3d39ce2a	0.04536263
115	0xbdc8fe5f	-0.098141424
116	0x3cef6263	0.02922172
117	0x3da1cc7d	0.07900331
118	0xbc2676f5	-0.0101601975
119	0x3c6e57e6	0.014547324
120	0xbdbcf8cf	-0.09227144
121	0xbd46ec2b	-0.04856507
122	0xbdd45b56	-0.103689834
123	0x3d073698	0.03301105
124	0x3c0a34bd	0.008435425
125	0xbd32ac63	-0.043621432
126	0xbd4e06a5	-0.050299305
127	0xbcd779c1	-0.026303174
128	0x3c8add8c	0.016951345
129	0xbe05ab74	-0.13053685
130	0xbe70e594	-0.23525077
131	0xbe7bda97	-0.24595104
132	0xbe598def	-0.2124555
133	0xbd1d494d	-0.038399983
134	0xbdbbe735	-0.091749586
135	0x3c11bd48	0.008895226
136	0xbbea1afd	-0.0071443305
137	0xbd9b0945	-0.075701274
138	0x3c43f54c	0.011960339
139	0x3d2eeb82	0.042705067
140	0xbc59b0e9	-0.013286808
141	0xbd9e0d28	-0.07717353
142	0xbd993e91	-0.07482637
143	0x3d7f4d57	0.062329616
144	0xbd001577	-0.03127047
145	0x3d2ba86f	0.041908678
146	0x3db9e21b	0.09076329
147	0x3dde5d33	0.1085762
148	0x3deafed5	0.114743866
149	0x3dad2fa8	0.08456355
150	0x3e374fcd	0.17901535
151	0x3e54fa55	0.20798619
152	0x3e65211b	0.2237591
153	0x3e0fbf18	0.1403774
154	0x3e141a23	0.14463095
155	0x3e6f6a0c	0.23380297
156	0x3e81fe8c	0.25389516
157	0x3e89eddf	0.26939294
158	0x3e59e550	0.21278882
159	0x3e4b9137	0.19879614
160	0x3de41225	0.11136273
161	0x3e8bf80e	0.27337688
162	0x3e0b9679	0.1363162
163	0x3e3e6c57	0.18596016
164	0x3e2c13f6	0.1680449
165	0x3d79565b	0.06087337
166	0x3dade5c0	0.08491087
167	0x3c94c3ff	0.018159864
168	0xbda8fcb4	-0.08251324
169	0x3bb06762	0.005383418
170	0xbe0cd078	-0.137514
171	0xbdeea210	-0.11652005
172	0xbe12f8d5	-0.14352734
173	0xbe019820	-0.12655687
174	0xbd4cd626	-0.050008915
175	0xbb7eb52e	-0.0038865316
176	0xbd6cec5b	-0.057842594
177	0x3d680a43	0.05665041
178	0xbd910026	-0.070801064
179	0xbe0054be	-0.12532327
180	0xbd75618f	-0.059907492
181	0xbd4f9024	-0.050674573
182	0x3c81e2b4	0.01585517
183	0xbd339c3e	-0.043850176
184	0xbd8abe6d	-0.06774602
185	0x3b714915	0.0036817242
186	0x3da124b9	0.078683324
187	0x3d84ee53	0.06490769
188	0x3e2ad09a	0.16681138
189	0xbd526617	-0.05136689
190	0xbd121b22	-0.035670407
191	0x3cd1aeed	0.025596106
192	0x3e26a5c8	0.16274178
193	0x3e2693aa	0.16267267
194	0x3d8321a4	0.06402901
195	0xbdd5be0a	-0.10436638
196	0xbde36170	-0.11102569
197	0x3db45490	0.088051915
198	0xbd8ed306	-0.06973843
199	0xbde83ee8	-0.113401234
200	0xbe42bd08	-0.19017422
201	0xbcfe4ae6	-0.031041574
202	0xbd92dd30	-0.071710944
203	0xbd8018a1	-0.062546976
204	0xbe62fb4a	-0.22166172
205	0xbd886243	-0.06659367
206	0x3da31888	0.07963663
207	0x3ce9a22d	0.028519714
208	0xbd93df1d	-0.0722029
209	0xbd18853d	-0.03723644
210	0x3d2ab3e9	0.041675482
211	0x3d08f313	0.03343494
212	0x3e1c13b6	0.15241894
213	0xbaa40eeb	-0.0012516653
214	0x3cb5e842	0.022205476
215	0x3dd0771e	0.1017897
216	0x3db75036	0.08950846
217	0xbb4c861f	-0.0031207872
218	0xbd2bcb80	-0.04194212
219	0x3ca08577	0.019594891
220	0xbd9c5d99	-0.0763504
221	0x3e0b9c93	0.13633947
222	0x3e01ca5f	0.12674855
223	0xbc901363	-0.01758737
224	0xbd55d91f	-0.052209016
225	0xbe4f554a	-0.20247379
226	0xbd099cf6	-0.033596955
227	0xbd7117a8	-0.05886045
228	0xbe1f4eb0	-0.1555736
229	0xbea50572	-0.32230717
230	0xbdfeab3e	-0.124350056
231	0xbe06eb51	-0.13175704
232	0xbe74838c	-0.23878306
233	0x3d0a21a6	0.033723496
234	0xbd874f66	-0.06606941
235	0xbe08fe56	-0.13378271
236	0x3d6fb51f	0.05852234
237	0xbe18703c	-0.14886564
238	0xbc7cc61f	-0.015428095
239	0xbd6ff091	-0.05857903
240	0xbddd2065	-0.107971944
241	0x3dcabab8	0.09898895
242	0xbda69272	-0.08133401
243	0x3c18bc47	0.009322233
244	0xbe21be55	-0.15795262
245	0x3d71018d	0.05883937
246	0xbcb7e926	-0.022450041
247	0xbc0db31a	-0.008648658
248	0xbb0caa21	-0.002146371
249	0x3d86e1ba	0.06586023
250	0x3dacf4ea	0.08445151
251	0x3ec1cc3d	0.37851134
252	0x3eb9ed8f	0.36314055
253	0x3e1af859	0.151338
254	0xbc34961a	-0.011022115
255	0x3e398812	0.18118313

conv1.bias f4 [6]
0	0xbd98d07c	-0.0746164
1	0x3cd29da6	0.025709938
2	0xbe4be66b	-0.19912116
3	0x3e9352e4	0.28774178
4	0x3e573935	0.21017917
5	0x3e08d38d	0.1336195

conv2.weight f4 [16, 6, 5, 5]
0	0xbdd84f11	-0.10561956
1	0xbab89abf	-0.0014084204
2	0x3ccba46f	0.024858681
3	0xbd93f9ab	-0.07225355
4	0xbd29f0d5	-0.04148944
5	0x3d08ba1c	0.033380613
6	0xbdc5941d	-0.09647391
7	0x3c0f6533	0.008752155
8	0xbc82afd2	-0.015952978
9	0xbd50139f	-0.050799962
10	0x3d0e96b2	0.034811683
11	0xbd9c9bd9	-0.07646913
12	0xbd2f2a61	-0.042765025
13	0xbcd49436	-0.025949579
14	0x3ca8af7b	0.020591488
15	0x3db877aa	0.09007199
16	0x3c8230a6	0.015892338
17	0xbd098095	-0.03356989
18	0xbe04e439	-0.12977685
19	0xbd94ea1f	-0.072712176
20	0x3cede2a9	0.029038744
21	0xbd216bf1	-0.03940958
22	0xbd31733c	-0.043322787
23	0xbd3b5b5c	-0.045741424
24	0x3cc5aa97	0.024129195
25	0xbc509ef5	-0.012733211
26	0xbdb94e53	-0.09048142
27	0xbc377c53	-0.011199075
28	0xbcb0d63e	-0.021586534
29	0x3d0add86	0.033902667
30	0xbcfe892d	-0.03107127
31	0xbbc5ede7	-0.006040323
32	0xbd24b81e	-0.04021465
33	0x3c2af3d4	0.01043411
34	0xbda423cd	-0.08014641
35	0xbcbc4640	-0.022982717
36	0xbd6432a8	-0.055712372
37	0x3c8bbc4f	0.017057566
38	0x3c7aad4e	0.015300108
39	0xbd17e91c	-0.037087545
40	0x3cd1e195	0.025620261
41	0x3cdca65f	0.0269348
42	0xbd92cdc3	-0.07168152
43	0xbbad1e02	-0.005283118
44	0xbcb07442	-0.021539811
45	0xbd28fa4e	-0.041254334
46	0x3da2d72b	0.07951196
47	0x3e0864d6	0.13319716
48	0x3c55714d	0.013027501
49	0x3e2a3e91	0.1662543
50	0xbcfe56f7	-0.031047327
51	0xbd96eec2	-0.07369758
52	0xbcaf0fe1	-0.021369876
53	0x3d2b4c57	0.04182085
54	0x3a3c7d1d	0.0007190274
55	0x3cdcb7b3	0.026943063
56	0x3c6c7033	0.014431047
57	0xbc8b2da2	-0.016989533
58	0x3d33715d	0.043809284
59	0xbcada455	-0.021196524
60	0xbca951cc	-0.020668887
61	0xbd44e5a3	-0.04807056
62	0xbd49355f	-0.049123164
63	0xbd8f7263	-0.070042394
64	0xbd65630f	-0.056002673
65	0x3de88cdb	0.11354991
66	0xbb9cda9e	-0.0047868034
67	0x3d6f811a	0.05847273
68	0x3d54b277	0.05192801
69	0x3b62c565	0.003460252
70	0x3c276df1	0.010219083
71	0x3de716f3	0.11283674
72	0x3cee273b	0.02907144
73	0x3c9c9e76	0.019118529
74	0x3c1860cd	0.009300423
75	0xbda2e43b	-0.07953688
76	0x3aa85622	0.0012843052
77	0xbdd41235	-0.10355035
78	0xbcbb87f8	-0.022891983
79	0xbc052d07	-0.008128411
80	0xbd1294ab	-0.035786312
81	0xbce6c753	-0.028171217
82	0xbdbdda5c	-0.09270164
83	0xbd9877ed	-0.07444749
84	0xbcc3161b	-0.023814252
85	0x3d7305b0	0.059331596
86	0x3d13d42b	0.03609101
87	0xbdaa70cf	-0.08322298
88	0x3d3ec3d5	0.04657348
89	0xbd05aa00	-0.032632828
90	0x3cb0bae9	0.0215735
91	0xbca81dcf	-0.020522026
92	0xbd5eaf5e	-0.054366462
93	0x3d7cd96a	0.06173078
94	0xbdb6119a	-0.08890076
95	0x3c3a45ab	0.011369149
96	0xbd572d3f	-0.052533384
97	0xbd2a607a	-0.041595913
98	0x3cc34761	0.023837747
99	0xbdcaa2fa	-0.098943666
100	0x3ba9bc63	0.005179928
101	0xbcc1109a	-0.023567487
102	0xbd4c5902	-0.049889572
103	0xbc574224	-0.013138328
104	0x3d88a406	0.0667191
105	0xbd6af795	-0.05736502
106	0xbde539ca	-0.11192663
107	0x3c13984a	0.0090084765
108	0xbd852261	-0.06500698
109	0x3d4384a5	0.04773392
110	0x3d871888	0.06596476
111	0xbd1e93b1	-0.03871507
112	0x3c05da39	0.008169704
113	0x3a64405e	0.0008707101
114	0x3d211660	0.03932798
115	0xbd401396	-0.04689368
116	0x3cad986f	0.02119085
117	0xbdb5aa1f	-0.08870339
118	0x3d109459	0.035297725
119	0xbd13fc9d	-0.036129583
120	0x3d95f0bb	0.07321306
121	0x3dd870d3	0.105683945
122	0xbbc6804f	-0.006057776
123	0xbcee5dcd	-0.029097462
124	0x3d7bbe83	0.061460983
125	0xbcafc77b	-0.021457424
126	0x3e017321	0.12641574
127	0xbca169b3	-0.019703722
128	0x3db330cd	0.087495424
129	0x3dc664b2	0.09687175
130	0x3d29ded6	0.04147228
131	0x3de314de	0.110879645
132	0xbc6b53ca	-0.014363239
133	0xbb4692a0	-0.0030299798
134	0x3b7cecd7	0.0038593316
135	0x3d05df67	0.032683756
136	0x3dd090ec	0.10183892
137	0x3d9dd4b5	0.07706586
138	0x3d9098ff	0.07060432
139	0x3d77d965	0.060510058
140	0xbd6611be	-0.056169264
141	0xbd1b1e07	-0.037870433
142	0x3d8ec944	0.06971982
143	0x3d2a7916	0.041619383
144	0xbc6cd67f	-0.014455437
145	0x3d6c3dda	0.057676174
146	0xbdbdad21	-0.09261537
147	0x3d00feb5	0.031492908
148	0x3d979cb7	0.07402938
149	0xbd3651ef	-0.04451173
150	0xbe04ae55	-0.12957127
151	0xbddf61cb	-0.109073244
152	0xbdaeee75	-0.08541576
153	0x3dfdc3e8	0.12390882
154	0x3e6b6b49	0.22990145
155	0xbe2ae753	-0.16689806
156	0xbe53eb89	-0.20695318
157	0xbe20d678	-0.15706813
158	0xbcfeb77d	-0.031093353
159	0x3e0491d7	0.12946258
160	0xbe023ec9	-0.12719263
161	0xbdc7c2ec	-0.09753975
162	0xbc704743	-0.014665428
163	0xbdc4c139	-0.09607167
164	0x3e0bed79	0.13664807
165	0xbd80950e	-0.0627843
166	0x3ccc6e54	0.024954952
167	0xbb3fc635	-0.0029262428
168	0x3d8de88f	0.06929123
169	0x3dffc348	0.12488419
170	0x3d355312	0.044268675
171	0x3cb010cd	0.021492386
172	0xbd2f1d6f	-0.04275268
173	0x3c925c4a	0.017866272
174	0x3ddeda09	0.10881431
175	0x3c871288	0.016488329
176	0x3c6d416f	0.014480933
177	0x3d823dea	0.063594654
178	0xbdc0b189	-0.09408862
179	0xbe147b57	-0.14500175
180	0x3df6dade	0.12053464
181	0x3d9c01b2	0.07617511
182	0x3d773e0a	0.0603619
183	0x3d7498e6	0.059716128
184	0x3d0acabb	0.033884745
185	0x3dfe0325	0.124029435
186	0x3dc13d1a	0.09435482
187	0xbc348e9c	-0.011020329
188	0x3d80b2a5	0.06284074
189	0x3d9fdd39	0.07805867
190	0x3dc74cf8	0.097314775
191	0xbd89509f	-0.067048304
192	0xbb9fdaf8	-0.004878398
193	0xbbb959d1	-0.005656459
194	0xbdd2531f	-0.1026976
195	0xbe034917	-0.1282085
196	0xbe1dc148	-0.15405762
197	0xbdc0c3f5	-0.09412376
198	0xbe0d8af6	-0.1382254
199	0xbe0816a5	-0.13289888
200	0xbe264721	-0.16238071
201	0xbda8a8b2	-0.08235301
202	0xbd767e70	-0.060179174
203	0x3d477569	0.048695955
204	0x3dc94112	0.09826864
205	0xbe26b9a5	-0.16281755
206	0xbe3c8743	-0.18410973
207	0xbe3af9a5	-0.18259294
208	0xbe06344b	-0.13105886
209	0x3d8af214	0.06784454
210	0xbd11ae54	-0.035566643
211	0x3db66b03	0.089071296
212	0x3d3a138d	0.0454288
213	0xbda53f22	-0.08068682
214	0x3dcc9f20	0.09991288
215	0x3e28713f	0.1644945
216	0x3dd14cfd	0.102197625
217	0x3d01726b	0.031603258
218	0xbda10271	-0.07861794
219	0x3d40fea8	0.04711786
220	0xbba10873	-0.0049143373
221	0x3de73bef	0.11290728
222	0xbd14c230	-0.036318004
223	0xbd9ee763	-0.07758977
224	0x3bbe05d9	0.005799037
225	0xbd9f6556	-0.07783
226	0xbd6d49ea	-0.057931818
227	0xbabc2703	-0.0014354888
228	0x3c7bc09c	0.015365746
229	0xbae8a8ba	-0.001775048
230	0xbdf0e778	-0.11762899
231	0xbe023df4	-0.12718946
232	0xbdd2c42b	-0.10291322
233	0xbd566eac	-0.05235164
234	0x3cc5a39e	0.02412587
235	0xbe07dcaa	-0.1326777
236	0xbda60fba	-0.08108468
237	0xbddeb5a7	-0.10874491
238	0xbd834ca5	-0.06411103
239	0xbcaa65b8	-0.020800456
240	0xbdc7f243	-0.09763005
241	0xbe0a3195	-0.13495477
242	0xbdc994e4	-0.09842852
243	0x3d184d57	0.037183132
244	0x3cf9174e	0.03040662
245	0xbd4e2dd3	-0.05033667
246	0x3d1f2a6f	0.038858827
247	0x3cb2e4bc	0.021837585
248	0x3cf602e4	0.030030675
249	0x3d9a7583	0.07541945
250	0x3c0a6599	0.008447074
251	0xbdbe0a0c	-0.0927926
252	0xbd983737	-0.074324064
253	0xbda1e75e	-0.07905458
254	0xbc9f333c	-0.01943361
255	0x3dce1ed3	0.10064473

conv2.bias f4 [16]
0	0x3d89aa89	0.0672198
1	0x3dd05318	0.10172099
2	0x3dd1c615	0.10242859
3	0x3c7aaf95	0.015300651
4	0x3da49b06	0.08037381
5	0x3e52ee21	0.20598651
6	0x3ddc1d2c	0.107477516
7	0xbd6fbeb4	-0.058531478
8	0x3cb46322	0.022019926
9	0x3cee0be1	0.029058399
10	0x3cbb9c3a	0.022901643
11	0xbd1dd948	-0.038537294
12	0x3dafc3e4	0.08582285
13	0x3e8c6869	0.2742341
14	0x3d9d3ea8	0.07677966
15	0xbd9c8850	-0.07643187

fc1.weight f4 [120, 400]
0	0x3ca2b91d	0.01986366
1	0x3be9624b	0.007122313
2	0xbbe173d0	-0.006880261
3	0xbcacda56	-0.021100204
4	0xbb9e060a	-0.0048224973
5	0xbc83c7e0	-0.016086519
6	0xbd29e4ef	-0.041478094
7	0x3c1476ba	0.00906151
8	0x3cbe74dd	0.023249084
9	0xbd3142fe	-0.04327678
10	0xbcc0136a	-0.023446757
11	0x3d5e2ce1	0.05424202
12	0x3d293e92	0.041319437
13	0x3c40313c	0.011730488
14	0x3cff871d	0.031192357
15	0xbbf7a082	-0.007556976
16	0xbc599f46	-0.013282603
17	0x3d560c72	0.052257963
18	0x3cdf1129	0.027229862
19	0x3cd7a057	0.026321573
20	0x3c850e6b	0.016242227
21	0x3d7c19b6	0.061547957
22	0xbcf94b5c	-0.030431442
23	0x3d228f94	0.039687708
24	0x3b0f6d1a	0.0021885098
25	0xbbd13e55	-0.0063856044
26	0xba87bcbd	-0.0010355931
27	0x3d923daf	0.071406715
28	0x3d5bfad0	0.05370599
29	0x3d81fa5f	0.063465826
30	0xbd0a8c47	-0.033825185
31	0xbc96e9dd	-0.018422062
32	0x3d4eabfc	0.050456986
33	0x3d074a1c	0.03302966
34	0xbc5f49ae	-0.013628406
35	0xbc51957c	-0.0127919875
36	0x3cf8ab4e	0.030355122
37	0xbc25dc65	-0.010123347
38	0xbbc6c1a6	-0.006065565
39	0x3c18952a	0.009312907
40	0xbcec4d13	-0.028845346
41	0x3c883c95	0.01663045
42	0xbc8c64c8	-0.0171379
43	0x3d2abd02	0.04168416
44	0xbb726be4	-0.0036990577
45	0xbc85858e	-0.016299035
46	0x3ca90cb0	0.020635933
47	0x3d379e47	0.04482868
48	0x3d4a3f3f	0.049376722
49	0xbc6cff72	-0.0144652
50	0x3d23d2f8	0.039996117
51	0xbcc61333	-0.024179077
52	0x3d42e03d	0.04757713
53	0xbce1039c	-0.027467541
54	0xbd6fe962	-0.05857218
55	0x3d1bf6f6	0.038077317
56	0xbc814fc9	-0.015785115
57	0x3d3922fd	0.045199383
58	0xbcce8554	-0.02521006
59	0x3bfd8a63	0.0077374442
60	0x3d43ef28	0.0478355
61	0xbc35fd0e	-0.011107696
62	0x3d3fecac	0.046856567
63	0x3d16d026	0.0368196
64	0x3c464188	0.012100585
65	0x3ce1f262	0.027581397
66	0x3d6fb71a	0.05852423
67	0x3d4cf23f	0.05003571
68	0x3d021a18	0.031763166
69	0x3c95e180	0.018296003
70	0x3bfae9a0	0.007657245
71	0x3d265dcc	0.040616795
72	0x3d0d4850	0.03449279
73	0x3d12b968	0.03582135
74	0x3d328ceb	0.04359142
75	0x3ce316f4	0.027720906
76	0xbbfef711	-0.0077809175
77	0xbc41c720	-0.01182726
78	0xbc8f9c69	-0.017530637
79	0x3d4d7ab3	0.050165843
80	0x3c0d57f9	0.008626931
81	0x3b896a3c	0.0041935723
82	0xbd43ba6b	-0.047785204
83	0xbccf15b1	-0.025278898
84	0x3cfd456b	0.03091689
85	0x3c513e76	0.0127712395
86	0xbc71d3a9	-0.014759936
87	0x3cbb0261	0.022828283
88	0x3d461818	0.04836282
89	0x3d7b75b5	0.06139155
90	0x3c2e416b	0.010635714
91	0xbcccae82	-0.024985556
92	0xbd517e1a	-0.05114565
93	0x3ce0ec22	0.027456347
94	0x3d2b1d62	0.04177607
95	0xbd093f7c	-0.03350781
96	0x3cc54a26	0.024083208
97	0x3bfe27a1	0.007756189
98	0xbd2a1723	-0.04152597
99	0x3c8daf2a	0.017295439
100	0x3c1679f8	0.009184353
101	0x3d182c2c	0.0371515
102	0x3ccfa927	0.025349213
103	0xbce80168	-0.028320983
104	0xbce9a260	-0.02851981
105	0x3ceea7ef	0.029132811
106	0x3d1d9eef	0.03848165
107	0xbc3e70e9	-0.0116236
108	0x3c5b8072	0.013397323
109	0xbd2a9501	-0.041646007
110	0x3d60e2c2	0.054903753
111	0x3d36de9f	0.0446459
112	0x3b0e5b3d	0.0021721863
113	0x3d243688	0.040091068
114	0x3d595d50	0.053067505
115	0x3d0dab58	0.034587234
116	0x3be8ecf0	0.0071083233
117	0xbbe18208	-0.006881956
118	0x3d02f316	0.031970106
119	0xbceb5376	-0.02872632
120	0x3bacea35	0.005276943
121	0xbd65edd6	-0.05613502
122	0x3caac4e3	0.020845836
123	0xbd57cb85	-0.052684326
124	0xbd0bf6b3	-0.034170818
125	0xbbe2df9a	-0.006923628
126	0xbbeb43af	-0.0071796994
127	0xbd7e5b2f	-0.06209868
128	0xbce8ae93	-0.028403556
129	0xbbb7a1c3	-0.0056040003
130	0xbbeb6ea9	-0.0071848226
131	0xbd1c0cdb	-0.038098197
132	0xbbcc7ea8	-0.0062406845
133	0xbc5b2d57	-0.013377509
134	0xbd1b6400	-0.037937164
135	0x3d1761b5	0.036958415
136	0x3c341586	0.01099146
137	0x3d455893	0.048180174
138	0xbcc87eca	-0.02447452
139	0xbc683e2f	-0.014174982
140	0x3b606694	0.0034240829
141	0x3d842ab9	0.06453461
142	0xba85781f	-0.0010182894
143	0xbb1e34e0	-0.0024140403
144	0xbcd3a5a5	-0.025835821
145	0xbd3318f5	-0.043724973
146	0x3ccad450	0.024759442
147	0x3ceba02f	0.028762905
148	0xbd6cc9d3	-0.057809662
149	0x3d1d42fa	0.038393952
150	0x3d042211	0.03225905
151	0xbd129241	-0.03578401
152	0x3d1d7fe5	0.038452048
153	0x3ca6633d	0.020310992
154	0x3cc173fa	0.023614872
155	0xbc951235	-0.018197158
156	0x3d22eb93	0.039775442
157	0x3c2702ac	0.010193508
158	0x3ca95cf9	0.020674216
159	0xbd10cf4b	-0.03535394
160	0xbd42ef45	-0.047591466
161	0x3c921fee	0.01783749
162	0x3cb14e8a	0.021643896
163	0x3d33e53e	0.043919794
164	0x3d2e3d3b	0.042538863
165	0x3d01dda5	0.031705517
166	0x3c705603	0.014668944
167	0xbbcc2cc2	-0.0062309215
168	0xbc8fc00d	-0.017547632
169	0x3c2d4b38	0.010577016
170	0x3c91e8fd	0.017811293
171	0x3a134025	0.0005617163
172	0xbbdaba2d	-0.006675026
173	0x3cd81b5f	0.026380239
174	0x3d27bde1	0.040952567
175	0xbd595b47	-0.053065564
176	0xbd879d59	-0.066218086
177	0xbd793ee2	-0.060850985
178	0x3c529149	0.0128520215
179	0x3c390c2c	0.011294406
180	0xbd7ebdd8	-0.062192768
181	0x3cece2fe	0.028916832
182	0x3cf6e307	0.030137552
183	0xbc51db22	-0.012808593
184	0xbd3f78ea	-0.046746172
185	0x3d00147f	0.031269547
186	0x3d83d652	0.06437363
187	0xbba33cec	-0.0049816277
188	0x3d2165f4	0.03940387
189	0x3cab65d0	0.020922571
190	0xbd26c6ce	-0.04071694
191	0x3cbf0252	0.023316536
192	0xbb433d59	-0.0029791205
193	0x3d2fae25	0.042890687
194	0x3a7753a9	0.00094347686
195	0x3d86eeb8	0.06588501
196	0x3ca1434c	0.01968541
197	0xbcb4a274	-0.02205012
198	0xbc71baf1	-0.014754043
199	0xbce5cf8f	-0.028053073
200	0xbcd33ede	-0.025786813
201	0x3d1e6801	0.038673405
202	0xbc31a31c	-0.010842111
203	0x3d3a407b	0.04547165
204	0x3d8142a2	0.06311537
205	0xbd365599	-0.044515226
206	0xbcd0c125	-0.025482723
207	0xbc22300d	-0.0098991515
208	0xbcf6089d	-0.030033404
209	0x3d06f984	0.0329528
210	0x3c847942	0.016171101
211	0x3cf8032e	0.030274954
212	0x3d469a07	0.048486736
213	0x3b5de143	0.003385619
214	0xbd1b5e9a	-0.037932016
215	0x3d17adba	0.037030913
216	0x3d7f5308	0.062335044
217	0xbd151e4d	-0.03640585
218	0x3d7870d2	0.06065447
219	0xbd3d85ce	-0.046270184
220	0x3d4e43f8	0.05035779
221	0x3d1fc36d	0.039004732
222	0xbd31a163	-0.0433668
223	0x3d860b5b	0.06545135
224	0xbcc9a3f6	-0.024614315
225	0x3d1caf2f	0.038253006
226	0xbc3f602a	-0.011680642
227	0x3b9810cf	0.0046406756
228	0x3ce87169	0.02837439
229	0x3d7ce439	0.061741088
230	0x3d2b6b26	0.04185023
231	0x3c282bf6	0.010264387
232	0xbca60c13	-0.02026943
233	0x3cd82d40	0.026388764
234	0xbd0b1b6d	-0.033961702
235	0x3b7a194e	0.0038162055
236	0x3c494add	0.012285915
237	0x3c8460eb	0.016159495
238	0xbd31bf81	-0.043395523
239	0x3bcec224	0.0063097645
240	0x3baff783	0.005370082
241	0xbbdc7d63	-0.0067288144
242	0x3c6a0947	0.014284438
243	0x3ce0e3ba	0.027452338
244	0xb90e6854	-0.0001358104
245	0x3aef5bcf	0.0018261614
246	0x3c6c4498	0.014420651
247	0x3b8fc6ac	0.004387697
248	0x3d159b05	0.03652479
249	0xbcc4927c	-0.02399563
250	0x3cc7bffb	0.024383536
251	0xbd1e15bc	-0.038594946
252	0xbd3f0af3	-0.0466413
253	0xbceae0f1	-0.028671714
254	0x3d07eff8	0.033187836
255	0x3ad35a29	0.0016124892

fc1.bias f4 [120]
0	0xbb63224c	-0.0034657894
1	0x3cfd3161	0.030907335
2	0x3c10b13c	0.0088313185
3	0x3cc5dfec	0.024154626
4	0xbbe6e88e	-0.0070467656
5	0xbd462fe6	-0.048385523
6	0xbc4bee5e	-0.012446968
7	0xbcf7fd06	-0.030272018
8	0x3d1cb14a	0.038255014
9	0xbd21d350	-0.039508164
10	0x3cb29299	0.021798419
11	0xbcbc8621	-0.023013176
12	0xbcc52678	-0.024066195
13	0x3cc8aafc	0.024495594
14	0xbd131ea4	-0.035917893
15	0x3cf8ced8	0.030372068
16	0xbc5a4151	-0.013321237
17	0x3d125e99	0.035734747
18	0x3c78c7a9	0.015184321
19	0x3c6d220c	0.014473449
20	0x3c421460	0.011845678
21	0x3def1b48	0.11675125
22	0x3ca39940	0.019970536
23	0xbcd2b506	-0.025721084
24	0x3ceab817	0.028652234
25	0x3d53f802	0.05175019
26	0x3cc70f34	0.024299242
27	0xbcb5e8f2	-0.022205804
28	0x3bf6c577	0.007530864
29	0xbcdc162c	-0.026866041
30	0x3af16e89	0.0018419783
31	0xbd2b0793	-0.04175527
32	0xbce0b838	-0.027431592
33	0xbd147c53	-0.036251377
34	0x3c4d41da	0.012527907
35	0xbcf451ec	-0.02982422
36	0xbd3a4c16	-0.045482717
37	0x3d0f27ac	0.034949943
38	0xbc4c80d2	-0.012481885
39	0x3d174fe6	0.03694143
40	0xbd0df870	-0.034660757
41	0x3d216884	0.039406314
42	0xbb477090	-0.0030432083
43	0x3cca5410	0.024698287
44	0x3d56a30c	0.052401587
45	0xbb89a941	-0.004201085
46	0x3c64b41e	0.013958959
47	0xbd279acd	-0.040919114
48	0xbc878183	-0.016541248
49	0xbbde2cd7	-0.0067802477
50	0xbd53f57d	-0.051747788
51	0x3d9a5a88	0.07536799
52	0x3cc83cac	0.024442993
53	0x3d260593	0.04053266
54	0xbcf86405	-0.03032113
55	0x3dc48c62	0.095970884
56	0xbc1191e3	-0.00888488
57	0x3d60d131	0.054887
58	0x3bd33ede	0.0064467033
59	0xba759b4b	-0.0009369149
60	0x3cc1e554	0.023668922
61	0xbc94fd36	-0.018187147
62	0xbce790c4	-0.028267272
63	0x3cd1ba31	0.025601478
64	0x3af792eb	0.001888839
65	0x3d783718	0.060599416
66	0xbcd942a2	-0.02652103
67	0x3d004a39	0.031320784
68	0x3d888055	0.066651024
69	0xbcb13db2	-0.021635864
70	0xbd3574dc	-0.0443009
71	0xbd2da390	-0.042392313
72	0xbc73c644	-0.014878813
73	0xbc918624	-0.017764159
74	0x3c5604b6	0.013062647
75	0xbc8079be	-0.015683051
76	0xbc7ab3d9	-0.015301668
77	0xbd8016ac	-0.06254324
78	0xbb84b5f6	-0.0040500117
79	0xbd3987f6	-0.045295678
80	0x3d408b2f	0.047007736
81	0xbc5ab50c	-0.013348829
82	0x3c4beed2	0.012447076
83	0x3daa5423	0.08316829
84	0xbd47844c	-0.048710153
85	0x3cd4d7e3	0.025981849
86	0x3d00f7e6	0.031486414
87	0x3d8594a8	0.065224946
88	0xbc1c3396	-0.009533783
89	0x3d26f9db	0.040765624
90	0xbcbd2a5f	-0.023091493
91	0x3d56c582	0.052434452
92	0x3ca5c620	0.020236075
93	0x3cd22f4a	0.025657315
94	0x3c7617b4	0.0150203
95	0x3d6f1e01	0.058378223
96	0x3d79a82d	0.0609514
97	0x3d60e4eb	0.054905813
98	0x3d038545	0.032109518
99	0xbbf6172a	-0.0075100856
100	0x3da07ba4	0.078360826
101	0x3d39b16c	0.04533522
102	0xbd10808e	-0.03527885
103	0xbace8939	-0.0015757448
104	0x3c894ba2	0.016759697
105	0xbc25d753	-0.010122138
106	0xbd096718	-0.033545583
107	0x3c304906	0.010759598
108	0x3b9d343a	0.0047974857
109	0x3d1fe852	0.039039917
110	0x3c053a29	0.008131542
111	0xba6366ea	-0.0008674698
112	0xbcc8ff82	-0.024535898
113	0xbccee1a5	-0.02525408
114	0x3d17a5f4	0.0370235
115	0x3da22473	0.079171084
116	0x3cafd710	0.021464854
117	0xbb850227	-0.0040590945
118	0xbc8429a3	-0.016133135
119	0x3d3bc26d	0.045839716

fc2.weight f4 [84, 120]
0	0x3d38da24	0.04512991
1	0x3d92e0ce	0.07171784
2	0xbc478d0c	-0.012179624
3	0x3cb6577f	0.022258518
4	0x3dcd5056	0.100250885
5	0x3cf3ee88	0.029776827
6	0xbbea3945	-0.0071479403
7	0xbd93bda4	-0.072139055
8	0xbd8336c1	-0.06406928
9	0x3daa90bd	0.08328388
10	0x3d8b1e0c	0.0679284
11	0x3db471c3	0.08810761
12	0xbc8df73a	-0.0173298
13	0x3c816eda	0.015799928
14	0x3db2e873	0.087357424
15	0x3c7e8a70	0.015535936
16	0x3d70219e	0.05862581
17	0x3d24bb29	0.040217552
18	0xbd1e548a	-0.03865484
19	0x3d938fb0	0.072051406
20	0x3d2b5fef	0.041839536
21	0x3d6eac8a	0.058270015
22	0x3d539451	0.051655117
23	0xbd14f0c7	-0.036362436
24	0x3d2a1c7c	0.04153107
25	0xbd8df9a5	-0.069323815
26	0x3a2d903e	0.000662092
27	0xbd6112d0	-0.05494958
28	0xbce0ef9d	-0.027458007
29	0xbd233f24	-0.039855137
30	0x3b89c0a9	0.004203875
31	0xbdbbadd7	-0.09164017
32	0x3c6262ae	0.013817472
33	0xbd9a4cf7	-0.07534211
34	0x3bf79e29	0.007556696
35	0xbd9f155f	-0.07767748
36	0xbda4ca47	-0.08046394
37	0xbb32da8b	-0.0027290906
38	0xbcbbd027	-0.022926403
39	0xbc26b304	-0.010174517
40	0xbd47dee0	-0.048796535
41	0x3ccc6054	0.024948277
42	0xbd1f7c3f	-0.03893685
43	0x3d16fd49	0.036862645
44	0x3dc2e915	0.09517113
45	0x3b4e4355	0.0031473238
46	0xbd62c44c	-0.055362985
47	0x3d4dd462	0.050251372
48	0xbd57913c	-0.05262874
49	0x3dc414ae	0.09574257
50	0x3bbeadc4	0.0058190543
51	0x3d912d81	0.07088757
52	0xbd325365	-0.043536562
53	0xbd526f87	-0.051375892
54	0x3d923552	0.07139076
55	0x3cb3aa76	0.021931868
56	0x3d4f9bd8	0.050685734
57	0xbc8347ed	-0.016025508
58	0x3aba5c76	0.0014218229
59	0x3b622138	0.0034504663
60	0xbdc442ee	-0.09583078
61	0xbcdbbae8	-0.026822522
62	0x3d0a6167	0.033784296
63	0x3da8291f	0.08210968
64	0x3d1e0fbd	0.038589228
65	0x3d8b9c39	0.068169065
66	0xbbefdd3d	-0.007320075
67	0x3cafd9f2	0.02146623
68	0x3dbb5f3b	0.09149023
69	0x3d020bd8	0.031749576
70	0xbd096d92	-0.03355176
71	0x3d00d84e	0.031456284
72	0xbd8cc401	-0.06873322
73	0x3d8a766c	0.067608684
74	0x39ad5b80	0.00033065304
75	0x3c14b39d	0.009076026
76	0x3d9df1bd	0.077121235
77	0xbdbd5863	-0.09245374
78	0x3c31ae9e	0.010844855
79	0xbd3685ce	-0.0445612
80	0xbbf3326d	-0.0074217827
81	0xbd2ee0c5	-0.042694826
82	0xbcb82af7	-0.022481425
83	0xbdc173c6	-0.0944591
84	0xbd257a51	-0.040399853
85	0xbbf48ef8	-0.0074633323
86	0x3d8283fa	0.06372829
87	0x3d31cd9f	0.043408986
88	0x3b7341eb	0.0037118148
89	0xbd81895d	-0.06325028
90	0xbc986e08	-0.018607154
91	0xbca0ed25	-0.01964433
92	0x3bbcb289	0.0057585877
93	0x3d888c90	0.06667435
94	0x3d2043b1	0.039127056
95	0xbd8b78be	-0.06810139
96	0x3d923878	0.07139677
97	0x3db3efc3	0.08785965
98	0xbdcb1d5c	-0.09917709
99	0xbbbf44c2	-0.005837054
100	0x3c27a3db	0.010231937
101	0x3d6c8777	0.057746377
102	0x3c6fae31	0.014628933
103	0xbd37facf	-0.044916924
104	0xbbad99b2	-0.005297863
105	0xbd1f49ce	-0.038888745
106	0x3c89fe1f	0.016844807
107	0xbbbd9be8	-0.0057864077
108	0xbd97edd4	-0.07418409
109	0x3d60f217	0.054918375
110	0xbda30aa7	-0.07961016
111	0xbd4067f2	-0.04697413
112	0xbbfae0a7	-0.007656175
113	0x3d96cb9e	0.07363056
114	0xbd285894	-0.0411001
115	0xbcd21b48	-0.025647774
116	0xbceaf647	-0.028681887
117	0x3cad8b81	0.021184685
118	0x3d34d971	0.04415268
119	0x3d76969b	0.060202222
120	0x3d95ab36	0.073080465
121	0x3d4cb495	0.049976904
122	0xbdaf012c	-0.085451454
123	0x3cc0d291	0.023537906
124	0xbd16bbad	-0.036800075
125	0x3d54c2f4	0.051943734
126	0x39afafbd	0.00033509536
127	0xbd8f9361	-0.07010532
128	0xbd7983f7	-0.060916867
129	0xbdb81e4d	-0.089901544
130	0xbd1f4a4d	-0.038889218
131	0xbd8ce3e0	-0.06879401
132	0x3cba9718	0.022777125
133	0xbc9c16f5	-0.019053916
134	0x3d56720a	0.05235485
135	0x3c3b6edb	0.011440004
136	0x3c1a09dd	0.009401766
137	0xbad78bad	-0.0016444825
138	0x3ceefa21	0.029172005
139	0x3c86cd7e	0.016455408
140	0x3da2c8bd	0.07948444
141	0xbdacf584	-0.08445266
142	0xbd2e1c31	-0.042507354
143	0x3d4ba661	0.04971922
144	0xbdc1949b	-0.09452172
145	0x3d5c67ef	0.053810056
146	0xbc34a4d0	-0.0110256225
147	0xbd82a2d9	-0.06378717
148	0xbd860f16	-0.06545846
149	0x3d6ee17b	0.058320504
150	0xbd4f067f	-0.050543305
151	0x3d2c5a5c	0.04207836
152	0x3d1cf1ae	0.03831642
153	0xbdae49d1	-0.08510173
154	0x3d87a9cf	0.06624185
155	0xbd91930c	-0.07108125
156	0x3d674b69	0.0564684
157	0xbcc421ef	-0.023941962
158	0xbd2462ed	-0.040133405
159	0xbd2b5d66	-0.04183712
160	0xbd73f37f	-0.059558388
161	0xbcc6db78	-0.024274573
162	0xbcc33581	-0.023829224
163	0xbbf8347d	-0.0075746165
164	0xbda1598c	-0.07878408
165	0xbc978cdc	-0.018499784
166	0xbd856d22	-0.06514956
167	0x3d58c83b	0.05292533
168	0x3c86298d	0.016377235
169	0xbdb9a6b9	-0.09065003
170	0x3d304506	0.043034576
171	0x3d8a404b	0.06750544
172	0x3d83e48d	0.06440077
173	0xbdb2a9e7	-0.087238126
174	0xbcffb305	-0.031213293
175	0xbdaafb38	-0.083486974
176	0xbbd459e3	-0.006480442
177	0x3d495f98	0.04916343
178	0xbda74c1d	-0.08168814
179	0x3cae7de3	0.021300262
180	0xbbed5d9a	-0.007243824
181	0x3c105cb1	0.008811162
182	0xbcb00cbf	-0.021490453
183	0x3d1bdd07	0.038052585
184	0xbd8c0455	-0.06836764
185	0x3d6e25cd	0.05814152
186	0x3d277cae	0.04089039
187	0xbc71df33	-0.0147626875
188	0x3d40b330	0.047045887
189	0x3d096c92	0.033550806
190	0x3d5d4163	0.054017436
191	0xbd9e28d8	-0.07722634
192	0xbda80921	-0.08204866
193	0xbdbad9f0	-0.091235995
194	0x3d25cd70	0.040479124
195	0x3ba12285	0.004917445
196	0x3da381ab	0.079837166
197	0x3c02d526	0.007985389
198	0x3d215fd6	0.039398037
199	0xbcd892a9	-0.02643712
200	0x3dab30d4	0.083589226
201	0xbd801aa9	-0.06255085
202	0x3d9b7056	0.07589786
203	0x3d9ff82f	0.07811009
204	0xbd61eb91	-0.055156294
205	0xbd62cc6e	-0.05537074
206	0x3cf45a0e	0.029828098
207	0x3d9fca82	0.07802297
208	0xbd8edb94	-0.06975475
209	0xbc2c8545	-0.010529821
210	0x3d3d4b30	0.046214283
211	0x3ca640dc	0.0202946
212	0xbd004627	-0.031316902
213	0x3d4d1af1	0.05007452
214	0xbcdffa04	-0.027340896
215	0xbd9ec2cb	-0.077519976
216	0xbd020a7b	-0.031748276
217	0xbdc5e7e5	-0.09663371
218	0x3d848e8b	0.064725004
219	0xbd85c6ad	-0.06532035
220	0xbb405e7c	-0.0029353192
221	0xbc991141	-0.018684985
222	0x3d872bf3	0.066001795
223	0x3d815313	0.06314673
224	0xbd7c5165	-0.06160106
225	0x3d5d8db6	0.054090224
226	0xbd7cffcc	-0.061767384
227	0x3bae3505	0.005316379
228	0xbc845ce9	-0.016157584
229	0x3c8a2652	0.016863976
230	0xbd2a94a9	-0.04164568
231	0x3d748e28	0.059705883
232	0x3d07c0b5	0.033142764
233	0xbcd164f7	-0.02556084
234	0x3cc48ff6	0.023994427
235	0x3d7cf316	0.061755262
236	0x3b150008	0.0022735614
237	0x3d9bafd2	0.076018944
238	0x3da4c904	0.08046153
239	0xbcef4970	-0.029209822
240	0x3dff0fd4	0.12454191
241	0x3d71d826	0.059044026
242	0x3c966003	0.018356329
243	0x3d31622b	0.04330651
244	0xbb640276	-0.0034791506
245	0x3c80e716	0.01573519
246	0x3d4386f9	0.04773614
247	0xbcfb84db	-0.030702999
248	0xbb3a875a	-0.0028462023
249	0xbd3fb275	-0.04680105
250	0x3d8bdd9e	0.068293795
251	0xbc45dc6a	-0.012076477
252	0xbd8bfe72	-0.06835641
253	0xbc6481ef	-0.013946994
254	0xbc345bd7	-0.011008224
255	0xbda993d4	-0.08280149

fc2.bias f4 [84]
0	0x3d71adcf	0.059003647
1	0xbce817d6	-0.028331678
2	0x3dd4418b	0.10364064
3	0x3bd9ec4e	0.006650484
4	0xbd540a55	-0.051767666
5	0xbdac7d75	-0.084223665
6	0xbcd5f7e6	-0.026119184
7	0xbcaaeec7	-0.020865811
8	0x3d7e88c0	0.062142134
9	0x3cc5ce61	0.02414626
10	0x3cda9534	0.026682474
11	0xbcb9e3da	-0.022691656
12	0xbcc971e1	-0.024590435
13	0x3decfc82	0.115715995
14	0xbd78bf46	-0.060729288
15	0x3df311ae	0.118686065
16	0xbd7150ae	-0.058914833
17	0x3b831424	0.0040002037
18	0x3e141742	0.14461997
19	0xbd9a4421	-0.07532526
20	0x3e02c98b	0.12772195
21	0xbdce7cf8	-0.1008243
22	0xbc72ac9d	-0.014811662
23	0x3db32f08	0.08749205
24	0x3dbd1c10	0.09233868
25	0xbd151f14	-0.03640659
26	0xbd82c7d3	-0.0638577
27	0x3dae8165	0.08520774
28	0x3bf0907a	0.0073414417
29	0xbd3097dd	-0.043113578
30	0xbd36d830	-0.044639766
31	0x3cc0711c	0.023491435
32	0xbccc6f60	-0.024955451
33	0xbcc385f5	-0.023867587
34	0xbdaff168	-0.085909665
35	0x3dae8c29	0.08522827
36	0x3cea532f	0.028604118
37	0xbd855a0b	-0.06511315
38	0x3df9002c	0.12158236
39	0x3cec4364	0.028840728
40	0x3d747c53	0.059688877
41	0xbda65752	-0.08122124
42	0xbd66a0aa	-0.056305565
43	0x3df80e3e	0.121120915
44	0xbba943f1	-0.00516557
45	0xbcad8440	-0.021181226
46	0x3e2d084a	0.16897693
47	0x3da12b07	0.07869535
48	0x3cc12b49	0.02358021
49	0x3dadf78d	0.08494482
50	0x3d9e2b8d	0.077231504
51	0x3d03d4fc	0.03218554
52	0xbdd2e8e6	-0.10298328
53	0x3ded87eb	0.1159819
54	0x3d450488	0.048100024
55	0x3ce9a327	0.02852018
56	0x3de15b09	0.11003692
57	0xbd1175a5	-0.035512585
58	0xbd82b3ee	-0.06381975
59	0xbca82052	-0.020523224
60	0xbbdf39af	-0.0068122963
61	0xbd855cbe	-0.0651183
62	0x3d9e19ac	0.0771974
63	0xbbf12f0e	-0.0073603457
64	0xbd1fac82	-0.038982876
65	0xbd0ec2cd	-0.034853745
66	0x3e1554e2	0.14583161
67	0x3d3b229f	0.045687314
68	0x3e1fefa5	0.15618761
69	0xbd808551	-0.06275428
70	0x3e28d3ee	0.16487095
71	0xbd63dbc8	-0.05562952
72	0x3da9f51d	0.08298705
73	0x3de429bd	0.111407734
74	0x3d31d114	0.043412283
75	0x3cf11ebb	0.029433599
76	0xbd5b09b5	-0.053476054
77	0x3dba31bd	0.09091518
78	0x3d743ec5	0.059630174
79	0x3db8b332	0.09018554
80	0x3cea12c2	0.028573398
81	0x3d497578	0.049184293
82	0x3dac5a22	0.08415629
83	0x3d4a1caf	0.04934376

fc3.weight f4 [10, 84]
0	0xbc11858d	-0.008881939
1	0x3c8a4365	0.01687784
2	0x3ee1279f	0.4397554
3	0x3d2356c7	0.03987768
4	0x3bd509b2	0.0065014
5	0xbd041722	-0.032248624
6	0x3d9798a0	0.07402158
7	0xbe0560e3	-0.1302524
8	0x3e5bae19	0.21453132
9	0x3da09270	0.07840431
10	0xbda3c8db	-0.079972945
11	0xbde81a63	-0.11333158
12	0xbcf6c428	-0.030122831
13	0x3eb72826	0.35772818
14	0x3db8af98	0.09017867
15	0x3ec0c791	0.37652257
16	0xbd8b20c3	-0.06793358
17	0x3db589f4	0.08864203
18	0x3ecf0b14	0.4043814
19	0x3c782c96	0.015147349
20	0x3e800ada	0.2500828
21	0xbe068d91	-0.13139941
22	0x3e3c03b7	0.18360792
23	0xbce4da00	-0.027935982
24	0x3be18dd0	0.0068833604
25	0x3d2b42bb	0.041811686
26	0xbdbcc836	-0.09217875
27	0x3da3acd9	0.079919524
28	0xbd0da0c6	-0.034577154
29	0x3e178ec9	0.14800562
30	0xbb18f88d	-0.0023341507
31	0xbd84da57	-0.064869575
32	0xbc9b5fef	-0.018966643
33	0xbdfda7b0	-0.123854995
34	0xbaaf5c1c	-0.0013378891
35	0x3dd152e0	0.10220885
36	0xbbdf08f2	-0.0068064863
37	0xbd819112	-0.06326498
38	0x3e84d1d0	0.25941324
39	0x3d6d4202	0.057924278
40	0x3e0fbaa6	0.14036044
41	0xbc163db7	-0.009169987
42	0xbd37d6d6	-0.044882618
43	0x3d99fd37	0.07519
44	0xbce045c4	-0.027377017
45	0xbd87ea79	-0.06636519
46	0x3eb0caf6	0.34529847
47	0xbd00d4c8	-0.031452924
48	0xbbac5dfb	-0.005260227
49	0x3e58405d	0.21118303
50	0x3cf45ce5	0.029829452
51	0x3da9c5fe	0.08289717
52	0xbd88fc2e	-0.066887245
53	0x3e511d53	0.20421343
54	0xbc8ef562	-0.017450992
55	0x3d8115df	0.06303
56	0x3e17d32e	0.14826652
57	0xbd1f76c3	-0.03893162
58	0x3d9a9ea7	0.07549792
59	0x3dce9b26	0.10088186
60	0xbcbf0a8a	-0.023320455
61	0x3bb1dfa6	0.0054282723
62	0x3e17f9b0	0.14841342
63	0xbd49a42a	-0.049228825
64	0x3e46c23a	0.19410029
65	0x3d58a493	0.052891325
66	0x3e72a183	0.23694424
67	0xbdbef0e9	-0.09323294
68	0x3e2774f9	0.16353215
69	0x3d33879e	0.043830507
70	0x3e890e68	0.26768804
71	0xbcbdeba2	-0.023183648
72	0x3e7cf5c0	0.24703121
73	0x3eb1cbb3	0.34725723
74	0xbd843b3f	-0.06456613
75	0x3dbb3a96	0.09142034
76	0x3d32df59	0.043670032
77	0x3e012e7a	0.12615386
78	0x3e3f3200	0.18671417
79	0x3dc0ac54	0.09407869
80	0xbb009b48	-0.0019623805
81	0xbd273318	-0.04082021
82	0x3e057435	0.1303261
83	0x3daa350c	0.08310899
84	0x3e593eeb	0.21215408
85	0xbdaedb45	-0.08537916
86	0x3ec11b64	0.3771621
87	0xbd83303c	-0.06405684
88	0x3d713d50	0.058896363
89	0x3db1ba4a	0.0867811
90	0xbe0d6f43	-0.13811974
91	0x3e01441a	0.12623635
92	0x3ba16e61	0.0049264883
93	0xbdbc8fbd	-0.092071034
94	0x3ea73fd9	0.326659
95	0x3d98b159	0.074557014
96	0x3e03086a	0.12796178
97	0x3e9a60c7	0.3015196
98	0xbbdbc110	-0.0067063645
99	0x3ebf181b	0.3732308
100	0x3d35b0e8	0.044358164
101	0xbd9da933	-0.07698288
102	0x3e0ad38d	0.13557263
103	0x3c2d4e12	0.010577695
104	0xbd77d2d6	-0.060503803
105	0x3e0f681e	0.14004561
106	0x3e64c625	0.22341211
107	0x3dc83c35	0.097771086
108	0x3da7e883	0.08198645
109	0xbdcbc22f	-0.09949147
110	0x3d458010	0.048217833
111	0x3de4c3ee	0.11170183
112	0xbd068070	-0.03283733
113	0x3dd67a86	0.10472588
114	0x3d025d19	0.031827066
115	0xbdecf32b	-0.11569818
116	0x3c708889	0.01468099
117	0xbcc2abf1	-0.023763629
118	0x3cc3b785	0.02389122
119	0xbc1591e9	-0.009129026
120	0xbd694dbb	-0.056958895
121	0x3d9958ff	0.07487678
122	0xbde153d8	-0.1100232
123	0x3ebb6ccf	0.36606452
124	0x3de3966a	0.111126736
125	0x3e006dae	0.1254184
126	0xbd6dc268	-0.05804673
127	0xbde5cc03	-0.11220553
128	0xbd9631fb	-0.07333752
129	0xbd9fea36	-0.07808344
130	0x3e961d9f	0.29319474
131	0x3e736e02	0.23772433
132	0x3e5f9864	0.21835476
133	0x3ca50e9a	0.020148564
134	0xbd4b9c94	-0.04970987
135	0xbdcf635f	-0.101263754
136	0xbd30b159	-0.043137882
137	0x3e4d86ff	0.20071028
138	0xbcfc12e7	-0.030770732
139	0x3b985c55	0.0046496787
140	0x3d9fcc16	0.07802598
141	0x3d5bf448	0.05369976
142	0x3dc006b1	0.09376276
143	0x3dc42fcf	0.09579431
144	0x3d21966a	0.039450087
145	0x3dc66210	0.09686673
146	0xbd06cad8	-0.03290829
147	0x3dcf843f	0.10132646
148	0x3e3c6f4d	0.18401833
149	0xbdd3d7c3	-0.10343888
150	0xbc864ab1	-0.016393038
151	0x3e01efe2	0.12689164
152	0xbcb2b756	-0.021815937
153	0xbd808247	-0.062748484
154	0x3ef5aaa6	0.47981757
155	0x3cc24fb2	0.023719642
156	0x3ef8223f	0.48463628
157	0x3e9ad3bb	0.30239663
158	0xbdaaaa93	-0.08333316
159	0xbd188f1f	-0.037245866
160	0xbd2f8448	-0.042850763
161	0xbd782c71	-0.060589258
162	0x3e491303	0.19636159
163	0xbccef06e	-0.02526113
164	0x3c3d0a92	0.011538165
165	0x3dcfbf53	0.10143914
166	0xbdb73487	-0.08945566
167	0x3ebedbfc	0.3727721
168	0x3d877d15	0.066156544
169	0xbd56fe3e	-0.052488558
170	0xbe340587	-0.17580234
171	0xbd8af1fa	-0.067844346
172	0x3d995fc3	0.07488968
173	0xbcec2b18	-0.028829142
174	0xbbc9c5be	-0.006157606
175	0x3d89c842	0.06727649
176	0x3b4fbddb	0.0031698856
177	0x3c2044fe	0.009782074
178	0xbdf0cbcc	-0.11757621
179	0xbcbfede2	-0.023428861
180	0xbd330a07	-0.043710735
181	0x3c4b0a74	0.012392629
182	0x3d6b0e9d	0.057386983
183	0xbd47a596	-0.0487419
184	0x3dbf97f5	0.093551554
185	0x3da09cd2	0.07842411
186	0xbdffe985	-0.12495712
187	0xbc9abdc3	-0.018889314
188	0xbc4e52a5	-0.012592946
189	0xbdb6bdf8	-0.089229524
190	0xbdafca0c	-0.08583459
191	0xbd095664	-0.033529654
192	0x3d9c3f7d	0.07629297
193	0xbd62c3a1	-0.055362348
194	0x3d9a462a	0.07532914
195	0x3d5cace1	0.053875808
196	0xbd645438	-0.05574438
197	0x3d5c0422	0.05371488
198	0x3c728b87	0.014803774
199	0x3da0472c	0.07826075
200	0x3cd12e1f	0.025534688
201	0xbd9c6bb5	-0.07637731
202	0x3db95f26	0.09051351
203	0xbd5e735a	-0.054309227
204	0xbd28f0c2	-0.04124523
205	0xbdbc604b	-0.09198054
206	0xbd2f88e5	-0.042855162
207	0x3c882848	0.01662077
208	0x3c466fa4	0.012111578
209	0x3dd5d865	0.104416646
210	0xbd2c1b8c	-0.04201846
211	0xbd90ad70	-0.070643306
212	0x3d951637	0.07279628
213	0xbcd3c834	-0.0258523
214	0x3ce6f503	0.028193003
215	0xbd288ae6	-0.04114809
216	0xbd85e94c	-0.065386385
217	0x3d7af5a5	0.06126942
218	0xbc8209a0	-0.01587373
219	0x3dce86e8	0.10084325
220	0x3c2fc427	0.010727919
221	0xbd38b956	-0.045098625
222	0xbb9d23fa	-0.0047955485
223	0x3dc6739d	0.0969002
224	0x3bc786a6	0.0060890494
225	0xbd93a3f7	-0.07209008
226	0x3cde55ad	0.027140463
227	0x3d16b396	0.03679236
228	0x3dc7b67f	0.09751605
229	0x3d227206	0.039659522
230	0x3d18df79	0.037322495
231	0x3db2f757	0.087385826
232	0x3c8fc6ec	0.017550908
233	0xbddacd35	-0.106836714
234	0xbd4f09eb	-0.050546568
235	0x3cf62de3	0.030051177
236	0xbb4ee415	-0.0031569053
237	0xbdcda646	-0.1004148
238	0xbdf94307	-0.121709876
239	0x3db62021	0.08892847
240	0xbd9e0f99	-0.07717819
241	0xbc1d6e8e	-0.009608878
242	0x3cc412c2	0.023934726
243	0x3dbccd84	0.092188865
244	0x3db75f47	0.089537196
245	0xbd9443ea	-0.07239516
246	0xbda660b3	-0.08123913
247	0xbde49a4f	-0.111622445
248	0x3d2b394d	0.041802693
249	0xbd94b6fd	-0.07261465
250	0xbde3e5ba	-0.11127801
251	0xbdb800cd	-0.08984528
252	0xbcc69678	-0.024241671
253	0x3da6f9dc	0.08153126
254	0x3cc9a51b	0.024614861
255	0x3d7d3e58	0.061827034

fc3.bias f4 [10]
0	0x3f436611	0.76327616
1	0x3d167098	0.03672847
2	0xbd883566	-0.0665081
3	0xbc5004af	-0.012696429
4	0xbe320df3	-0.17388134
5	0xbe52d8c4	-0.20590502
6	0xbd9629c4	-0.07332185
7	0xbe060365	-0.13087232
8	0xbe45f98a	-0.19333473
9	0xbdcd4419	-0.10022754
