unmasked_model.pth (torch, 251519 bytes, 10 tensors)

conv1.weight f4 [6, 3, 5, 5]
000000 b1 45 74 bd fc da 00 bf 02 49 5d be 91 ea 01 bf
       -0.059636775 -0.50334144 -0.21609882 -0.50748545
000010 8d 47 df be 93 d5 5a be 04 7a f9 be 9d 37 b2 bd
       -0.43609276 -0.21370535 -0.48725903 -0.08702014
000020 3d 51 59 be 21 b0 af be 5c 47 3e be a3 0f 92 3c
       -0.21222396 -0.34314063 -0.18581909 0.017829722
000030 94 cc 91 ba 5e 6f 13 be 56 50 8f be aa 9b c1 bd
       -0.0011123591 -0.14397952 -0.2799098 -0.09453519
000040 8a 8e 88 3e 0b ab c3 3c 4d 8e 21 3e da 99 39 3e
       0.2667125 0.02388527 0.1577694 0.18125096
000050 1e 19 dc 3d 34 3d 0c 3e 6d 69 9e 3b 1f 9c d5 3d
       0.10746978 0.13695222 0.004834345 0.10430168
000060 41 2b 8e 3d 01 ed b6 3e 25 06 1e bd e3 8a c9 3e
       0.06941844 0.35727695 -0.03858008 0.39363775
000070 f9 ee 8b 3e c4 6d ad 3e ec 4e a2 3e 77 55 c4 bd
       0.2733076 0.33872807 0.31700838 -0.095866136
000080 35 94 e0 3e 6f 44 db 3e be b3 60 3e b3 fe 74 3d
       0.43863073 0.42825648 0.21943566 0.059813213
000090 54 a2 56 3e 05 27 09 3e 4b 0e 4f 3e cf 84 99 bb
       0.20960361 0.13393791 0.20220296 -0.0046850215
0000a0 c4 1f eb bc 79 a6 a1 3e aa 4d 7e 3d 62 68 d1 bc
       -0.02870167 0.3157232 0.062085785 -0.025562469
0000b0 69 4d c5 3d 89 12 30 3b 99 30 7c 3e df f7 42 3d
       0.096339054 0.0026866517 0.24627914 0.04759967
0000c0 bc 00 f6 3d 8e 4f 3d 3d c9 f8 b0 3e 63 bb f8 bd
       0.12011859 0.046218447 0.34564808 -0.12145116
0000d0 ae d3 8e 3e 85 40 d9 3d e0 3e a1 3e 46 2f 8c 3d
       0.27895874 0.10608009 0.31493282 0.06844954
0000e0 a7 78 86 be 34 53 03 3e c0 21 3a 3e 6c ac 5d 3e
       -0.26263925 0.12824708 0.18176937 0.21647805
0000f0 ff 56 86 3c c6 98 c0 bb f8 24 b1 bc 3c d6 e1 3b
       0.016398905 -0.005877587 -0.021624073 0.006891994
000100 07 32 52 bd 0e 38 96 be bb 9d 01 3d 77 f3 e6 be
       -0.05131724 -0.2933964 0.031644564 -0.45107624
000110 9f a9 cc be 32 f5 05 be 95 36 8c be 57 e8 95 be
       -0.3997316 -0.13081816 -0.27385393 -0.29278824
000120 3b d2 c0 be 95 77 8f be 88 ad c5 be 39 bb 7e 3d
       -0.37660393 -0.2802092 -0.38608956 0.06219027
000130 6b a1 cc bd d1 1c b8 bb eb 17 bf bc ea e7 8d bc
       -0.099917255 -0.0056186696 -0.023326835 -0.0173225
000140 cc 58 83 bd 44 9d 7c 3d 30 92 71 3d e0 e2 2b bd
       -0.06413421 0.061673418 0.058977306 -0.04196441
000150 76 05 00 3e 14 e8 9a 3d 62 28 6b bd d4 c0 11 3e
       0.12502083 0.07563797 -0.05741156 0.14233714
000160 d4 a3 1d bd d7 2f 22 bd 72 ce 5a 3d e2 89 94 3c
       -0.038486317 -0.039596405 0.053419538 0.018132154
000170 c5 29 f0 3c a9 f9 44 3d 21 f6 28 bd f7 ff de 3d
       0.029316792 0.048089657 -0.04125035 0.10888665
000180 af a4 15 3e 40 73 ca bc d9 9a ca 3d f5 ce 09 3e
       0.14613603 -0.024713159 0.09892816 0.13457854
000190 2c 46 df 3d 52 20 d0 3d 8e 4a 30 3e 74 18 80 3d
       0.10902056 0.101624146 0.1721594 0.06254664
0001a0 30 6a e2 3d 93 dc 90 3d 3e 7a fc 3d 92 85 0b 3e
       0.1105541 0.07073321 0.12328003 0.13625172
0001b0 93 8b 10 3e 9f 0b 7e bd 3b 92 5f 3d 26 c4 c5 3d
       0.14115743 -0.0620228 0.054582816 0.09656553
0001c0 a5 8c 78 bd 93 41 17 3d b0 b1 58 3d 21 28 7e 3c
       -0.060681004 0.03692777 0.05290383 0.015512497
0001d0 46 92 de 3d 7e f8 cd 3d 71 c8 39 bd 1f dd 88 bb
       0.10867743 0.10057162 -0.04535717 -0.0041767503
0001e0 79 06 05 bc 37 7f 06 be 80 32 87 bd ba d6 33 3d
       -0.008119219 -0.13134466 -0.06601429 0.04390595
0001f0 9d 59 18 bd a0 14 8e 3d 00 d1 db bc 40 7f 24 bd
       -0.037194837 0.06937528 -0.026833057 -0.040160418
000200 f1 5f e8 3d f5 7c da 3d e7 4e 4f bd 27 19 f6 bd
       0.11346424 0.10668365 -0.050612357 -0.12016516
000210 df a2 9c ba 54 af ae 3d d0 64 a8 3c d3 9f 1f be
       -0.0011950395 0.08529535 0.020555884 -0.15588312
000220 22 03 19 be 5f 20 99 bd 84 f6 c0 3d 3a f0 6b bc
       -0.14942601 -0.074768774 0.09422019 -0.014400536
000230 cc 47 1a bd 1c c1 06 be 61 01 ba 3c 83 31 12 bd
       -0.037666127 -0.13159603 0.022705736 -0.03569175
000240 c2 e9 d9 bd b6 ac 18 be 94 ca 48 be 7b ff 4b be
       -0.10640289 -0.14909634 -0.19608527 -0.19921677
000250 3a 95 72 be 6c c8 0c bd 1f f6 a0 3a 99 a2 0a 3e
       -0.23689738 -0.034370825 0.0012280381 0.13538589
000260 de 7c 33 3e cf de 1b 3e 05 49 3b 3d ba fd e1 bd
       0.17528102 0.15221713 0.045723934 -0.110347226
000270 a8 4d ac 3d f3 dd 33 3e 77 d7 24 3e c1 ca 5f 3e
       0.08413249 0.17565136 0.16097818 0.21854688
000280 39 cb 08 be 21 7c 68 bd b2 9f 6c 3d f7 f7 90 3d
       -0.13358773 -0.056759004 0.057769485 0.070785455
000290 1b e9 b6 3d fa e0 a3 be d1 09 63 be 96 b4 32 be
       0.0893118 -0.3200758 -0.22171713 -0.174517
0002a0 f3 6b 29 3c b8 3d 34 3d d4 d5 54 be a9 f9 8b be
       0.0103406785 0.044004172 -0.20784694 -0.27338913
0002b0 fe 9e 64 be da e5 88 ba a7 38 94 3d f1 2a 84 bd
       -0.22326276 -0.0010444478 0.07237368 -0.06453503
0002c0 bf 15 ef 3c 2d ec 80 bd 8f 82 05 3e 53 5a 34 3d
       0.029185174 -0.06295047 0.13038085 0.044031452
0002d0 aa 38 81 bd f7 9e 90 bc 6d a2 02 3e 57 f3 3b bd
       -0.06309636 -0.017653925 0.12757273 -0.045886364
0002e0 9c 1e 44 3d 82 73 ae 3b 3c 81 e2 3d 43 d0 38 3d
       0.047880754 0.005323828 0.11059806 0.04512049
0002f0 95 d6 20 3e fa e6 ee 3d 32 31 69 be b4 aa 5a bd
       0.15706857 0.11665149 -0.22772673 -0.05338545
000300 66 a8 52 3c 07 2f 4a 3c f2 9c cb bc 6f b0 58 be
       0.012857532 0.012340314 -0.02485511 -0.21161054
000310 a1 a2 9b bd 41 7b e5 bd de 4f 93 bd 73 9a 61 bd
       -0.075993784 -0.112051494 -0.07192968 -0.055078935
000320 22 67 88 3d 54 7d ab 3d 01 d8 1e bd d1 6c f1 3c
       0.06660296 0.08373514 -0.038780216 0.029470833
000330 1b 39 72 3d 24 8d bf 3d e8 7a 96 3d b7 b5 8b 3d
       0.05913649 0.09353092 0.07347661 0.06821769
000340 50 b4 12 3e 82 bd 1e 3d 05 23 aa 3d b2 07 09 bd
       0.14326596 0.038754947 0.08307461 -0.033454604
000350 ae 9e 59 3d 83 a5 3c 3c 75 78 76 bb 93 f2 47 bd
       0.053129844 0.01151407 -0.003760842 -0.04881532
000360 01 21 bc bd d4 44 c1 bd f2 58 5f bd 41 ca 45 bd
       -0.091859825 -0.09436956 -0.054528184 -0.048288587
000370 34 a7 89 bd ee fe 26 be 3b f4 21 3b ec 72 bb bd
       -0.067213446 -0.16308185 0.0024712223 -0.09152779
000380 ac 66 e8 3c 66 9c 1a 3e 73 c7 40 3e a3 a8 28 3e
       0.02836927 0.15098724 0.18826084 0.1647058
000390 be aa 64 3e af 58 f0 3d de 34 e6 3d 93 2e d9 3c
       0.22330758 0.11735665 0.11240552 0.026511466
0003a0 1b ae 59 3e f6 d0 25 3e ac e6 91 3d 8c 8b bb bc
       0.21257822 0.16192994 0.07124075 -0.02289369
0003b0 a5 34 c8 3d e8 eb 9c 3d d4 f8 ab 3d 56 b6 68 bd
       0.09775666 0.07662183 0.083970696 -0.056814514
0003c0 6c c9 b5 bd 5b 2b 93 3d 0c f7 09 3e dd 65 6f 3d
       -0.08876309 0.07186004 0.13473147 0.058446754
0003d0 61 12 d7 bc c0 d0 45 bd e4 e7 9a 3d 69 46 5f 3c
       -0.026253881 -0.048294783 0.07563761 0.013627627
0003e0 81 bf da 3d 09 2e ab bd 98 21 78 3d a2 2e b8 3d
       0.10681058 -0.0835839 0.060578912 0.089932695
0003f0 ce d4 4e 3d a0 d6 6b 3c d1 99 01 3c 83 39 50 bd
       0.050495915 0.014394432 0.007910208 -0.050836097

conv1.bias f4 [6]
000000 dc 0b 1b 3e 96 d4 f1 3d 9f d1 1e 3d 7d ff a0 bb
       0.15141243 0.11808126 0.03877413 -0.004913269
000010 29 c7 de bd f1 1d ad 3e
       -0.108778305 0.33811906

conv2.weight f4 [16, 6, 5, 5]
000000 62 3b 8f 3d d9 53 82 3d 89 b9 4d 3c d6 c7 29 3d
       0.06993748 0.06363649 0.012556442 0.041450344
000010 28 d8 f0 3c 6c c3 4b bd dc 4c 3c bd 92 c6 8a bd
       0.029399946 -0.049746916 -0.045971736 -0.067761555
000020 81 79 a7 bd 65 75 fd 3c 0b 2f ce 3d 2f 47 85 37
       -0.08177472 0.030939767 0.100675665 1.5887983e-05
000030 aa ac f5 3c 8b ae b6 3d 92 16 a8 bc c9 f3 7d 3d
       0.02998956 0.0892001 -0.020518575 0.06200007
000040 91 56 a9 3d f2 4e 9f 3d 83 99 bc bc be 9f 88 3d
       0.08268464 0.077787295 -0.023022419 0.066710934
000050 28 fa 0a bd 26 91 3d bd 17 a7 ad bb c8 3c 66 3d
       -0.033929974 -0.046281002 -0.0052994597 0.05621031
000060 71 24 7a 3d 20 c1 9d bc af 70 84 bd 81 57 c2 bc
       0.06106991 -0.019257128 -0.06466805 -0.023723366
000070 15 3d 01 bd f4 89 b5 bc 52 83 a5 3c de 94 87 3c
       -0.031552393 -0.022160508 0.02020422 0.016550478
000080 d4 f7 94 bd b7 e7 66 3d 82 c9 95 bc 51 8a 3d 3d
       -0.07273832 0.056373324 -0.018284563 0.046274487
000090 d0 43 59 bc 88 bd bf bb bc 26 ce bc ee 99 57 3d
       -0.013260797 -0.0058514513 -0.025164954 0.052637033
0000a0 6b 17 bb 3c 1c b4 96 bd 27 56 e0 3a ff db 86 bc
       0.022838315 -0.07358572 0.0017115519 -0.016462324
0000b0 79 d3 27 3d 95 ef 66 bd 92 d4 95 bd 2b b0 54 bd
       0.04097316 -0.056380827 -0.07315935 -0.05192582
0000c0 4d 57 3f 3c 12 a9 4d bd a5 9c 1d 3d 0c 7f 3a 3d
       0.011678529 -0.050210066 0.038479466 0.045531318
0000d0 ad 1f 2c 3d 72 8d 55 3d e3 b8 be 3d 7a 88 f2 3d
       0.042022396 0.052136846 0.09312608 0.11842437
0000e0 8f 71 31 3d 87 54 e5 bc 25 94 14 bd 61 3d 15 3d
       0.04332119 -0.027994407 -0.036274094 0.03643549
0000f0 83 f1 59 3d 53 4f 6c 3d 6c f1 52 bb 69 9f 85 3d
       0.05320884 0.057692837 -0.0032187356 0.06524546
000100 1a bb 3c 38 2c b6 d3 3c 4d 51 36 3b 1e e0 23 bd
       4.4996945e-05 0.025843702 0.0027819455 -0.040008657
000110 17 a3 d3 3c d1 2b ae 3c 1f 63 50 3d c4 2d 6f bc
       0.025834603 0.021261128 0.05087578 -0.014598314
000120 7f 09 64 bd 85 f3 92 bd ae 83 e4 3c f8 27 a6 bd
       -0.05567312 -0.07175354 0.027894821 -0.08113092
000130 e2 58 14 3a 3b 48 60 3c a3 2d 82 3c aa 3a 13 bd
       0.00056589965 0.013689096 0.015890902 -0.03594462
000140 f6 47 41 3d 36 b6 8b 3b 1c 69 68 3d fc 20 7a 3d
       0.047187768 0.0042636646 0.056740865 0.061066613
000150 1f 98 3e 3d d5 78 db bc e6 87 ab 3c de 47 77 3d
       0.046531793 -0.026791016 0.020938825 0.060371272
000160 ff 77 bc bc 26 8f 79 3c b0 d0 dc bc 02 47 c1 bb
       -0.023006437 0.015231883 -0.026954979 -0.0058983574
000170 be bd f5 3b 07 ee 1c bd d8 b6 e3 bc 45 75 3e bd
       0.0074994257 -0.038312938 -0.027797148 -0.046498556
000180 ab 27 ec 3c f7 9f 4f bc f6 71 45 bd 77 9c 35 bd
       0.028827509 -0.012672416 -0.048204385 -0.04433867
000190 0b 38 8c bd a2 2d 0c 3b 8e b2 92 3d a7 cd 28 3d
       -0.06846627 0.0021389504 0.07162963 0.04121175
0001a0 b6 4a 23 bd f8 40 60 3d da 1d 95 bd dd f1 61 3d
       -0.03986617 0.05474946 -0.07281084 0.0551623
0001b0 1c 60 ad bc f2 4f 41 bd d4 25 44 bc b2 62 25 bd
       -0.021163993 -0.047195382 -0.01197191 -0.040377326
0001c0 5b 38 28 bc 01 14 b9 3b 4d d0 94 bd 0a ec 97 3c
       -0.010267342 0.0056481366 -0.07266293 0.01854517
0001d0 f1 cd 40 bd 7f 8b 36 3d 11 1c a2 3b d5 64 ae bc
       -0.0470714 0.044566628 0.0049471934 -0.021288315
0001e0 f0 e7 ef bd 47 bf 64 bd c8 52 af bc b4 7d 6d bc
       -0.117141604 -0.05584648 -0.021401778 -0.014495302
0001f0 3c e2 d3 bd 16 6d 2c 3c 8f 4d 43 bd e6 a8 3a bd
       -0.10345885 0.010524055 -0.047681388 -0.04557123
000200 cc 1f 83 3d 3c 5c 11 3c 78 01 73 3d 05 0e 58 bd
       0.06402549 0.008872088 0.059327573 -0.052747745
000210 92 56 7c bd fb ef 8f 3d b5 86 14 bd 14 5e 38 3d
       -0.061605997 0.070281945 -0.03626128 0.045011595
000220 27 60 0c 3d b6 36 a4 39 66 e7 7a bd 99 54 90 3c
       0.034271386 0.0003132128 -0.061255835 0.017618464
000230 77 ac 3c 3a d1 b1 30 bd 56 75 d6 3b 01 47 55 bd
       0.000719733 -0.04313833 0.0065447493 -0.052069668
000240 29 17 45 3d 10 0f 48 bc 7f 0d b0 bb e8 6c bb bd
       0.04811779 -0.012210622 -0.0053727026 -0.091516316
000250 74 f1 4a bc ff 8e c5 bc c7 71 a2 bd 3a 22 5a 3c
       -0.0123866685 -0.024116037 -0.079318576 0.013313824
000260 88 d6 2a bd a7 38 8e bd 06 c5 54 3d 99 1d 73 3b
       -0.0417085 -0.06944399 0.05194571 0.00370965
000270 22 80 70 3d 99 7b ea bc 09 9c 9d 3d 7c 47 84 3b
       0.058715947 -0.02862339 0.07695777 0.004036842
000280 cf fd 86 3c 66 88 93 bd d0 13 a7 bc b4 e5 2d 3d
       0.016478447 -0.0720375 -0.02039519 0.04245539
000290 5b a0 36 bd f8 ba 0d bd 58 4c 29 bb 89 e1 e1 3c
       -0.04458652 -0.034602135 -0.0025832858 0.027573364
0002a0 34 f9 92 bc cf 16 a1 3c c6 f2 13 3d fc 77 92 bc
       -0.017941095 0.019664196 0.0361202 -0.017879479
0002b0 cd d1 6f bb 2f 75 01 3d e5 d8 53 bd a2 c2 36 3d
       -0.0036593557 0.031605896 -0.05172052 0.04461921
0002c0 b0 d1 e7 bc ea c8 0a 3d 63 f3 55 bc a1 eb 6b bd
       -0.028298229 0.033883013 -0.013058516 -0.05759776
0002d0 fe d0 b5 bc 49 93 70 bc 1b f9 8a bd c8 ff 99 bb
       -0.022194382 -0.014683553 -0.06785794 -0.004699681
0002e0 dc 1c f0 3c 68 f5 9e bd 33 e7 fe 3c 92 82 dc bc
       0.029310636 -0.07761651 0.031116104 -0.02691773
0002f0 a9 35 22 bc 09 73 3e bd 6a aa 74 39 2f ec 10 bd
       -0.009900489 -0.046496425 0.00023333138 -0.035381492
000300 56 cf 37 bd 16 74 e4 3c 27 35 41 bd d9 4d 1b bc
       -0.044875465 0.027887385 -0.04716983 -0.00947901
000310 ff 21 06 3d d8 19 0b 3d de 6f 8c bc fc 8c 5e bd
       0.032747265 0.033960193 -0.017143186 -0.054333672
000320 a5 2f cd 3c ef 96 b9 3c 69 98 82 bd 31 60 86 bc
       0.025047133 0.022654979 -0.06376726 -0.01640329
000330 7f 1c 95 bd a7 d3 89 3d a8 54 dd bc 25 ec 5e 3c
       -0.07280826 0.067298226 -0.027017906 0.013606106
000340 ea 6f 0c 3d 22 47 94 bd 49 59 5c bd cb a4 a5 3d
       0.034286417 -0.0724013 -0.053796086 0.080880724
000350 9a 33 4e bc c1 31 97 3d 68 02 5b bd c7 a9 91 bd
       -0.012585545 0.07382537 -0.05346909 -0.071124606
000360 f8 31 9d 3d 80 d6 f9 3c 39 fa 44 bd a8 19 0b b9
       0.076755464 0.03049779 -0.048090193 -0.0001326563
000370 4b c7 a1 3d 46 5c 0d 3c d2 c6 e6 3a 69 ea 83 bd
       0.0789934 0.008627957 0.001760686 -0.064411946
000380 85 ae 7b 3d 77 35 8e bc 0d ef 29 bd cf 69 22 3c
       0.06144573 -0.017359478 -0.041487742 0.009912922
000390 6b b5 54 bd e8 04 aa 3d eb d8 a3 bb 10 9b 8f bd
       -0.051930826 0.08301717 -0.005000224 -0.07011998
0003a0 0c b9 4e bc 00 83 04 bd 1c 78 76 ba a3 6d 43 bd
       -0.012617361 -0.032351494 -0.0009402053 -0.04771198
0003b0 26 0b b7 bc 1c d3 c4 3c b5 71 1a 3d 12 89 dc bb
       -0.022344183 0.024026446 0.037706096 -0.0067302072
0003c0 38 60 90 bd 1e 6a 9c 3c 65 9b 83 bb 05 30 9d bc
       -0.07049602 0.01909357 -0.004016327 -0.019187937
0003d0 12 e8 0a bd 66 65 8b bd dc 44 00 3d db b9 5f bd
       -0.033912726 -0.068064496 0.03131567 -0.054620605
0003e0 83 57 68 3d 9b f7 dd 3b 58 f3 00 bd 74 99 c4 3c
       0.056724083 0.0067739016 -0.03148207 0.023998953
0003f0 a8 f6 73 bd 2a 44 60 3d 60 61 53 bd 00 55 bb 3c
       -0.0595614 0.054752506 -0.051606536 0.02286768

conv2.bias f4 [16]
000000 e4 74 1f 3c b0 d0 17 bd 4b 14 30 bd 2a fb 5a 3e
       0.009732459 -0.037064254 -0.042988103 0.21384874
000010 f6 cc 09 3e 4b 90 22 bd f6 fb 0a 3e 4f 8d 9c 3d
       0.13457093 -0.03968839 0.13572678 0.0764414
000020 a9 7e 93 bd 8e 70 f6 3d a5 d8 8c 3c b4 19 85 bb
       -0.07201893 0.12033187 0.017193148 -0.004061902
000030 26 64 19 3e 8e be 18 3e e2 ef a2 3d 10 cd 04 3e
       0.1497961 0.14916441 0.0795591 0.1296885

fc1.weight f4 [120, 400]
000000 53 b0 03 3d 48 9d cd bc c9 fd dc bc fe ff 3a 3c
       0.032150578 -0.025099412 -0.026976483 0.011413572
000010 08 1d 00 3d 0b 3e c0 3b 4d 59 7c 3c 97 16 ab 3c
       0.031277686 0.005866771 0.01540215 0.020884795
000020 bc 3c 1a bd 5d 48 33 bd ff 17 55 bc 48 a1 4a 3d
       -0.037655577 -0.043770183 -0.013006209 0.049470216
000030 fa df 6a bc dd 00 91 bc 1b e8 2a 3d 58 67 f7 bc
       -0.014335627 -0.017700607 0.04172526 -0.030200645
000040 11 59 85 3c 8d 76 1d 3d 48 2f 35 3d 05 7d be 3c
       0.016277822 0.038443137 0.044234544 0.023252973
000050 55 ce 95 bc a8 e3 92 bc 61 de 31 3c c1 45 a9 bc
       -0.018286863 -0.01793082 0.010856242 -0.020663144
000060 f0 7d 80 bc aa 36 2d 3c 14 bf 8c bc e8 10 93 3c
       -0.015685052 0.010572115 -0.017180957 0.017952397
000070 6c 3f 50 3c 8b af e8 ba 86 f8 9a bc 87 6b 0d 3d
       0.012710433 -0.0017752511 -0.018917333 0.034526374
000080 4d c2 e6 bc d7 41 24 bd 93 b4 a2 3c 72 76 15 bd
       -0.028168822 -0.040101852 0.019861495 -0.03648991
000090 68 48 44 bc ce 55 2e 3c 4d 2f b4 3c 3e 92 8b 3b
       -0.011980154 0.010640575 0.021995211 0.004259377
0000a0 8c 50 4a 3c 7d d2 9a 3c 38 fc 05 3c d8 76 26 3d
       0.012348305 0.018899197 0.008177809 0.040640682
0000b0 9b 83 2d bd 0e c2 4c 3d 2e cd 0c 3d 41 21 dc 3c
       -0.042361837 0.049989752 0.034375362 0.026871325
0000c0 db 87 1c bd f8 35 cc bc a2 86 e0 3c 35 50 ae 3c
       -0.0382155 -0.024928078 0.027407948 0.02127848
0000d0 5f 1c fe b9 39 10 4a 3c b2 be bc bc f4 6c 51 bc
       -0.00048467793 0.012332969 -0.02304015 -0.012782324
0000e0 4f a6 91 bc 36 d3 10 3d 02 75 00 bd 3b 79 2f bb
       -0.017779497 0.035357676 -0.031361587 -0.002677514
0000f0 2a 16 a6 3c 58 cd 27 3d 93 37 44 bd fa eb 3b 3d
       0.02027424 0.040967315 -0.047904562 0.04587934
000100 f1 9b f8 bc 3e 7a de bc 34 c8 99 bc 32 a3 db 3c
       -0.030347796 -0.027157899 -0.018772222 0.026811216
000110 52 28 8a 3c 8d 5b 8c bc 6b 65 48 3d 75 05 47 bc
       0.01686493 -0.017133499 0.048924845 -0.012147297
000120 5a d7 02 3d 24 8c 0b 3d bc 0b 9c bc 17 51 39 bc
       0.031943657 0.034069195 -0.019048564 -0.011310837
000130 07 19 70 3d 9a 64 a4 3c c7 2a 98 bb e5 66 1e bd
       0.058617618 0.020067502 -0.0046437713 -0.038672347
000140 b3 d7 0d 3d 77 6a da 3c f3 60 8c 3c 4c 61 8b 3b
       0.034629535 0.026662095 0.017136073 0.004253542
000150 24 95 e6 3c 45 1d e5 3c f7 72 37 3d a1 b8 8a 3c
       0.028147288 0.027968058 0.044787373 0.016933741
000160 f4 6b d2 bc 6a 11 17 bd 63 33 16 3d 5c 65 d5 3b
       -0.025686242 -0.03688184 0.0366701 0.006512327
000170 5b 7d 0d bc 4a 46 09 3d 18 a0 99 bc f2 d5 fe 3c
       -0.008635844 0.0335143 -0.018753096 0.031107876
000180 f6 f1 34 3d 25 1d 83 3c ec 51 41 3d 66 c1 da bc
       0.044176064 0.016005108 0.047197267 -0.026703548
000190 4e c8 50 3d 72 4b 12 bd 8f 35 f7 ba e6 82 15 bc
       0.050972275 -0.03571648 -0.0018860566 -0.009125447
0001a0 99 27 76 bc 63 37 6d 3b 33 5d ad 3c 8d cb 5f bb
       -0.015024089 0.0036196343 0.021162605 -0.0034148425
0001b0 66 17 cb bc 99 17 de bb 59 41 5c 3c 73 ff 26 bd
       -0.02479143 -0.0067777154 0.0134433145 -0.04077096
0001c0 f0 b5 c2 bc cc be 97 bc ac bb 3e 3d 15 25 f0 3b
       -0.023768395 -0.018523596 0.046565697 0.0073286393
0001d0 5f 94 e4 bb ad 25 02 bd e5 3c bc bc e7 52 2b bd
       -0.006975695 -0.03177421 -0.022978256 -0.04182711
0001e0 6e 0e 3d 3d f6 69 c1 3b 79 c3 43 3c 0f ba 23 3d
       0.04615634 0.005902524 0.01194846 0.03997236
0001f0 0f 32 69 3d c4 1a 02 3d 33 15 5b bc 3f 96 0b 3d
       0.056932505 0.031763807 -0.0133717535 0.034078833
000200 1f 1b ec bc e6 3a 11 3d db a1 ad 3c fc 6f 5c bc
       -0.028821526 0.03545656 0.021195343 -0.0134544335
000210 ae 4a 02 bd 02 3c 07 3d ee 52 09 3d 48 40 b6 3c
       -0.0318095 0.033016212 0.033526354 0.022247449
000220 18 e4 bb 3c dc a6 b2 bc 70 3a 9c bc c2 67 f6 3c
       0.022935912 -0.02180808 -0.019070834 0.030078772
000230 bc c5 5f 3c f3 bc 2d bc bc 90 4c 3d a6 bb 9e bc
       0.013657983 -0.010604131 0.049942717 -0.019376587
000240 88 54 a7 bb 94 84 0c 3d a9 cb b2 b9 fa 74 bc bc
       -0.0051065125 0.034306124 -0.00034102544 -0.023004998
000250 d8 11 2a 3c 58 62 ad bc 64 2e 09 bc cc 9b 51 3d
       0.010380231 -0.021165058 -0.008372877 0.05117397
000260 83 89 be 3c 05 b8 68 3c 6f a5 c2 bc ce c9 47 3d
       0.02325893 0.01420403 -0.023760526 0.04877644
000270 71 1e d4 bc 45 ab 47 bb 37 02 86 3b aa 11 af bc
       -0.025893422 -0.0030467075 0.0040896195 -0.021370728
000280 df d8 98 3c e5 1b 2c 3d 7d 2b ac bc b3 5f 9f 3c
       0.0186581 0.04201879 -0.02101683 0.019454813
000290 4c af 2f bd a9 09 bc bb 62 c0 2f 3c 1c 2d 68 bc
       -0.042891786 -0.0057384563 0.01072702 -0.014170911
0002a0 52 61 24 b9 75 f7 12 3d da 43 88 bc 1b 53 de 3b
       -0.00015676513 0.035880525 -0.016633917 0.0067848093
0002b0 1a 46 f2 bb c4 bc 2c 3d bc d6 e8 bc 69 52 21 bd
       -0.0073936107 0.04217221 -0.028422706 -0.039385233
0002c0 b4 c7 12 bd 6a 47 3e 3d 17 05 0d bd df 54 f1 3b
       -0.035834983 0.046454825 -0.034428682 0.0073648538
0002d0 e6 c2 3a 3c dc 29 b5 3c 1c 64 78 3c 39 3d 86 3c
       0.0113990065 0.022114687 0.015160587 0.016386615
0002e0 9f f2 22 3b c0 39 23 3d 7f 4a 52 3c f8 70 ec bc
       0.0024863852 0.039849997 0.012835144 -0.028862461
0002f0 f4 8d a1 bc 21 bb 32 3d 5c 1a d8 3c e8 64 42 bd
       -0.019721009 0.04363549 0.026379757 -0.047459513
000300 d9 00 dd bc 1d 2e e1 bc 93 89 71 bb c7 f0 be 3c
       -0.026977943 -0.027487809 -0.0036855682 0.023308171
000310 0f 4c 62 bc b4 68 c9 bb 1a 7f 0e 3d d4 70 d3 bc
       -0.013812079 -0.006146515 0.034789182 -0.025810637
000320 a7 ae 30 b9 2b 2c f0 3b 71 ea 46 3d c2 f7 02 bd
       -0.00016849731 0.007329484 0.048563424 -0.03197456
000330 05 3a 12 3d 2d 01 7d bc 37 68 0a 3d a3 63 e6 3c
       0.035699863 -0.015442175 0.033790793 0.028123682
000340 68 f1 0e bd 6e 4b 3f bc 9b 4c 1e 3d a0 9b da 3c
       -0.03489819 -0.011675699 0.038647275 0.026685536
000350 19 50 3a bd 9f 3b 36 3d b6 10 a7 bc 25 89 89 3c
       -0.045486543 0.044490453 -0.02039371 0.016789028
000360 0d 2e 42 bd 13 59 9f 3c b8 bf 29 3d 7c b1 f1 bc
       -0.0474072 0.019451654 0.041442603 -0.029503576
000370 26 12 ce bc f4 d4 49 3d 5c 8d ba 3b 42 0c d9 bc
       -0.025155138 0.049275354 0.005693121 -0.026495103
000380 f3 41 c9 bc 6a e6 a4 bc d4 ba 35 bd 02 ea 26 bd
       -0.02456758 -0.020129401 -0.044367626 -0.04075051
000390 b4 a6 de bc 31 6c 3d bd 0d aa c2 3c 90 6e 59 bc
       -0.0271791 -0.046245757 0.023762727 -0.013270989
0003a0 4c 09 fd bc 9a 05 36 3c 97 ed e8 3c a4 7a 1e bc
       -0.030888222 0.011109734 0.028433604 -0.0096727945
0003b0 32 45 36 bc b1 d1 0d bc 30 3a 39 bc d3 09 fd 3c
       -0.011124896 -0.008655951 -0.011305377 0.030888474
0003c0 ab a9 93 3b 06 ff a3 3c 83 60 13 3c 78 08 76 bc
       0.00450631 0.020019066 0.008995178 -0.015016668
0003d0 c2 ee 1b bd 87 ca 12 3c e2 fb 00 bc 2e ed 13 bd
       -0.038069494 0.008959419 -0.007872554 -0.036114864
0003e0 f1 a1 1d 3d 6b 37 78 bc 02 0f 0a 3d f1 93 61 bb
       0.038484517 -0.015149931 0.03370572 -0.0034420455
0003f0 a6 d2 bd bc 3c 6b 17 3c 68 88 83 3c 70 ce 9b 3c
       -0.023171734 0.009241875 0.016056255 0.019019336

fc1.bias f4 [120]
000000 c1 b5 8b ba f9 ee b5 3c 2b 81 b6 3c db ac 81 3c
       -0.0010659025 0.022208678 0.022278389 0.015829494
000010 0f 77 e8 bc bd 25 db 3a 0a e2 4a 3d 93 bd 26 bd
       -0.028377084 0.0016719621 0.049531974 -0.040708136
000020 aa 01 8a 3c 61 4a 6d 3d 01 51 9a 3d 5e 07 bf 3d
       0.016846497 0.05793226 0.075349815 0.09327577
000030 69 2e 53 3d e3 6c 8b 3d 9f 94 83 ba f0 aa f8 bb
       0.051557932 0.06807878 -0.0010038799 -0.0075887367
000040 a6 7b f5 3d 42 9b 07 bd 4a 06 06 bd 67 62 82 3c
       0.11986475 -0.03310705 -0.03272084 0.015916063
000050 43 d7 d5 3c cd 30 98 3c 5d 24 41 bc b3 f2 34 3d
       0.026103621 0.018577958 -0.011788455 0.04417677
000060 b0 44 75 bc bb 62 3d bd 42 1f 3b bd 8a 0a fd 3c
       -0.01496999 -0.046236735 -0.045684107 0.030888814
000070 7b f9 40 bd b6 f6 10 3d 79 21 a9 bc 3a 9b ba 3c
       -0.047112923 0.035391532 -0.020645844 0.022779096
000080 dd 80 15 bc 00 13 50 3d ea 39 0c 3d c1 ad ee 3c
       -0.009124962 0.05079937 0.03423492 0.029135587
000090 a5 d9 75 3d ab 1a 78 3d 1c 8a 09 bd a7 75 41 bd
       0.060022015 0.060572308 -0.033578977 -0.047231343
0000a0 cb a7 be bb a8 71 90 3c 51 13 f2 bb 43 ca d8 3c
       -0.0058183423 0.01763232 -0.0073875566 0.026463633
0000b0 e3 98 c6 3b 08 18 ff ba ca 28 6f 3d 04 d7 5e bc
       0.006060706 -0.0019462118 0.05838851 -0.013601068
0000c0 74 95 27 bd 24 a7 5a bc 90 92 a7 3b b8 b5 4e 3d
       -0.040914014 -0.0133455135 0.005113907 0.05046627
0000d0 7f 23 c6 bc 70 ec 72 3d 3c cc 39 bd 41 ff 38 bd
       -0.024186848 0.059307516 -0.04536079 -0.045165304
0000e0 eb f4 1b 3d 73 b8 84 3d 65 2f b5 bc cf 20 aa 3c
       0.03807537 0.064804934 -0.022117326 0.020767597
0000f0 56 92 14 3d 9d 72 13 bd cc ce 0d bd cb 5c 0e 3d
       0.03627237 -0.035997976 -0.034621045 0.034756463
000100 43 f3 9b 3c b2 36 aa 3c 84 c7 51 3d 0f 6a 01 3d
       0.019036895 0.020778034 0.051215664 0.031595286
000110 af 96 c3 bc 02 d1 7d 3c ce 06 10 bd 5d e3 ab 3b
       -0.023875562 0.015491726 -0.03516274 0.0052456097
000120 f9 9e 00 3d 42 68 f0 3c 8d 56 68 3c 76 85 21 bc
       0.03140161 0.029346589 0.014180792 -0.00985848
000130 3c 53 f7 3a 67 33 60 3c 8c 36 86 bc 5f b8 a1 3d
       0.001886941 0.01368413 -0.016383432 0.07896494
000140 24 86 c6 bc e5 de 33 3c b3 03 25 bc 4c 1c 24 bd
       -0.024233885 0.010978435 -0.010071683 -0.04006605
000150 c0 67 b5 3c 20 9b 9e 3c 77 b3 a3 3c 5d be 95 3d
       0.022144198 0.019361079 0.019983036 0.073116995
000160 9a 68 04 bd 87 da 2b bd 9d 50 1c 3c 36 ab 12 3d
       -0.03232632 -0.04195645 0.009540704 0.03580781
000170 64 80 33 3d 88 93 f0 bc 7b e1 81 3c 26 e6 57 bd
       0.043823615 -0.029367223 0.015854588 -0.05270972
000180 68 55 22 3d 23 b6 cb 3c 84 36 6d bc 16 3a 10 3d
       0.03963223 0.024867123 -0.01447833 0.035211645
000190 43 5c 9a bc 2a 7c 9b bb 15 29 d4 3c d3 f0 a7 bc
       -0.018842822 -0.004745026 0.025898496 -0.020500576
0001a0 5d 92 4c 3d eb d4 27 bd ca 7d 36 3a 8c e6 11 3d
       0.04994427 -0.04097454 0.0006961493 0.035620257
0001b0 f8 4d bd bc 54 e2 3c 3a 83 5e dc bc 48 dc a1 3d
       -0.023108467 0.00072053564 -0.026900535 0.079033434
0001c0 55 e6 f6 3c e8 2c 09 bd 54 40 0b bd d9 37 8c 3d
       0.030139128 -0.03349009 -0.033996895 0.068465896
0001d0 fa f3 44 bd 16 9f 17 bd fa fd 02 bd fc 7c 9f 3c
       -0.048084237 -0.03701695 -0.031980492 0.019468777

fc2.weight f4 [84, 120]
000000 61 4d 88 3d f3 9f 1e 3d 33 51 80 bd 50 e0 fd bb
       0.06655384 0.03872676 -0.062654875 -0.0077476874
000010 12 12 48 3d 35 1a 84 3d 0f e3 52 3c be c7 f2 3c
       0.04884536 0.06450311 0.012871518 0.02963626
000020 63 47 b3 3d a3 5c 10 3c a8 fc 62 3d 1c d7 a4 3d
       0.0875385 0.008811149 0.055416733 0.08048841
000030 30 de 2f 3d d7 d7 84 bd ce 26 4a 3b 92 e2 51 bd
       0.042936504 -0.06486481 0.0030845883 -0.051241465
000040 2a d1 8e 3c 74 c4 0e bd 4f 49 32 3d 19 e2 0a 3d
       0.017433722 -0.03485532 0.043526944 0.03390703
000050 b0 75 80 bd 90 51 a2 bd a3 34 44 3d 68 38 31 bd
       -0.06272447 -0.07925713 0.04790176 -0.043266684
000060 eb 65 fa 3c ef 5b cd bc 82 69 a8 3c fd 51 b3 bd
       0.030566176 -0.025068251 0.020558123 -0.087558724
000070 d1 de 93 bd 1b 84 db bc 2e 7c bc 3b 8d 10 01 bc
       -0.07220233 -0.026796391 0.005752108 -0.007877481
000080 f2 be 95 3b 2c 85 7b 3d 20 bc 6e 3d bf 70 50 bd
       0.0045698816 0.0614063 0.05828488 -0.050888773
000090 9b 35 af 3c 6a 6d c1 3d da 34 c4 3d 16 47 16 3d
       0.021387866 0.09444697 0.09580393 0.036688887
0000a0 5e 3f b8 3b 05 18 4d 3d 0a ec a1 bd 93 13 e8 bc
       0.0056227883 0.050071735 -0.07906349 -0.028329646
0000b0 d8 5a 8a 3d 26 6d 17 3d 45 9c 34 bd 84 ac 33 3d
       0.06755608 0.036969326 -0.044094343 0.043865696
0000c0 80 4b dd bb dc e1 6e 3c 45 e1 86 bc d0 ad 29 3d
       -0.006753385 0.014580216 -0.016464839 0.041425526
0000d0 49 56 c2 3c 2d aa 46 bd 03 0a fc 3c 38 00 7a bd
       0.023722785 -0.048502136 0.030766493 -0.061035365
0000e0 68 db aa bd 3c 02 4a bd 26 e9 ec 3c 20 29 e0 3a
       -0.0834263 -0.049318537 0.028919768 0.00171021
0000f0 6a 30 53 bc e7 51 94 bd 06 a1 9d bd 67 e5 46 3d
       -0.012889961 -0.07242184 -0.076967284 0.04855862
000100 e7 70 34 3d c9 65 ff bc 34 45 b5 bd bd b6 d3 3d
       0.044052985 -0.031176465 -0.0885109 0.10337589
000110 ff 07 ab 3d 80 21 a9 3c ff 95 82 3d 25 4f 10 3d
       0.083511345 0.020645857 0.06376266 0.035231728
000120 ab 5b ac 3d ba f9 31 3d 6b 67 8e 3d a5 db 46 bb
       0.08415922 0.04345105 0.06953319 -0.003034332
000130 0d c2 1a 3a c6 36 35 3d 4d 46 41 bd cd d3 fe 3b
       0.00059035496 0.04424169 -0.047186185 0.0077767135
000140 20 36 27 3c 0a 9c b2 bc 1a 3c a2 3d 54 15 29 3d
       0.0102057755 -0.02180292 0.0792162 0.041280106
000150 5d 5c ae 3d ba 86 a9 3d ea f5 a0 3c d1 ba ec 3d
       0.08513711 0.0827765 0.019648511 0.1155907
000160 c1 e8 db 3c d2 dc 44 3d 2f e1 00 3d 90 2c 2f 3d
       0.026844384 0.048062153 0.03146475 0.042767107
000170 10 62 67 bd 0a 41 85 bc a8 27 2b bd 6a 6c ad bc
       -0.056490004 -0.016266365 -0.041785866 -0.02116986
000180 87 10 cb 3d 7d b7 6c 3d c1 45 b5 3d 0b 15 9c 3c
       0.09915262 0.057792176 0.08851195 0.019053003
000190 69 85 9c bb 0a ee 6e bd e7 77 a2 3d 40 63 a7 3d
       -0.004776646 -0.05833248 0.07933026 0.08173227
0001a0 f2 42 ec bc 95 29 a3 bb 20 a8 6f bc 89 76 81 3d
       -0.028840516 -0.004979322 -0.0146274865 0.06321437
0001b0 54 50 a7 3d b9 ae a1 3d 97 92 a5 3d 9a 49 ea bc
       0.08169618 0.07894654 0.080846004 -0.02859955
0001c0 e5 4e 7e bd 96 80 ed 3c 8a e4 65 bd dd a3 e1 3b
       -0.06208696 0.028991979 -0.056126155 0.006885989
0001d0 c3 e3 38 bd 4d 4d 2e 3c b6 1d 87 3d 62 36 4c 3d
       -0.045139086 0.010638547 0.06597464 0.04985655
0001e0 16 69 af bd 4f e4 0a bd 48 b3 63 bd 6b 09 82 bd
       -0.085649654 -0.03390914 -0.055590898 -0.063494526
0001f0 eb 3b e3 bc a3 71 40 bd 02 e5 40 3d 40 23 29 3d
       -0.027738532 -0.046983372 0.0470934 0.041293383
000200 44 c1 0b bd d6 55 56 bd b7 11 9d bc 7a e2 56 3c
       -0.03411986 -0.052327953 -0.019173486 0.01311552
000210 5e 5d 8f bd 2a 51 6d bd 27 eb 80 bd c0 46 9b 3d
       -0.0700023 -0.057938732 -0.06294852 0.07581854
000220 8f f9 92 3d 9b f2 7b 3d dc ff 83 bc 1b 6f a4 ba
       0.07176506 0.061510663 -0.016113214 -0.0012545319
000230 38 64 d2 3c 64 36 36 3d d6 11 83 bd 78 95 7f bc
       0.025682554 0.044485465 -0.06399886 -0.015599601
000240 59 98 80 3d e6 41 15 bc 1b 8d 15 bc c1 de 7f ba
       0.06279058 -0.00910995 -0.00912788 -0.0009760671
000250 75 61 b0 3d b6 19 ae bd bd 64 46 bd bb cd 99 3d
       0.086123385 -0.08500998 -0.048435915 0.07509943
000260 c0 ab 8a 3c a8 3e 57 bd 60 b0 62 3d 5e 44 40 3c
       0.0169276 -0.052549988 0.055343986 0.01173505
000270 c6 b0 ac 3d 2c ab 4f bd fa 7b e2 3c cd 8a 97 3d
       0.08432154 -0.05070035 0.027647007 0.07399521
000280 30 a4 81 3c cb a9 b8 bd 66 7c e0 3c 0c c5 b3 bc
       0.015825361 -0.090167604 0.027403068 -0.021944545
000290 f5 ed e6 3c e8 f1 38 3d c0 f5 84 bd 84 bc 3b bd
       0.028189639 0.045152575 -0.064921856 -0.04583408
0002a0 10 0a 9d 3c b7 56 34 bc 7a 17 89 3d 5f 4f f5 3c
       0.019169837 -0.011007003 0.06693931 0.029945074
0002b0 fa 2f 09 3d d4 2c 5f bd b3 29 b4 3d f6 78 1f bd
       0.03349302 -0.05448611 0.08797016 -0.038933717
0002c0 11 dc 8f 3d fd 8c 3c 3d 99 0c 64 bd 92 b9 22 3d
       0.07024396 0.046032894 -0.055676077 0.039727755
0002d0 f6 4d 84 bd 3e ef 01 3d a6 63 54 3d ba ab 59 3d
       -0.06460182 0.0317223 0.051852845 0.053142287
0002e0 ac 2c b3 3c 90 6b 84 3b 56 3c 12 bd 51 8e ba bd
       0.021871887 0.0040411428 -0.035702072 -0.09109176
0002f0 1b 8a 33 bd 8c 71 11 3d 37 cf 8d bd ca 07 8b 3d
       -0.04383288 0.035508677 -0.06924289 0.06788595
000300 fd b2 48 bd 38 94 ac 3c 7e 4f e7 bc d4 99 2b 3d
       -0.04899882 0.02106677 -0.028236147 0.04189475
000310 1d 92 55 bb d0 42 3e 3d 26 93 9a 3d d3 30 98 bd
       -0.003258831 0.046450436 0.075475976 -0.074311875
000320 e7 94 90 bd 6e d2 65 3b 10 d6 0c bc 68 34 8f 3d
       -0.07059651 0.0035068053 -0.008595958 0.069924176
000330 5a 00 b6 bd 24 dc 35 3d dc a5 96 bc 69 b0 46 bd
       -0.08886786 0.044399396 -0.018389635 -0.04850808
000340 93 7c 6b bd f5 d1 05 3d 4a 14 3d bd e3 88 42 bd
       -0.05749185 0.032670934 -0.046161927 -0.047493827
000350 1f 15 3b bd ad b7 78 3c cc c9 a3 bc bb af b7 3d
       -0.04567444 0.0151805105 -0.019993685 0.08969065
000360 56 a1 a6 ba a9 ea 7e 3d 2f 3f 44 3d a8 c6 b2 3d
       -0.0012712877 0.062235508 0.04791182 0.08729297
000370 a2 c0 9b bd dd 4b 1f bc 7b 34 c7 3b 1e 43 14 bd
       -0.07605101 -0.009722677 0.006079254 -0.03619682
000380 d7 d4 ed 3c 60 af 53 bd 35 ff 7c bd 66 0d a1 bd
       0.029032154 -0.051680923 -0.061766822 -0.07863884
000390 c0 49 77 bd 92 fa ab 3c e6 76 01 3d 46 6d ab 3d
       -0.060373068 0.020993505 0.03160753 0.08370452
0003a0 c8 cd 40 3d 3d 66 96 3d b0 bf a7 3d b8 8f 9e bd
       0.04707125 0.07343719 0.08190858 -0.07742256
0003b0 8a b7 46 3d dd f6 98 3c 13 a6 4a 3d 0b e5 bc bc
       0.04851488 0.018672401 0.049474787 -0.023058435
0003c0 59 41 53 bc 9c cc e5 3c 1f d0 bb bb d3 c3 19 3d
       -0.012893998 0.028051667 -0.005731597 0.03754027
0003d0 00 ae 1e 3c 6c bf 3b 3d a1 4d 23 bc c1 93 aa bd
       0.0096850395 0.04583685 -0.009967239 -0.08328963
0003e0 e3 67 37 3c 29 a4 97 bd a5 a5 ef bd 4e f0 82 bd
       0.011194202 -0.07404358 -0.11701516 -0.06393491
0003f0 a6 fa 0f 3d a6 f7 67 3d a8 d7 83 bc d6 52 85 3a
       0.035151146 0.05663266 -0.016094044 0.0010171782

fc2.bias f4 [84]
000000 6b 0d 85 3d 8b 0d 4f bd dd 72 12 3d 0b 0d 0b 3d
       0.064967 -0.050550025 0.035754073 0.033947986
000010 56 43 62 3e 56 dc 87 3b 40 41 47 3c 0f 38 85 3d
       0.22095999 0.004146139 0.012161553 0.06504833
000020 4f 14 df bc e7 da 95 3c db b8 55 bd d5 7e 59 3c
       -0.027231364 0.018292857 -0.052178245 0.013274868
000030 27 98 b0 bd e6 e3 c1 3c 9c 38 2f bd 9d 89 10 3e
       -0.08622771 0.02366824 -0.042778596 0.14114995
000040 d9 b7 da 3d 38 84 47 bd f0 9a 35 3e 99 2d 03 3e
       0.106795974 -0.048710078 0.17734885 0.12810363
000050 d8 3d f6 ba da 2f bb bd 99 33 31 3c f5 a3 4c 3d
       -0.0018786741 -0.09139986 0.0108155245 0.04996105
000060 b0 2c 48 bd 9b 46 3f 3d 3c 20 31 bd 88 22 fd 3d
       -0.048870742 0.046698194 -0.04324363 0.12360102
000070 c2 d8 8f 3d 45 f7 75 3d 4e 2f 2c bd 1d 93 1b 3e
       0.07023765 0.060050268 -0.0420373 0.15192838
000080 57 5a 0c 3e 41 d1 38 3d 9c 2f dd bc 01 bc b1 3b
       0.13706337 0.045121435 -0.027000241 0.005424023
000090 db ad 94 bd 63 3d 76 bd e2 f0 01 bd 49 d5 d9 3c
       -0.07259723 -0.060117137 -0.031723864 0.02659096
0000a0 a1 20 f3 bc 2e ea 4a 3c 68 9d d4 3d 0e f0 7d 3e
       -0.029678645 0.012384934 0.10381585 0.24798605
0000b0 7c 3c 8c bc 52 7c 03 3d ca 64 d8 bc 03 f4 78 3d
       -0.017118685 0.032100983 -0.026415247 0.060779583
0000c0 69 67 b6 3c 70 80 48 bd f1 42 cc ba 04 76 5d 3e
       0.022266107 -0.048950613 -0.0015583915 0.2162705
0000d0 49 b4 95 bc 12 04 a6 bd ed 2f 3b 3d 63 db fd 3c
       -0.018274443 -0.08106245 0.045700002 0.0309884
0000e0 f6 be 87 3d 49 58 b0 3c 11 08 22 bd d8 57 47 bd
       0.0662822 0.021526473 -0.039558474 -0.04866776
0000f0 8a a6 10 bd da 5c 2c bd 2d 07 d6 3b 0b 71 bd bd
       -0.035315074 -0.042080738 0.006531617 -0.09250077
000100 29 08 08 bd d8 36 63 bd 07 e1 6a 3e 92 da 45 3d
       -0.033210907 -0.055472225 0.22937404 0.048304148
000110 f7 45 0f 3c 8f 52 f7 bc 14 a5 2b 3d 2f 66 8c bd
       0.008744708 -0.030190734 0.041905478 -0.068554275
000120 ac 1a 91 bd 5e 0a 27 bd 1b e4 4b bd 43 a5 03 bc
       -0.070851654 -0.04078137 -0.049778085 -0.008035007
000130 09 31 5c bd be 04 3a bd 89 e0 8e bb 8a 1d cc 3d
       -0.0537577 -0.04541468 -0.004360263 0.09966572
000140 98 74 39 bc c1 d9 aa 3c a8 4b 90 bd dc ab f6 bc
       -0.011319302 0.020855786 -0.0704568 -0.030111246

fc3.weight f4 [10, 84]
000000 2d 19 3d 3e 82 1b 7d 3c ad 50 e7 bd d2 68 c4 3d
       0.18466635 0.015448453 -0.112946846 0.095903054
000010 f4 36 c8 3e 41 73 e1 bd a7 93 ca bd e1 33 20 3d
       0.39104426 -0.11008311 -0.09891444 0.039111976
000020 31 a3 de 3c cc 0b 1d 3c 19 6c 9d bb 5d 29 fc 3d
       0.027177425 0.009585332 -0.004804146 0.12312577
000030 cb b7 2b 3d 80 47 d1 bd bb d6 f5 3d cd 53 cd 3e
       0.041923326 -0.10218716 0.12003847 0.40102997
000040 d5 d3 ca 3d a1 8e 4b 3d 03 3e 74 3e 4c 81 33 3e
       0.09903685 0.04969657 0.2385178 0.17529792
000050 31 95 04 be 19 4d 9e bd c0 be 2c 3d a3 1c ed bc
       -0.12947537 -0.07729549 0.0421741 -0.02894432
000060 b2 27 b2 bd a2 b0 6b bd d3 e0 5e bd fb 38 9f 3e
       -0.086989775 -0.057541497 -0.054413628 0.3109816
000070 19 af 43 3e 25 a9 52 bd 49 c8 e8 3d 96 f4 c6 3e
       0.19109763 -0.05143084 0.11366326 0.3885848
000080 b1 90 97 3e db 05 b2 3b 94 aa 75 bd 32 26 d7 bd
       0.29602578 0.005432827 -0.05997713 -0.10505332
000090 64 9d cc 3d 5e 8d b9 3d 83 75 7f bd 9e 69 ea 3c
       0.099909574 0.09060167 -0.062367927 0.028614815
0000a0 6a c6 89 3c 47 fc db 3d 2f ec 5d 3d a7 7d d8 3e
       0.016818244 0.107414775 0.05418032 0.42283365
0000b0 ca 78 fb bc f4 a6 31 bd 5f 5b 7c 3d f3 2a b1 bc
       -0.030697245 -0.04337211 0.061610576 -0.021626925
0000c0 4f 1c e5 bc b0 03 95 bd 57 e5 df bd 4d f6 ab 3e
       -0.0279676 -0.07276094 -0.10932415 0.3358635
0000d0 ec 1f d2 3d ca 7b d5 bd 2b eb b4 bd 92 d1 89 bd
       0.10259995 -0.104240015 -0.08833917 -0.067294255
0000e0 a7 74 0a 3e aa 51 85 bd 14 90 35 bc ef 70 c3 bd
       0.13521062 -0.06509717 -0.011081714 -0.09543025
0000f0 de 84 03 3d 4e 89 77 bb 76 fe c0 bd b3 94 d1 bd
       0.032109134 -0.003777105 -0.094235346 -0.1023344
000100 24 d7 27 be 7c ac 87 bc ed a9 0f 3f f5 b2 24 3e
       -0.16390663 -0.01656174 0.5611866 0.16083892
000110 8e f8 37 bd 27 10 ba 3d 26 9b c7 3d ee f1 9b 3d
       -0.044914775 0.09085112 0.09746389 0.07614504
000120 73 3c b4 bd c9 03 84 b9 63 f1 c6 bd ba 9c 3d 3e
       -0.08800592 -0.00025179822 -0.097140096 0.18516818
000130 10 94 75 bd 3e 65 ff bb 12 69 96 3a 24 82 be 3d
       -0.059955657 -0.0077940514 0.0011475405 0.09302166
000140 e0 b5 14 be 25 3a 5c bd 7b 83 d3 bd c4 94 cb bd
       -0.14522505 -0.05376639 -0.10327812 -0.09940484
000150 38 b5 8a 3d 96 9e 73 bd 91 21 83 3e 93 aa 94 bc
       0.06772846 -0.05947741 0.25611547 -0.018147742
000160 70 07 f1 3d 22 76 1f 3c 3a c1 80 bc d3 2c ba bd
       0.11768997 0.009732755 -0.015717138 -0.09090581
000170 a2 59 ec 3d 88 6d b6 3d 6a b5 4e 3e dd 15 53 3e
       0.115405336 0.0890761 0.20186391 0.20613809
000180 56 8a ba bd d4 26 9a bd 09 d7 9b 3d e3 8c 8a 3e
       -0.09108417 -0.07526937 0.07609374 0.27060613
000190 43 75 d3 3e 7a aa 75 bd 82 1b 7a 3e 68 77 85 3e
       0.413004 -0.059977032 0.24424556 0.26067662
0001a0 4e c7 ca ba 60 37 a0 3d 01 fb 4b 3d 64 2f 70 bc
       -0.0015470774 0.07823062 0.049799923 -0.014659736
0001b0 3e 90 42 3c 1a 9f 87 3c 23 69 16 bd 1e 07 d6 3d
       0.01187521 0.016555358 -0.03672136 0.10450576
0001c0 3e 14 94 3c f4 f1 be bc 80 0c 40 3d 33 a1 46 3d
       0.018076058 -0.023308732 0.04688692 0.048493575
0001d0 fb 34 56 3e 33 54 0f 3e 73 62 e3 3d fd b4 f1 3b
       0.20918648 0.13996963 0.11102762 0.007376312
0001e0 3f 4e cd 3c b7 a6 2b bd d9 30 d6 3d 04 0a 4a bd
       0.025061725 -0.04190704 0.10458536 -0.049325958
0001f0 6a a1 d9 3d 63 a0 ac bd c1 82 61 3e e9 96 3a 3e
       0.106264904 -0.08429029 0.22022535 0.1822163
000200 dd 4b 78 bc b4 8a 85 3d f6 e2 85 3d 29 f8 75 bd
       -0.015154806 0.06520596 0.0653743 -0.060051117
000210 10 52 d0 bd 5c 2b e7 3d 2b 2f 24 3d 38 02 f4 3e
       -0.10171902 0.11287567 0.040084045 0.47657943
000220 2b 93 0d bc 88 f3 db bc c7 06 ac bd 2e 50 91 3e
       -0.008641045 -0.026849523 -0.0839973 0.28381485
000230 23 a4 d2 bd 75 8b b4 bd 95 6d b1 bd ff d0 02 3e
       -0.10285213 -0.08815662 -0.08663479 0.12775038
000240 f3 36 5c 3d 75 6b 46 bd 9a 6a bf bd 01 36 c5 3c
       0.05376334 -0.048442323 -0.093465045 0.024073603
000250 54 ab 25 3e 0e e0 1f bd d6 85 ca 3e 9a 86 1c 3e
       0.16178638 -0.039032035 0.39555234 0.15285721
000260 6e 91 6d bc ec 71 48 3d 70 54 89 3d 59 96 3d 3e
       -0.014500005 0.04893677 0.06705558 0.18514384
000270 b4 74 14 3d f1 3d df 3d 9f b7 59 bd 07 67 6e bd
       0.03624411 0.10900486 -0.05315363 -0.058203723
000280 0d 4f 8f bd 16 65 dd bd 5e 5f 48 3e 00 06 1d 3e
       -0.069974996 -0.10810296 0.1956763 0.1533432
000290 8f 7d 89 3e 4b e9 aa 3e 9c 32 bb 3b 88 fb 10 bd
       0.26853606 0.33381113 0.00571282 -0.03539613
0002a0 da 25 8e bd d5 32 c3 3d f8 19 5b bd 7e 98 94 3c
       -0.06940813 0.0953118 -0.053491563 0.01813912
0002b0 d7 6d fb bd 99 38 ab bd 35 3c 75 bd d0 03 22 3d
       -0.1227681 -0.083604045 -0.05987187 0.039554417
0002c0 f9 0b 87 3d 88 29 ca bd 72 36 04 be 8f 5f a1 3d
       0.065940805 -0.09871203 -0.12911394 0.078795545
0002d0 74 2c ba 3d 5f 6e 22 3d eb 19 87 3d 4b ce be bc
       0.0909051 0.03965604 0.0659674 -0.023291728
0002e0 44 1c 12 be e1 09 4e bc b0 5e 9b bd 5c 27 47 3d
       -0.14268595 -0.0125755975 -0.075864196 0.04862152
0002f0 52 c9 95 3d d6 9c 83 3d ca 0c b7 bd ef 1c 29 bd
       0.073137894 0.064263985 -0.08937986 -0.04128736
000300 93 51 f0 3c 0e ff cd 3d 19 4e df bd 08 ca aa 3b
       0.029335773 0.100584134 -0.10903568 0.0052120723
000310 ed 8d 72 bc 9d c9 b8 bd 2f 7e d4 bd 89 70 06 bd
       -0.014804346 -0.0902283 -0.1037563 -0.032822166
000320 be a7 03 bd 1f 2d 7b 3c cc 7a f4 3c e1 5d 5f 3d
       -0.032142393 0.015330582 0.02984371 0.05453289
000330 f2 65 d5 bd 8a d0 07 bd 4d 94 01 3c 45 a0 26 bc
       -0.10419835 -0.033157863 0.007908893 -0.010170047
000340 4a 14 03 bd 69 74 c4 3d f0 13 31 bc 62 9a 51 bd
       -0.03200177 0.09592516 -0.010807976 -0.05117262
000350 fa 41 a5 ba 24 bd aa bd ff 0a f3 bd 62 39 5f bd
       -0.0012608164 -0.08336857 -0.11867332 -0.054498084
000360 2a ca b4 3c 9d a9 04 bc b2 d5 af ba 11 97 30 be
       0.022069056 -0.00809708 -0.0013415127 -0.17245127
000370 2b 26 6d 3d d1 44 fa bc 3d 69 cd 3d 0d 2b 48 3d
       0.057897728 -0.030550392 0.10029838 0.04886918
000380 33 16 9b 3d 5d e6 bf 3d 8c a2 d7 bd 73 f6 b1 bd
       0.075725935 0.0937011 -0.1052905 -0.086895846
000390 92 16 24 3d 8d 84 74 3b 35 7a c7 3d 9a ec 62 3c
       0.040060587 0.0037310452 0.09740106 0.0138503555
0003a0 4a e8 17 3d 91 0b c4 bc 89 9f 84 bc 11 4d 80 3d
       0.037086762 -0.023931297 -0.016189354 0.06264699
0003b0 05 70 68 3d 4e c0 7f 3d cb eb b3 3b 38 07 3c 3c
       0.056747455 0.062439255 0.005490755 0.01147633
0003c0 23 9d 84 3d 1c 0b a2 bc 5f 7e 31 3d 43 35 9d 3c
       0.06475284 -0.019780688 0.043333407 0.019190436
0003d0 ea 29 92 3d 06 3a 97 3d aa 0d c7 bb 68 e4 c7 bd
       0.07136901 0.07384114 -0.006074627 -0.09760362
0003e0 80 58 ba bd a5 c6 52 bd b5 cc 57 bd 88 db a5 bd
       -0.09098911 -0.051458973 -0.05268546 -0.08098513
0003f0 a6 fb ee bd e1 21 58 bd f5 88 2c 3d 91 10 0c bd
       -0.11669092 -0.052766684 0.0421228 -0.034195486

fc3.bias f4 [10]
000000 a3 3c 25 3f 76 54 b2 3e a1 f0 2e be c3 38 7d bd
       0.6454565 0.34830064 -0.1708398 -0.06182171
000010 1f 06 af bd 16 1c bd bd 61 96 45 be fd 1e af bd
       -0.085460894 -0.092338726 -0.19295646 -0.085508324
000020 55 79 2b be c9 d4 12 be
       -0.16745503 -0.14338984
