Unmasked.pth (torch, 251519 bytes, 10 tensors)

conv1.weight f4 [6, 3, 5, 5]
-0.20198154 -0.03240731 0.096902266 0.12963243 0.13992317 -0.08933008 -0.028994743 0.010349659
0.12597404 0.14529248 -0.16342972 -0.15485002 -0.17577487 0.117637426 0.08078378 -0.2654659
-0.12297291 -0.105155244 -0.06752471 -0.028705977 -0.045747317 -0.055729732 -0.04511488 0.025015147
0.021259684 -0.04356031 -0.07785413 0.113888614 0.09971108 0.16486983 0.009216743 -0.0945367
0.097492844 0.057627086 0.06121717 -0.06604198 -0.11552766 0.083163105 0.03312572 0.09756343
-0.11141503 -0.076872736 -0.09123869 0.005137521 0.108604066 -0.114349045 -0.03196168 0.062159125
0.075698696 0.19895285 0.049313344 0.114529215 -0.017564515 0.1514883 0.0080675185 -0.09805106
-0.09727501 0.119965434 0.02710009 0.11217732 -0.105326384 -0.06061581 0.08003107 -0.022367967
0.019513486 0.009066112 -0.021633644 0.056277182 0.09607399 0.11521387 -0.016050354 -0.08424829
-0.016379194 0.08336545 0.14976147 0.16104469 0.13234563 0.021182558 -0.03593116 -0.12445958
0.075235285 -0.071147665 0.055077232 -0.1299133 -0.05294415 0.12264855 0.08421794 -0.021279426
-0.021096371 0.02670055 -0.04013777 -0.0045681074 0.008944573 -0.0049504056 -0.15028578 0.08917923
0.07456013 0.011059128 -0.043272227 -0.04426121 0.03443857 0.11052436 0.10795351 -0.0817025
-0.085338905 0.017830826 -0.025956376 -0.02483163 0.016938895 -0.00943213 0.043267515 -0.064231485
0.08852397 0.028866751 -0.0406144 0.043005552 0.008874641 -0.09510421 -0.10191564 -0.059825405
0.093769245 -0.054232195 -0.03363605 -0.114189245 -0.0030314696 -0.00895854 0.12486057 -0.07150597
-0.0787308 0.08468628 0.07803777 0.01628706 -0.09360503 0.058082014 -0.06986692 0.016870111
0.09486223 -0.071561575 0.011053805 0.034575634 0.106684186 0.05460736 0.06669656 0.0784056
-0.022768512 -0.04545888 0.060179308 -0.116202146 -0.10840911 0.021658136 -0.0622696 -0.085466765
-0.06936008 -0.022759384 -0.22013916 -0.06969849 -0.02150843 -0.043457456 -0.17295986 0.017650023
-0.084839694 -0.12126864 -0.15906954 -0.12812784 0.040476467 0.06283278 -0.020480467 -0.16611205
-0.060257267 0.09205363 -0.15370226 -0.035229154 0.11997239 0.10234934 0.015796622 -0.04056892
-0.04940629 -0.16583419 -0.13375746 -0.07130693 -0.0123450905 -0.09532669 0.086245105 -0.030596709
-0.06250087 -0.025124842 -0.13487485 -0.025450557 -0.047674004 0.14660925 0.105692364 -0.028187722
0.0025486276 0.08020537 -0.09448552 0.01380284 0.0468129 0.069627054 -0.03327186 -0.018418988
0.015646657 0.16703115 0.22667268 0.17429428 -0.068164244 0.059420172 0.1597132 0.22431104
0.29767558 0.13049196 0.14455709 0.124611445 0.025600199 0.27885652 0.28774294 0.09249188
0.06393246 0.17248791 0.2284111 0.22287433 -0.08287531 -0.007042744 0.14790834 -0.017643508
0.01900817 0.22492698 0.2246934 0.15001479 0.1946974 0.08221955 0.18877034 0.06405335
0.10069063 0.11546975 -0.014776574 -0.040790085 0.033518 0.1500974 0.006131846 0.017343894
-0.06206239 0.15858588 0.06790767 0.04083867 -0.07085699 -0.0005262214 0.08622281 0.1733414
0.13186875 -0.0729133 0.088481955 0.02285592 0.113034345 -0.044302642 0.00941675 0.034837585
00000000: 40d4 4ebe 87bd 04bd b274 c63d 5dbe 043e
00000010: 0548 0f3e b0f2 b6bd 6286 edbc 9e91 293c
00000020: 57ff 003e 8dc7 143e 1f5a 27be 0191 1ebe
00000030: 54fe 33be e4eb f03d f771 a53d 25eb 87be
00000040: 39d9 fbbd a25b d7bd 654a 8abd cc28 ebbc
00000050: 8a61 3bbd dc44 64bd 61ca 38bd 91ec cc3c
00000060: ca28 ae3c 4c6c 32bd fc71 9fbd 6f3e e93d
00000070: 5335 cc3d a3d3 283e d201 173c 759c c1bd
00000080: 54aa c73d 610a 6c3d dbbe 7a3d 0541 87bd
00000090: c499 ecbd 6b51 aa3d d6ae 073d 56cf c73d
000000a0: 902d e4bd 746f 9dbd 5adb babd a658 a83b
000000b0: cf6b de3d d52f eabd 40ea 02bd 919a 7e3d
000000c0: eb07 9b3d 4cba 4b3e cafc 493d 4b8e ea3d
000000d0: 75e3 8fbc c01f 1b3e a02d 043c ffce c8bd
000000e0: 1f38 c7bd 70b0 f53d 0201 de3c 39bd e53d
000000f0: 5cb5 d7bd 4948 78bd 54e7 a33d 073d b7bc
00000100: bfda 9f3c 088a 143c 0a39 b1bc e782 663d
00000110: 71c2 c43d 40f5 eb3d 087c 83bc 5e8a acbd
00000120: a92d 86bc 81bb aa3d 125b 193e e6e8 243e
00000130: 9d85 073e 0b87 ad3c 8d2c 13bd aae4 febd
00000140: f514 9a3d deb5 91bd aa98 613d fe07 05be
00000150: f7db 58bd 2a2f fb3d 757a ac3d 3152 aebc
00000160: 4cd2 acbc 1dbb da3c 8167 24bd 10b0 95bb
00000170: 428c 123c 0337 a2bb 84e4 19be 9aa3 b63d
00000180: fbb2 983d 5831 353c 383e 31bd 3e4b 35bd
00000190: 750f 0d3d 985a e23d bb16 dd3d a453 a7bd
000001a0: 2ac6 aebd f411 923c 77a2 d4bc b46b cbbc
000001b0: 70c3 8a3c 3889 1abc 4739 313d cc8b 83bd
000001c0: 0e4c b53d f779 ec3c 495b 26bd 9726 303d
000001d0: f166 113c ffc5 c2bd 26b9 d0bd 7c0b 75bd
000001e0: 170a c03d 9422 5ebd f4c5 09bd 0ddc e9bd
000001f0: 9fab 46bb d7c6 12bc e6b6 ff3d b971 92bd
00000200: 9d3d a1bd 0070 ad3d 44d2 9f3d 716c 853c
00000210: feb3 bfbd 68e7 6d3d 6316 8fbd 3033 8a3c
00000220: 2147 c23d e08e 92bd 051b 353c 2e9f 0d3d
00000230: 3d7d da3d f8ab 5f3d 3598 883d 1d93 a03d
00000240: 0885 babc 1733 3abd 947e 763d 64fb edbd
00000250: 9805 debd 676c b13c 680e 7fbd 3309 afbd
00000260: a80c 8ebd e371 babc 296c 61be 15be 8ebd
00000270: 7232 b0bc 7200 32bd 641c 31be c896 903c
00000280: 6fc0 adbd b15b f8bd 20e3 22be f233 03be
00000290: a7ca 253d 79ae 803d a7c6 a7bc 4719 2abe
000002a0: 53d0 76bd 9d86 bc3d 2064 1dbe 724c 10bd
000002b0: 16b4 f53d 889c d13d eb67 813c 992b 26bd
000002c0: 405e 4abd 70d0 29be b7f7 08be 5e09 92bd
000002d0: 1043 4abc a43a c3bd 46a1 b03d f3a5 fabc
000002e0: 7500 80bd 9dd2 cdbc a21c 0abe b07d d0bc
000002f0: d145 43bd bc20 163e 3d75 d83d f0e9 e6bc
00000300: e006 273b b742 a43d a081 c1bd 4f25 623c
00000310: e2be 3f3d a198 8e3d 1348 08bd 6be3 96bc
00000320: 6b2d 803c 370a 2b3e e21c 683e 337a 323e
00000330: b299 8bbd 9162 733d db8b 233e cbb1 653e
00000340: ef68 983e af9f 053e c606 143e 4934 ff3d
00000350: 82b7 d13c 48c6 8e3e 0b53 933e 626c bd3d
00000360: 06ef 823d aca0 303e 99e4 693e 2b39 643e
00000370: 88ba a9bd d2c6 e6bb 4975 173e 1e89 90bc
00000380: 06b7 9b3c 4253 663e 0716 663e 7a9d 193e
00000390: c15e 473e b962 a83d 034d 413e 672e 833d
000003a0: e436 ce3d 677b ec3d 7219 72bc 8113 27bd
000003b0: 2c4a 093d 22b3 193e a7ed c83b c814 8e3c
000003c0: 2235 7ebd 5664 223e 2d13 8b3d 7346 273d
000003d0: 781d 91bd 1ff2 09ba 9695 b03d 6880 313e
000003e0: 9a08 073e 9153 95bd 0736 b53d 573c bb3c
000003f0: 8d7e e73d b076 35bd b648 1a3c dbb1 0e3d

conv1.bias f4 [6]
-0.101673804 0.013700095 0.27377453 0.05063066 0.09841002 0.1915511
00000000: 5b3a d0bd 5d76 603c 2d2c 8c3e 1862 4f3d
00000010: 318b c93d f925 443e

conv2.weight f4 [16, 6, 5, 5]
-0.07172555 0.04010737 -0.0919807 -0.00269492 -0.11129637 0.019642066 -0.03347473 0.033877634
-0.102024876 -0.035273213 -0.03993226 0.029256167 0.008173484 -0.032699563 0.00918413 -0.030332994
-0.055125628 -0.09469504 -0.07116695 -0.0052167447 -0.055411763 0.00999577 -0.07312367 0.026857603
-0.012803526 0.053519838 0.0077741705 0.08156794 0.00096309785 -0.08863343 -0.018615225 0.05812887
0.05062817 0.062111724 0.029591544 0.00384137 -0.00080846105 -0.007126107 -0.07327386 -0.038023036
-0.082649425 -0.094751656 -0.0464931 -0.07657459 0.051838025 -0.015458282 -0.039620243 -0.009581415
0.03998831 -0.06780341 -0.00215757 0.07078891 0.0034393077 0.05789461 0.086298175 0.064697005
-0.028575698 -0.024821837 0.061852388 -0.061508894 -0.07266375 0.0148285 -0.005120392 -0.04218206
-0.0042910445 0.075651124 -0.032095116 -0.07858511 0.04957555 -0.04253807 0.06652839 0.040472653
-0.06580059 -0.019286713 0.060313314 -0.052349538 -0.018874414 -0.001259259 -0.056908417 -0.09606407
-0.034925506 -0.05853408 -0.08857053 -0.030827943 0.014095977 -0.05910014 -0.12965262 -0.008773657
-0.044618987 -0.06836988 -0.110644035 -0.08099368 0.023421543 -0.0347641 0.06598401 -0.0027280096
0.07953043 -0.07692844 0.02678717 -0.0011885196 0.07643533 -0.0024954134 -0.07930706 0.054073375
-0.02786509 -0.06211866 -0.03625695 -0.004507554 0.056165863 -0.002046432 0.05962929 0.022273168
0.025562055 -0.051110223 0.036712475 0.08046295 0.009584857 -0.028732939 -0.0148548605 0.011991923
0.10767624 -0.010783418 0.08587659 0.08556219 -0.0872657 0.06523645 -0.017588459 0.088205256
0.017257998 -0.07088191 -0.026196785 0.025308415 0.074711956 -0.030410634 -0.043445896 0.00022376115
-0.0045592934 0.088206716 -0.043914236 0.07138262 -0.037787136 0.09479236 0.105680995 0.07917847
0.08032163 0.13301511 0.07883275 -0.015820298 0.07811454 -0.04410319 -0.018723307 0.0039939135
0.032202102 0.016518362 0.019894673 -0.041153792 -0.12741117 -0.08413224 0.09851898 -0.06775697
-0.061110515 -0.059347555 -0.029368142 -0.00085818383 0.04977381 -0.03283454 0.054093048 0.021307698
-0.09378352 -0.099151105 -0.027137747 -0.013610703 -0.08214788 -0.023021031 -0.035482347 -0.10732996
0.004403 -0.059052747 -0.073372394 0.015644189 0.04362785 0.05569074 -0.055869143 -0.0058929776
0.053249713 -0.047579356 0.06591009 -0.021396335 0.03759688 0.04297209 -0.09318898 0.010810627
0.07401743 -0.06513019 -0.04129993 -0.008126109 -0.01057678 -0.077815115 -0.012903587 -0.008630662
-0.046906665 -0.05451128 0.062010046 0.044495832 -0.041952662 -0.012658543 -0.049896535 -0.05716788
-0.07214967 -0.043539926 -0.0729198 -0.020140264 -0.017685112 -0.073062964 -0.053474613 0.08463799
-0.0454273 -0.06767873 0.051651977 -0.03807591 0.033107344 -0.03279092 -0.017117811 -0.04980791
0.04966193 -0.03448074 -0.14166549 -0.08564836 -0.017822392 0.09495742 -0.07507836 -0.0656797
-0.14035429 -0.12328005 -0.08278429 -0.01426139 -0.10335635 -0.093529925 -0.07365097 -0.012692554
-0.03334195 -0.025792446 -0.083563134 -0.07034061 -0.0059761396 -0.026800325 -0.015482721 0.043863263
0.05640264 -0.076385066 -0.048823968 -0.03638161 -0.011884856 -0.02650092 -0.061781548 -0.015475961
00000000: d8e4 92bd a047 243d 6160 bcbd 419d 30bb
00000010: 5aef e3bd 66e8 a03c cc1c 09bd 46c3 0a3d
00000020: 6bf2 d0bd a57a 10bd 0290 23bd a1aa ef3c
00000030: 14ea 053c faef 05bd 0879 163c e67c f8bc
00000040: 69cb 61bd 79ef c1bd fabf 91bd 3af1 aabb
00000050: 72f7 62bd 4cc5 233c ddc1 95bd 7a04 dc3c
00000060: e1c5 51bc 9e37 5b3d 78be fe3b 180d a73d
00000070: 6778 7c3a 7285 b5bd f57e 98bc 8a18 6e3d
00000080: 7c5f 4f3d dd68 7e3d f769 f23c 7fbf 7b3b
00000090: e7ee 53ba 1e82 e9bb 9b10 96bd 0bbe 1bbd
000000a0: 1a44 a9bd 280d c2bd 8c6f 3ebd 23d3 9cbd
000000b0: 1c54 543d bc44 7dbc d648 22bd 5efb 1cbc
000000c0: c8ca 233d 84dc 8abd 0566 0dbb c7f9 903d
000000d0: 0266 613b e622 6d3d 19bd b03d dd7f 843d
000000e0: 9517 eabc 2a57 cbbc ee58 7d3d c0f0 7bbd
000000f0: bbd0 94bd 3df3 723c f6c8 a7bb 19c7 2cbd
00000100: e49b 8cbb faee 9a3d 2b76 03bd 3bf1 a0bd
00000110: bb0f 4b3d 663c 2ebd 0940 883d a7c6 253d
00000120: 76c2 86bd 2bff 9dbc 180b 773d 786c 56bd
00000130: 849e 9abc b80d a5ba cd18 69bd 3dbd c4bd
00000140: 0c0e 0fbd 6ec1 6fbd 7764 b5bd e28a fcbc
00000150: d0f2 663c fd12 72bd a8c3 04be 62bf 0fbc
00000160: 66c2 36bd 8205 8cbd 5799 e2bd 04e0 a5bd
00000170: 89de bf3c cd64 0ebd a022 873d 68c8 32bb
00000180: dae0 a23d a88c 9dbd c470 db3c 1ac8 9bba
00000190: 208a 9c3d 178a 23bb bd6b a2bd 0b7c 5d3d
000001a0: 5445 e4bc 2370 7ebd 2b82 14bd 1bb4 93bb
000001b0: 2d0e 663d 6f1d 06bb d83d 743d 3876 b63c
000001c0: 8467 d13c f458 51bd d25f 163d c2c9 a43d
000001d0: ce09 1d3c 5761 ebbc cd61 73bc c579 443c
000001e0: 5c85 dc3d efac 30bc 11e0 af3d 3b3b af3d
000001f0: 5cb8 b2bd b09a 853d ac15 90bc f5a4 b43d
00000200: a560 8d3c 892a 91bd a49a d6bc 9853 cf3c
00000210: 9502 993d b91f f9bc 53f4 31bd 6da1 6a39
00000220: 2066 95bb b9a5 b43d 6adf 33bd 0d31 923d
00000230: afc6 1abd 7f22 c23d 476f d83d 5228 a23d
00000240: ab7f a43d 1d35 083e 1173 a13d 9299 81bc
00000250: 84fa 9f3d 8ca5 34bd 9f61 99bc 60df 823b
00000260: 5ae6 033d 8451 873c 27fa a23c e190 28bd
00000270: 1378 02be 864d acbd 52c4 c93d 2bc4 8abd
00000280: 054f 7abd 6c16 73bd 7595 f0bc bef7 60ba
00000290: 9fdf 4b3d 837d 06bd ac90 5d3d 7b8d ae3c
000002a0: 9311 c0bd bc0f cbbd fb4f debc 6dff 5ebc
000002b0: 263d a8bd 9a96 bcbc f055 11bd cfcf dbbd
000002c0: 0b47 903b 4be1 71bd 4444 96bd 3e28 803c
000002d0: 1eb3 323d f91b 643d 0bd7 64bd e119 c1bb
000002e0: 5f1c 5a3d 92e2 42bd dffb 863d 5e47 afbc
000002f0: 30ff 193d 8103 303d ddd9 bebd 0e1f 313c
00000300: 7396 973d fa62 85bd 1e2a 29bd 5f23 05bc
00000310: 3b4a 2dbc 885d 9fbd 9169 53bc 9f67 0dbc
00000320: 3421 40bd 3847 5fbd 3ffe 7d3d 4341 363d
00000330: 8ed6 2bbd c765 4fbc 4f60 4cbd de28 6abd
00000340: 35c3 93bd ec56 32bd fa56 95bd 32fd a4bc
00000350: 5ee0 90bc 09a2 95bd 3208 5bbd af56 ad3d
00000360: fa11 3abd 259b 8abd 0691 533d 7cf5 1bbd
00000370: 919b 073d c64f 06bd a73a 8cbc 6103 4cbd
00000380: 4f6a 4b3d ad3b 0dbd c210 11be 6868 afbd
00000390: 4400 92bc 0979 c23d afc2 99bd 1483 86bd
000003a0: 09b9 0fbe 407a fcbd cf8a a9bd 9ba8 69bc
000003b0: 7eac d3bd 9e8c bfbd 52d6 96bd 6ef4 4fbc
000003c0: 9291 08bd ae4a d3bc 2623 abbd bd0e 90bd
000003d0: 7ed3 c3bb 5b8c dbbc 3dab 7dbc f7a9 333d
000003e0: 7406 673d c66f 9cbd a4fb 47bd e204 15bd
000003f0: b3b8 42bc 7518 d9bc a60e 7dbd e38e 7dbc

conv2.bias f4 [16]
0.10030178 0.1604181 -0.10153754 0.13110182 0.12126008 0.083013766 -0.007945964 0.1713293
0.08017534 -0.058917463 0.18899512 0.1826561 0.14519998 0.13214707 -0.0038938525 -0.036921702
00000000: 056b cd3d a444 243e eaf2 cfbd 8e3f 063e
00000010: 3457 f83d 1f03 aa3d ca2f 02bc f370 2f3e
00000020: f832 a43d 7053 71bd f087 413e 330a 3b3e
00000030: 4eaf 143e 9051 073e 0130 7fbb 363b 17bd

fc1.weight f4 [120, 400]
-0.04223954 0.035740256 -0.0072104116 -0.0054970286 0.0109014865 0.004300257 -0.023696408 0.018837968
-0.046239763 0.010293121 -0.0011152287 0.015698688 0.018604277 -0.009134804 -0.010566854 -0.023160674
-0.0046473793 -0.041566912 -0.03145943 -0.0052002436 0.04461161 0.009405092 -0.04179536 0.014487929
-0.02820196 0.0020285128 -0.043375373 0.022828313 -0.010699374 -0.034638405 -0.02837552 0.04741988
0.032081608 -0.005464981 0.046034295 0.005466619 -0.017007845 -0.022239441 -0.0037460846 -0.03207901
-0.0064799977 0.0017661708 -0.028925823 0.036791414 -0.001636752 -0.033193804 -0.02680724 -0.002624804
-0.03329182 0.04224614 -0.0214848 0.044376686 0.045096282 -0.031370524 0.040337626 -0.008495324
-0.019947385 -0.012962872 0.045715693 -0.00568653 -0.028693078 0.03654 0.04963219 0.03347378
-0.02704629 -0.009305844 0.0022669549 -0.024588048 0.024442425 -0.042264547 0.046654437 -0.042578306
-0.045002293 0.04311364 0.04026048 -0.019621078 0.029788217 0.016014932 0.030855883 -0.018959021
-0.007954251 -0.034094788 -0.02648134 0.014962226 -0.0031852864 0.056837574 0.0035873933 0.05467412
0.0029266537 0.013192264 0.05477019 -0.015634753 0.010504445 -0.0018006922 -0.03513742 -0.03972607
0.0048003886 -0.03149328 -0.016056184 -0.008563446 0.033413753 -0.036641102 -0.005782182 0.0490614
0.03450308 -0.033238716 0.023876341 0.013561058 0.0018750889 0.048256367 0.032767154 0.029920125
0.03956525 -0.022624161 -0.017776338 -0.027912518 -0.041732725 -0.026995111 0.012425565 0.034852076
0.012085592 0.0465369 0.013612449 0.03509638 0.029922491 -0.0097370045 0.014564224 0.0012175061
-0.04513 -0.01187631 0.054266144 -0.041669134 -0.022487009 0.052761067 0.026916377 -0.04032327
0.03389829 0.04488795 -0.022120414 0.007793342 0.032136254 -0.043377806 0.055545673 -0.028615847
0.038207226 0.0063776593 -0.014246261 -0.011276837 0.054762542 0.027456451 -0.011435723 0.009949663
-0.01484839 0.044685088 -0.04414869 -0.0025333888 0.00032822278 0.0013823156 -0.04460674 0.04892873
0.030570533 0.0244327 -0.0013939495 0.0055240677 0.034179714 0.0409639 -0.0030011844 -0.028756626
0.033772185 -0.045050222 0.03665549 -0.041059844 0.010811404 0.017709631 -0.0020795034 0.048862718
0.0062997644 0.050738405 -0.029125761 0.035357263 -0.0065474003 -0.044762585 -0.009961095 0.014505577
0.037212763 -0.014212108 -0.01838873 -0.016696077 -0.017512497 -0.013356251 -0.01089002 0.046813164
0.029211469 0.023262583 0.033944026 0.043723967 -0.035757925 0.038174137 0.02622672 -0.017541433
-0.0029025052 0.0053554983 0.027902434 -0.02853448 0.0030363728 0.019675603 -0.045026377 0.006387246
0.011185415 0.040398814 -0.0021960577 0.00024619038 0.030938314 0.016990865 0.033510365 -0.010737898
-0.0074435985 -0.0355658 -0.040349055 -0.02958924 5.9927566e-05 -0.0109648695 0.037378654 0.02742784
-0.030533414 -0.027994663 0.008081817 -0.047841143 0.02332848 -0.0020413136 -0.0025731733 0.04103674
-0.0050753993 -0.0018501736 0.014525383 -0.0100318 0.03523532 -0.010440601 -0.0293798 -0.03340786
0.0462645 -0.02669648 -0.006514758 -0.011016257 -0.008467911 0.037561584 -0.045191973 -0.025273357
-0.004288458 -0.027404984 0.04869975 0.03165098 -0.031711258 0.054114353 0.016392404 -0.016815677
00000000: 5e03 2dbd 6064 123d 5145 ecbb 6b20 b4bb
00000010: 269c 323c 2ce9 8c3b f81e c2bc 1552 9a3c
00000020: e865 3dbd 7ba4 283c de2c 92ba 899a 803c
00000030: ff67 983c 25aa 15bc 9920 2dbc 74bb bdbc
00000040: 0b49 98bb 1142 2abd 9adb 00bd ce66 aabb
00000050: aaba 363d d117 1a3c 9d31 2bbd c75e 6d3c
00000060: cc07 e7bc ccf0 043b 60aa 31bd 7102 bb3c
00000070: 6d4c 2fbc 00e1 0dbd c773 e8bc 593b 423d
00000080: 0168 033d 9513 b3bb 758e 3c3d 5321 b33b
00000090: 0954 8bbc 7d2f b6bc df80 75bb 4865 03bd
000000a0: 2956 d4bb dc7e e73a d9f5 ecbc 98b2 163d
000000b0: 4988 d6ba 3af6 07bd db9a dbbc e704 2cbb
000000c0: 015d 08bd 4a0a 2d3d e400 b0bc 54c4 353d
000000d0: e1b6 383d 617e 00bd 1139 253d f92f 0bbc
000000e0: b368 a3bc 3a62 54bc 6140 3b3d 1256 babb
000000f0: bf0d ebbc f8aa 153d 204b 4b3d cd1b 093d
00000100: 2e90 ddbc 8a77 18bc 3191 143b e06c c9bc
00000110: 7b3b c83c 971d 2dbd b918 3f3d 9766 2ebd
00000120: 5354 38bd ee97 303d 2ce8 243d 62bc a0bc
00000130: 6b06 f43c bf31 833c 7ac5 fc3c f34f 9bbc
00000140: 8c52 02bc faa6 0bbd 65ef d8bc 2024 753c
00000150: 3dc0 50bb 84ce 683d 791a 6b3b f8f1 5f3d
00000160: 1acd 3f3b 5e24 583c b556 603d 7414 80bc
00000170: d61a 2c3c 3405 ecba 41ec 0fbd ceb7 22bd
00000180: 944c 9d3b 19ff 00bd 4288 83bc b24d 0cbc
00000190: dcdc 083d fb14 16bd 7578 bdbb 9bf4 483d
000001a0: 1a53 0d3d 5225 08bd 5198 c33c 332f 5e3c
000001b0: 8bc5 f53a 78a8 453d da36 063d 0d1b f53c
000001c0: 2c0f 223d 4e56 b9bc af9f 91bc cba8 e4bc
000001d0: efef 2abd da24 ddbc 9994 4b3c 0dc1 0e3d
000001e0: a602 463c 7a9d 3e3d c006 5f3c 39c1 0f3d
000001f0: 0320 f53c f587 1fbc c89e 6e3c ba94 9f3a
00000200: 3cda 38bd db94 42bc 2d46 5e3d 41ad 2abd
00000210: ad36 b8bc fd1b 583d bc7f dc3c 032a 25bd
00000220: efd8 0a3d 6ddc 373d df35 b5bc 4b5f ff3b
00000230: 4ea1 033d edac 31bd dc83 633d c86b eabc
00000240: 2e7f 1c3d affb d03b 2669 69bc 7cc2 38bc
00000250: b04e 603d 5aec e03c e65c 3bbc e903 233c
00000260: a946 73bc b607 373d 42d5 34bd 3607 26bb
00000270: 5115 ac39 d12e b53a 8fb5 36bd 7e69 483d
00000280: 0e6f fa3c 1627 c83c 2fb5 b6ba 3d03 b53b
00000290: 0700 0c3d c3c9 273d 85af 44bb 0493 ebbc
000002a0: b454 0a3d 9586 38bd 1124 163d 5e2e 28bd
000002b0: 5122 313c ca13 913c 4748 08bb 4624 483d
000002c0: 416e ce3b 13d3 4f3d 2699 eebc c7d2 103d
000002d0: 938b d6bb f958 37bd dc33 23bc cda8 6d3c
000002e0: 696c 183d e7d9 68bc f6a3 96bc 36c6 88bc
000002f0: 5e76 8fbc 2dd4 5abc 0e6c 32bc 29bf 3f3d
00000300: e44c ef3c 2c91 be3c e408 0b3d e717 333d
00000310: e776 12bd 7c5c 1c3d 6bd9 d63c 0db3 8fbc
00000320: f537 3ebb 2d7d af3b a593 e43c 24c1 e9bc
00000330: e2fd 463b bb2e a13c 946d 38bd 1a4c d13b
00000340: 0843 373c 3a79 253d bceb 0fbb 1d13 8139
00000350: 5972 fd3c 6d30 8b3c 2a42 093d 02ee 2fbc
00000360: 6ee9 f3bb 72ad 11bd 0d45 25bd 2265 f2bc
00000370: bc5a 7b38 ffa5 33bc 5c1a 193d 59b0 e03c
00000380: 3621 fabc 1055 e5bc 9969 043c 13f5 43bd
00000390: 5e1b bf3c 8fc7 05bb afa2 28bb 2416 283d
000003a0: 894f a6bb 8681 f2ba dffb 6d3c 6b5c 24bc
000003b0: e952 103d 0e0f 2bbc e8ad f0bc aed6 08bd
000003c0: d87f 3d3d 94b2 dabc c079 d5bb 887d 34bc
000003d0: febc 0abc 2dda 193d 381b 39bd 120a cfbc
000003e0: 3186 8cbb 6b80 e0bc 6479 473d 75a4 013d
000003f0: aae3 01bd 03a7 5d3d 5d49 863c 08c1 89bc

fc1.bias f4 [120]
0.033689912 -0.012010525 0.020811506 0.0287162 0.009372459 -0.027388815 -0.013285718 -0.035939418
0.004276245 0.010448714 -0.018429644 0.015671823 -0.007177026 0.09038913 0.006130233 -0.026118526
0.071285054 0.091784455 0.030583184 0.09774276 0.014241468 0.04679193 -0.04363343 0.0964825
0.012269434 -0.007219538 0.03821616 0.051385712 0.0637724 -0.022802845 -0.011464125 0.038214568
0.034395415 -0.053302456 0.04789108 -0.009862588 0.03534473 0.01458623 -0.019164026 -0.014028364
-0.016924003 0.022708021 -0.03234739 -0.02833279 0.036497913 0.02693818 0.0065983864 0.058677644
-0.028207654 0.0007141127 0.018689904 0.007923777 0.013661921 -0.020361671 -0.005573994 -0.03197638
0.03349209 0.019420486 0.04942706 -0.038431313 0.005737292 0.006446915 -0.010325062 -0.003942519
-0.017393297 0.09735645 0.018718781 -0.009196084 -0.04755751 -0.032428164 0.031827603 -0.009665862
-0.0006161632 0.007828366 0.09532454 0.06487116 -0.004684258 0.050809357 -0.028558569 0.076690845
0.010898468 0.021390349 0.011951159 0.08870811 0.044543248 0.04807327 0.04985962 -0.020841202
-0.003107181 0.010678452 0.008404866 0.0340574 0.08518085 -0.02930328 0.040375214 -0.03458038
0.002266211 -0.035742488 -0.04192937 -0.039519116 0.06769972 -0.013261726 0.03858679 -0.036271002
0.031681936 0.07150434 -0.028276557 -0.026746958 0.029503115 0.0074371872 0.028419029 0.008990118
0.0736147 -0.03861291 0.034621228 0.09274305 0.020032661 0.013523798 0.04653049 -0.0022145812
00000000: 6ffe 093d cbc7 44bc e47c aa3c 3c3e eb3c
00000010: f18e 193c 825e e0bc 57ac 59bc 3635 13bd
00000020: be1f 8c3b 1531 2b3c c4f9 96bc 3262 803c
00000030: 422d ebbb f01d b93d 1fe0 c83b 85f6 d5bc
00000040: e6fd 913d 7df9 bb3d 9689 fa3c 5b2d c83d
00000050: 0c55 693c e5a8 3f3d f8b8 32bd 9e98 c53d
00000060: bc05 493c e091 ecbb 8c88 1c3d d379 523d
00000070: 1b9b 823d 08cd babc 06d4 3bbc e186 1c3d
00000080: 35e2 0c3d ad53 5abd 7029 443d b196 21bc
00000090: a3c5 103d 15fb 6e3c e0fd 9cbc 39d7 65bc
000000a0: 35a4 8abc 2c06 ba3c b27e 04bd 2b1a e8bc
000000b0: d67e 153d 75ad dc3c 4737 d83b f857 703d
000000c0: bd13 e7bc 4b33 3b3a 921b 993c bbd2 013c
000000d0: 40d6 5f3c 85cd a6bc 0da6 b6bb aaf9 02bd
000000e0: 002f 093d b617 9f3c 0774 4a3d 276a 1dbd
000000f0: e5ff bb3b a540 d33b 732a 29bc 3f30 81bb
00000100: 637c 8ebc d262 c73d 2158 993c 2cab 16bc
00000110: aacb 42bd 65d3 04bd a95d 023d 905d 1ebc
00000120: 0386 21ba 8c42 003c 8339 c33d 2cdb 843d
00000130: 677e 99bb 791d 503d a9f3 e9bc 1710 9d3d
00000140: 7d8f 323c d03a af3c cbce 433c 99ac b53d
00000150: fb72 363d 7ae8 443d 9a39 4c3d 2bbb aabc
00000160: d9a1 4bbb adf4 2e3c 90b4 093c c67f 0b3d
00000170: 4c73 ae3d 6f0d f0bc 7b60 253d 28a4 0dbd
00000180: b684 143b b766 12bd 22be 2bbd ccde 21bd
00000190: 27a6 8a3d b647 59bc 2f0d 1e3d e790 14bd
000001a0: ebc4 013d de70 923d 3da4 e7bc 701c dbbc
000001b0: 84b0 f13c a6b3 f33b 06cf e83c 4a4b 133c
000001c0: 4ec3 963d 9228 1ebd fdce 0d3d 11f0 bd3d
000001d0: 891b a43c ec92 5d3c c196 3e3d 8222 11bb

fc2.weight f4 [84, 120]
-0.016725559 -0.027510254 0.016576279 0.08892102 0.08196576 -0.029226184 0.008748717 -0.08516979
0.010111314 0.05559796 0.004604516 -0.0018440285 0.019185424 -0.064612344 -0.034015346 0.052039012
0.027834252 -0.06186001 -0.065346666 0.06927605 0.046901796 0.0032731195 -0.0244615 -0.07499181
-0.10090528 -0.053371012 0.070368335 0.03041743 -0.07348975 -0.06483266 -0.027901124 0.07532943
0.033122264 0.10225179 0.05941239 0.079079844 0.005720845 -0.06563571 -0.0794587 -0.06517978
0.091772996 -0.0090307025 -0.07673924 -0.0027957838 -0.08806381 0.097804405 -0.027397862 -0.04086675
-0.039715286 -0.038218834 0.067202605 0.049438175 0.066803604 0.010934547 -0.03107309 -0.07325203
0.05483458 -0.07182842 -0.026900075 0.09484207 0.02965914 -0.05834874 -0.0044434527 0.02071114
0.08310175 0.05448837 0.00819934 0.07092657 -0.048234615 0.015247484 -0.0023859222 0.061375484
0.038291264 -0.028115006 0.0064320425 -0.043211717 -0.04991422 -0.02053608 0.08267834 -0.017886566
-0.007818599 -0.059978288 0.02615066 0.06935473 0.035848033 -0.03892751 0.080087334 0.06557599
0.0593733 -0.046469178 0.087738276 0.065640666 0.0036582209 -0.027467765 -0.040054336 -0.045082215
-0.0011801549 0.09948445 0.014975376 0.0060669077 0.074756466 -0.082014985 0.05679278 0.07676587
-0.019831322 -0.0049018315 0.032569703 -0.03578045 0.086063445 0.044620726 -0.030638246 -0.04549666
0.0688708 0.070964925 0.029347852 0.009422089 0.0671221 -0.009524022 -0.061327677 0.12016765
0.02060881 -0.05870688 -0.044057406 -0.08682767 -0.00014417022 -0.073162675 -0.066388324 0.02200118
-0.0071293553 -0.036875732 -0.044966526 0.027095776 -0.017767215 0.050190732 -0.041975603 -0.058617506
-0.024722898 -0.00038359576 -0.06754268 -0.069641806 -0.07653339 0.09117212 -0.05552671 0.064478874
0.047804285 -0.05465369 -0.0054968055 -0.08911767 0.053432953 0.06307184 -0.025282007 0.05906739
0.06337271 0.073547944 -0.042749774 -0.0047174934 -0.077781275 0.078706406 0.010600953 -0.027807916
-0.0059767202 -0.07318242 0.033672813 -0.025168458 0.054764476 -0.03655677 0.03884032 -0.07453771
-0.04045834 -0.0897619 0.075722575 -0.06263308 -0.03631734 0.062104393 0.018496448 -0.013728316
-0.045605563 -0.08140628 0.023637662 0.019699061 -0.01835889 -0.03906361 -0.06666285 -0.014211521
-0.05623827 0.027256234 -0.062643126 -0.034425102 0.01925446 -0.07577229 -0.040977992 -0.04641046
0.075649105 -0.066696174 0.057409048 0.008820451 0.08957865 -0.006104241 0.01951899 -0.092365496
0.025808142 0.070510946 -0.057718534 -0.0333664 0.06119553 -0.02350033 0.08596241 0.065005094
0.07719394 -0.072276644 -0.03658969 0.026394038 0.07580834 -0.019644372 -0.044254668 -0.041710548
-0.036933597 -0.032561243 0.031146908 0.010624125 0.08577214 0.06367374 0.049416624 0.03751953
-0.06071013 -0.037997592 0.04981992 -0.06226286 -0.086105816 -0.0888244 -0.062292207 0.08299137
-0.03379297 -0.08120604 0.014791248 -0.065914184 0.06143317 0.059011225 -0.02410798 0.08531272
-0.034285598 -0.07385898 0.061002005 0.016208168 -0.090682544 0.0710132 0.05161861 0.03452814
-0.09180561 0.06893652 0.052768923 -0.0014044618 -0.05914133 -0.036478225 0.035174567 0.07205605
00000000: 0a04 89bc 2f5d e1bc faca 873c 391c b63d
00000010: aadd a73d c06b efbc c756 0f3c 806d aebd
00000020: eda9 253c b0ba 633d 7be1 963b 54b3 f1ba
00000030: c02a 9d3c 7a53 84bd ad53 0bbd dc26 553d
00000040: a804 e43c ec60 7dbd 79d4 85bd 9ae0 8d3d
00000050: 191c 403d d581 563b 7c63 c8bc 4e95 99bd
00000060: 6da7 cebd 909b 5abd 461d 903d f92d f93c
00000070: cb81 96bd fcc6 84bd e690 e4bc 5146 9a3d
00000080: 36ab 073d 6369 d13d 685a 733d 9df4 a13d
00000090: ed75 bb3b 046c 86bd 3ebb a2bd fa7c 85bd
000000a0: 7bf3 bb3d 83f5 13bc 7629 9dbd 7839 37bb
000000b0: cc5a b4bd ad4d c83d 7b71 e0bc e563 27bd
000000c0: 7fac 22bd 5a8b 1cbd 85a1 893d af7f 4a3d
000000d0: 54d0 883d d026 333c fe8c febc 2905 96bd
000000e0: 399a 603d c71a 93bd 8c5d dcbc 8f3c c23d
000000f0: baf7 f23c 17ff 6ebd 629a 91bb 69aa a93c
00000100: 4031 aa3d 322f 5f3d 8656 063c f341 913d
00000110: a991 45bd 95d0 793c 225d 1cbb dc64 7b3d
00000120: 4dd7 1c3d 7151 e6bc e2c3 d23b c5fe 30bd
00000130: da72 4cbd 483b a8bc 4353 a93d d986 92bc
00000140: 9519 00bc cbab 75bd e939 d63c da09 8e3d
00000150: 63d5 123d 7472 1fbd d404 a43d b44c 863d
00000160: 6b31 733d 7756 3ebd 20b0 b33d 9d6e 863d
00000170: c3be 6f3b 1404 e1bc 0410 24bd 21a8 38bd
00000180: 6daf 9aba 81be cb3d 485b 753c e9cc c63b
00000190: eb19 993d 79f7 a7bd 8c9f 683d 6d37 9d3d
000001a0: 4c75 a2bc 8b9f a0bb cf67 053d 858e 12bd
000001b0: 0842 b03d 39c4 363d 0ffd fabc b55a 3abd
000001c0: 220c 8d3d 0f56 913d e86a f03c 1b5f 1a3c
000001d0: 5077 893d a50a 1cbc bb32 7bbd 751a f63d
000001e0: cfd3 a83c a076 70bd 8a75 34bd b5d2 b1bd
000001f0: 662c 17b9 50d6 95bd 9af6 87bd d23b b43c
00000200: 5e9d e9bb 020b 17bd d22e 38bd f6f7 dd3c
00000210: 8d8c 91bc cc94 4d3d 9cee 2bbd e918 70bd
00000220: ad87 cabc 5a1d c9b9 d153 8abd 5da0 8ebd
00000230: 8abd 9cbd 73b8 ba3d fa6f 63bd 800d 843d
00000240: 6dce 433d 8cdc 5fbd 8c1e b4bb 5383 b6bd
00000250: 83dc 5a3d cf2b 813d 361c cfbc a6f0 713d
00000260: 8dc9 813d 4ea0 963d 631a 2fbd 3495 9abb
00000270: ca4b 9fbd d330 a13d 9faf 2d3c 6dcd e3bc
00000280: 5dd8 c3bb aae0 95bd 81ec 093d 152e cebc
00000290: b750 603d 8dbc 15bd 0717 1f3d 3aa7 98bd
000002a0: a5b7 25bd 16d5 b7bd 7014 9b3d c645 80bd
000002b0: 7ec1 14bd 2d61 7e3d dd85 973c bbec 60bc
000002c0: e6cc 3abd 56b8 a6bd c5a3 c13c ed5f a13c
000002d0: 6265 96bc 2a01 20bd 8886 88bd 70d7 68bc
000002e0: 1a5a 66bd 7748 df3c 0a4b 80bd 5601 0dbd
000002f0: 88bb 9d3c 812e 9bbd 8ad8 27bd e518 3ebd
00000300: ebed 9a3d 0198 88bd c025 6b3d a783 103c
00000310: 0375 b73d 1606 c8bb 4ae6 9f3c 1f2a bdbd
00000320: 996b d33c 0b68 903d 456a 6cbd 35ab 08bd
00000330: 2aa8 7a3d c483 c0bc 0f0d b03d 6421 853d
00000340: db17 9e3d c705 94bd 12df 15bd 4f38 d83c
00000350: 6741 9b3d 3ced a0bc 6244 35bd aed8 2abd
00000360: af47 17bd f05e 05bd cd27 ff3c cf10 2e3c
00000370: 4ea9 af3d 6167 823d 1669 4a3d 14ae 193d
00000380: 2fab 78bd 5da3 1bbd f90f 4c3d 5707 7fbd
00000390: 3f58 b0bd 91e9 b5bd 1d26 7fbd 61f7 a93d
000003a0: 7f6a 0abd 5a4f a6bd fe56 723c 04fe 86bd
000003b0: 59a1 7b3d c1b5 713d 197e c5bc 6fb8 ae3d
000003c0: 0e6f 0cbd 6043 97bd 3ddd 793d fec6 843c
000003d0: c5b7 b9bd 5e6f 913d 096e 533d 616d 0d3d
000003e0: 9404 bcbd 972e 8d3d 3a24 583d eb15 b8ba
000003f0: 2e3e 72bd 316a 15bd 3513 103d 1f92 933d

fc2.bias f4 [84]
0.042819455 -0.029088514 -0.019939965 -0.052556172 -0.018046508 0.13268116 -0.065238416 -0.0024940143
-0.045165952 -0.026678097 0.23309165 0.07440247 0.15422492 -0.076213494 -0.10374782 0.23878942
-0.016672269 0.054793786 -0.035978563 0.07469155 -0.031819668 0.083743684 0.016001362 -0.028665116
0.11651252 0.22957489 0.02844962 -0.06425617 -0.033767976 0.07688305 -0.08596411 0.034654636
-0.05365552 -0.08841949 -0.056721225 -0.010189913 0.1431934 -0.06753148 -0.0002173956 -0.0046213665
-0.061415896 -0.002316461 -0.08527076 0.068425074 0.08331754 -0.08994188 0.06683511 -0.061230786
0.05477101 0.093380116 0.07970511 0.059121512 -0.02337027 0.17264475 0.19417575 -0.043162074
0.10253666 0.027181406 -0.026665231 -0.035971016 0.0022884386 0.04465366 -0.045963008 -0.0450966
-0.05457581 -0.04886712 0.1579459 0.019860834 -0.002781933 -0.031268846 0.17612799 -0.044410847
0.001812597 0.024366807 0.16850956 -0.07862978 -0.06314821 0.038858026 0.048116308 0.057436094
-0.00017932193 0.13158447 -0.03581314 -0.04009163
00000000: 7463 2f3d 094b eebc 2359 a3bc 2445 57bd
00000010: 45d6 93bc 92dd 073e b89b 85bd 9e72 23bb
00000020: efff 38bd 068c dabc 94af 6e3e 5260 983d
00000030: 23ed 1d3e d215 9cbd bd79 d4bd 3785 743e
00000040: 4894 88bc 736f 603d 425e 13bd e2f7 983d
00000050: 5755 02bd cf81 ab3d 4a15 833c 1bd3 eabc
00000060: 1e9e ee3d ae15 6b3e 2d0f e93c bd98 83bd
00000070: 4a50 0abd dc74 9d3d f40d b0bd 05f2 0d3d
00000080: e4c5 5bbd 4715 b5bd 8454 68bd 98f3 26bc
00000090: 4aa1 123e f24d 8abd b0f4 63b9 d56e 97bb
000000a0: 3c8f 7bbd c4cf 17bb 70a2 aebd 7222 8c3d
000000b0: 63a2 aa3d 7333 b8bd d9e0 883d 22cd 7abd
000000c0: 9157 603d 133e bf3d 6f3c a33d 6629 723d
000000d0: 0273 bfbc c9c9 303e 02d6 463e b7ca 30bd
000000e0: befe d13d 8aab de3c 0b71 dabc 5856 13bd
000000f0: a1f9 153b c2e6 363d b543 3cbd 36b7 38bd
00000100: e28a 5fbd e428 48bd 92bc 213e 30b3 a23c
00000110: 1751 36bb c313 00bd e55a 343e 26e8 35bd
00000120: aa94 ed3a e69c c73c c58d 2c3e a608 a1bd
00000130: d953 81bd 9829 1f3d 9b15 453d 1c42 6b3d
00000140: 5d08 3cb9 14be 063e cdb0 12bd 1f37 24bd

fc3.weight f4 [10, 84]
0.02522829 -0.09576018 0.02585874 -0.01675323 -0.015509673 0.17470391 -0.030239083 -0.062817946
-0.0011610743 -0.059011314 0.40740976 0.07994904 0.32038122 -0.014539341 -0.1047716 0.31835753
-0.019667722 0.05835773 -0.07680534 0.20946005 0.101024546 0.0804671 -0.024780285 0.038704447
0.15059191 0.411811 0.12831534 -0.018771868 -0.08542568 0.10012513 0.05235549 0.029794842
0.08400132 -0.08913136 -0.07003249 -0.060439207 0.19948621 0.044339832 -0.065877214 -0.07273065
-0.08326717 0.031083869 0.030974202 0.09107645 0.010169178 -0.011798246 0.030017028 0.034229014
0.09233186 -0.060736045 0.31435862 0.029515317 -0.105582565 0.44291073 0.43628618 0.0059231813
0.2374145 -0.09475072 -0.07170362 0.016555516 0.097780615 0.14985524 -0.12436161 -0.05154748
-0.06135181 -0.009464633 0.3221244 0.08038991 -0.038205564 0.052510526 0.17710125 0.039256256
-0.05560039 -0.026124336 0.27969202 0.10830498 -0.035753228 0.13464496 -0.02392324 0.055065244
-0.065049686 0.12276649 -0.052870605 -0.017118294 0.20283648 0.03304105 -0.12296833 0.010250839
-0.022720894 0.008297323 0.17304371 0.18972038 0.14209358 0.040058553 0.26422244 -0.0552755
0.27282298 -0.082491845 0.24916887 -0.026638718 0.07429684 -0.031565186 -0.064324595 0.23138666
0.07115615 0.023555074 0.1040236 0.109013155 -0.10235127 0.18983707 -0.06487505 -0.05607581
0.16497874 -0.08942738 0.08024665 0.07904396 0.012449596 0.079386406 0.16759491 0.077982076
0.44612402 0.07824859 0.059527885 0.025741212 -0.0996209 -0.10088617 0.121496655 -0.09041209
-0.06587215 -0.061382603 -0.04818206 -0.11348035 0.2151298 0.25935286 0.22784145 0.013617323
-0.04036463 0.062294733 0.4555924 -0.078720525 0.21260682 0.057578947 0.106586605 -0.058291085
0.026901774 -0.00080799346 0.34031874 0.11206694 0.06777574 0.0731783 0.28670248 -0.09680986
0.09340156 0.05768873 -0.02974428 0.032399103 0.044216976 0.023719722 0.23569235 0.01112479
-0.08916492 0.013224345 0.2879822 -0.088363044 0.037441287 -0.08028474 -0.056331687 -0.013721272
-0.119138785 0.04868079 -0.07017124 -0.07625553 -0.09296865 -0.04604793 -0.057634354 -0.08779193
0.08840968 -0.06408116 -0.02655105 -0.07611723 -0.008215388 -0.029668927 -0.10720043 -0.08201993
0.047127448 -0.085920066 -0.008712733 -0.06537348 0.044883795 0.102345884 0.084423006 0.04685516
0.052990325 -0.090274885 0.011444103 0.0180396 -0.056560908 0.079924166 -0.041276038 0.007994816
0.08064472 -0.008002992 0.009323083 -0.05131101 -0.092317276 -0.078053676 -0.01742352 -0.040107224
0.0788282 0.083112516 -0.066732414 0.07178205 -0.06880327 -0.099946015 -0.006314967 -0.015684625
-0.01580059 -0.068507716 -0.14089502 0.014829808 0.0910736 -0.099646576 -0.16832605 0.026744867
-0.054572035 -0.041764647 -0.07725109 -0.055894885 -0.06513819 -0.07817072 -0.09096124 -0.025992721
0.09651704 -0.03605317 -0.08934568 0.0848749 0.0319991 -0.0569721 -0.016742712 -0.033076644
-0.07135038 0.077062055 -0.08013049 -0.05190126 -0.07655013 -0.03829608 0.058090366 -0.06010639
-0.08647598 0.070553906 -0.045778077 0.021274637 -0.032292128 0.0029510846 -0.0049542137 -0.044524185
00000000: 8fab ce3c ea1d c4bd b5d5 d33c 123e 89bc
00000010: 491c 7ebc 95e5 323e f4b7 f7bc b2a6 80bd
00000020: 302f 98ba d9b5 71bd 0398 d03e 53bc a33d
00000030: 0209 a43e 6b36 6ebc 7e92 d6bd c2ff a23e
00000040: 341e a1bc 8408 6f3d 1e4c 9dbd b27c 563e
00000050: f5e5 ce3d efcb a43d 0600 cbbc 8e88 1e3d
00000060: c434 1a3e e4d8 d23e 1965 033e 76c7 99bc
00000070: a9f3 aebd 670e cd3d b672 563d 5014 f43c
00000080: e208 ac3d 818a b6bd 326d 8fbd 1a8f 77bd
00000090: 1d46 4c3e af9d 353d a2ea 86bd cff3 94bd
000000a0: fa87 aabd 99a3 fe3c 9cbd fd3c 4a86 ba3d
000000b0: a09c 263c 6e4d 41bc 45e6 f53c b933 0c3d
000000c0: 7c18 bd3d 5cc6 78bd 9df3 a03e 1bca f13c
000000d0: ac3b d8bd 32c5 e23e e760 df3e 3f17 c23b
000000e0: c91c 733e aa0c c2bd 59d9 92bd 6f9f 873c
000000f0: 3441 c83d a773 193e 4db1 febd 7323 53bd
00000100: 094c 7bbd 8c11 1bbc 7ded a43e 77a3 a43d
00000110: 707d 1cbd 4715 573d 085a 353e 2bcb 203d
00000120: 3cbd 63bd b402 d6bc cb33 8f3e 00cf dd3d
00000130: fa71 12bd 5ee0 093e acfa c3bc 188c 613d
00000140: c538 85bd ff6c fb3d d98e 58bd aa3b 8cbc
00000150: 5eb4 4f3e 0d56 073d d2d6 fbbd 23f3 273c
00000160: 2b21 babc 7ff1 073c 5f32 313e 0f46 423e
00000170: fb80 113e 7014 243d 2a48 873e 9068 62bd
00000180: 74af 8b3e 7cf1 a8bd 2026 7f3e 7139 dabc
00000190: f128 983d 7f4a 01bd 9dbc 83bd a0f0 6c3e
000001a0: 51ba 913d 92f6 c03c 530a d53d 4a42 df3d
000001b0: 8b9d d1bd a664 423e 36dd 84bd c0af 65bd
000001c0: 30f0 283e b425 b7bd 5b58 a43d cde1 a13d
000001d0: 64f9 4b3c 5795 a23d 009e 2b3e 11b5 9f3d
000001e0: 5e6a e43e cc40 a03d 83d3 733d 3cdf d23c
000001f0: 0b06 ccbd 699d cebd 3dd3 f83d f929 b9bd
00000200: fae7 86bd 536c 7bbd 8d5a 45bd 6368 e8bd
00000210: fc4a 5c3e e6c9 843e 454f 693e 311b 5f3c
00000220: 6255 25bd c328 7f3d 6843 e93e 3a38 a1bd
00000230: 9ab5 593e e7d7 6b3d 144a da3d a2c2 6ebd
00000240: 1c61 dc3c 86cf 53ba 423e ae3e 5a83 e53d
00000250: 02ce 8a3d 81de 953d abca 923e 3f44 c6bd
00000260: 5149 bf3d 054b 6c3d 47aa f3bc ecb4 043d
00000270: dc1c 353d dd4f c23c 5659 713e c044 363c
00000280: 199c b6bd ecaa 583c 6772 933e aff7 b4bd
00000290: 095c 193d 536c a4bd 0ebc 66bd 30cf 60bc
000002a0: 09ff f3bd 8265 473d f0b5 8fbd dc2b 9cbd
000002b0: 5966 bebd c19c 3cbd 0012 6cbd 41cc b3bd
000002c0: 2210 b53d fc3c 83bd 9681 d9bc 5ae3 9bbd
000002d0: d699 06bc 400c f3bc e68b dbbd 11fa a7bd
000002e0: b608 413d dcf6 afbd dabf 0ebc 88e2 85bd
000002f0: 12d8 373d b89a d13d f8e5 ac3d 32eb 3f3d
00000300: 620c 593d 0ae2 b8bd 0c80 3b3c c9c7 933c
00000310: 69ac 67bd 48af a33d 1011 29bd b0fc 023c
00000320: 0f29 a53d fb1e 03bc d8bf 183c 7e2b 52bd
00000330: d710 bdbd 9bda 9fbd c5bb 8ebc 7947 24bd
00000340: ae70 a13d e536 aa3d 01ab 88bd 7802 933d
00000350: bbe8 8cbd 7fb0 ccbd c8ed cebb 0b7d 80bc
00000360: 3d70 81bc c64d 8cbd c946 10be b9f8 723c
00000370: cc84 ba3d 8113 ccbd aa5d 2cbe 0d18 db3c
00000380: ed86 5fbd 6811 2bbd d235 9ebd 09f2 64bd
00000390: 2c67 85bd f817 a0bd e349 babd b0ee d4bc
000003a0: baaa c53d 7dac 13bd defa b6bd e4d2 ad3d
000003b0: 7d11 033d 945b 69bd 0328 89bc 607b 07bd
000003c0: 2620 92bd b6d2 9d3d 741b a4bd 6a96 54bd
000003d0: 51c6 9cbd 5adc 1cbd 2af0 6d3d 1e32 76bd
000003e0: 521a b1bd 917e 903d cb81 3bbd 2648 ae3c
000003f0: c044 04bd fc66 413b f556 a2bb fe5e 36bd

fc3.bias f4 [10]
0.9360769 0.13691463 -0.09062934 -0.16537479 -0.124774806 -0.15352005 -0.08680673 -0.17596897
-0.041575275 -0.0669398
00000000: bca2 6f3f 5933 0c3e e09b b9bd 0258 29be
00000010: ef89 ffbd 5c34 1dbe bac7 b1bd 3631 34be
00000020: d64a 2abd bc17 89bd
